model/simple_charge/agent_2/194_actor_params.pkl (torch, 39657 bytes, 7 tensors)

fc1.weight f4 [64, 12]
0	0xbe961407	-0.29312155
1	0x3dd9c398	0.1063301
2	0x3dc0f991	0.09422601
3	0xbe830329	-0.25588349
4	0x3e4c7321	0.19965793
5	0x3e55d9c4	0.20883852
6	0x3b8fd5df	0.004389509
7	0xbed75d74	-0.42063487
8	0xbe8fc132	-0.28077084
9	0xbbe8446a	-0.0070882337
10	0x3de20b3d	0.110373
11	0x3e59714a	0.21234623
12	0x3dbf48d0	0.0934006
13	0x3d79d9d8	0.060998768
14	0xbe1540ec	-0.14575547
15	0xbe2a0291	-0.16602542
16	0xbe821cf7	-0.25412723
17	0x3e3ca624	0.18422753
18	0xbe68de38	-0.2274102
19	0x3c05c680	0.008165002
20	0xbca10420	-0.019655287
21	0xbe4ce46c	-0.20009011
22	0xbc059000	-0.008152008
23	0xbdc13942	-0.09434749
24	0xbe660f67	-0.22466813
25	0xbd4e1aba	-0.050318457
26	0x3bcc68a5	0.0062380605
27	0xbc57992e	-0.0131590795
28	0x3d803bd4	0.06261411
29	0xbda9ac2a	-0.08284791
30	0x3e0cdd21	0.13756229
31	0xbf17e239	-0.59329563
32	0x3c8b6ba9	0.01701911
33	0xbdf7fa5c	-0.12108299
34	0xbde138e5	-0.1099718
35	0x3e665e51	0.22496916
36	0x3d910b3b	0.0708222
37	0xbdbfc2a2	-0.09363295
38	0x3e319f18	0.17345846
39	0x3eb68844	0.35650837
40	0x3cfe92a9	0.031075792
41	0x3ec56ba2	0.3855868
42	0x3e02dd38	0.12779701
43	0xbe9068e9	-0.2820504
44	0x3b933d58	0.0044933967
45	0xbe64ac7e	-0.22331426
46	0xbc2f973b	-0.0107172085
47	0x3db20a22	0.08693339
48	0xbeb72dfb	-0.35777268
49	0x3a4ad9c7	0.000773814
50	0xbdaf399e	-0.085559115
51	0x3dea0a24	0.114277154
52	0xbd060749	-0.03272179
53	0xbed6ded6	-0.41966885
54	0x3e107650	0.14107633
55	0x3e97e25b	0.29664883
56	0xbda8f20a	-0.0824929
57	0x3e0facea	0.14030805
58	0xbc9c5785	-0.019084701
59	0x3db6868b	0.08912381
60	0x3dcb6a3f	0.09932374
61	0xbdaf48a2	-0.085587755
62	0x3e1f9a2f	0.1558616
63	0xbd80a87b	-0.06282135
64	0xbe7166c4	-0.23574358
65	0x3b082b24	0.0020777667
66	0x3ab846bc	0.0014059166
67	0x3eb7ecfc	0.35922992
68	0x3e5ca002	0.21545413
69	0xbcf2937e	-0.029611345
70	0x3ceb9583	0.028757816
71	0xbe0c8d20	-0.1372571
72	0x3e49bbc9	0.1970054
73	0xbe90bbed	-0.28268376
74	0x3e83e82b	0.25763068
75	0x3e1ff69b	0.15621416
76	0xbe877f32	-0.2646423
77	0xbb858007	-0.0040741
78	0xbca0e042	-0.019638184
79	0xbe00f179	-0.12592115
80	0xbda73fa6	-0.08166437
81	0x3d01d7d2	0.031699963
82	0x3e295b80	0.1653881
83	0xbdfd900b	-0.1238099
84	0xbd79a924	-0.06095232
85	0xbe34af3a	-0.17644969
86	0xbe83c6b1	-0.25737527
87	0x3e55a9b4	0.20865518
88	0xbcacec80	-0.021108866
89	0xbcaab900	-0.020840168
90	0xbe14bc14	-0.14524871
91	0x3decdf80	0.11566067
92	0xbe335997	-0.17514645
93	0xbe431724	-0.19051796
94	0x3e4dbf38	0.20092475
95	0x3d54baa8	0.05193582
96	0xbe48ae00	-0.19597626
97	0x3e3ed914	0.18637496
98	0xbe16fbc9	-0.14744486
99	0x3ca49a20	0.020093024
100	0xbd34c108	-0.0441294
101	0xbdc8de10	-0.0980798
102	0xbe0fe8d4	-0.1405366
103	0x3e85a730	0.26104116
104	0xbe713204	-0.23554236
105	0xbc089f20	-0.00833872
106	0x3e8234c6	0.25430888
107	0x3bd75d40	0.0065723956
108	0xbe8a8cef	-0.2706065
109	0x3e92b27d	0.286518
110	0xbe62106b	-0.22076575
111	0x3eb07289	0.34462383
112	0xbe92d53a	-0.28678304
113	0xbcd12810	-0.025531799
114	0x3e397a64	0.18113095
115	0xbe8edc49	-0.2790244
116	0xbea460c9	-0.3210509
117	0xbc7ff06a	-0.015621284
118	0xbdf84add	-0.12123654
119	0xbe57618f	-0.2103331
120	0xbe747a5b	-0.238748
121	0xbe4e6fbf	-0.20159815
122	0x3dbaa834	0.091141135
123	0xbca72a30	-0.020405859
124	0xbddf76a4	-0.10911301
125	0xbd677ff4	-0.05651851
126	0xbe1c534b	-0.15266149
127	0xbe32b0dc	-0.17450279
128	0xbd1faeec	-0.038985178
129	0x3cc61940	0.024181962
130	0xbe83dc7e	-0.2575416
131	0xbe3db504	-0.18526083
132	0x3dc4d170	0.096102595
133	0x3dc303d7	0.09522217
134	0xbe86d36c	-0.26333177
135	0xbe780e84	-0.24224287
136	0x3de7e4c1	0.11322928
137	0x3d735327	0.059405472
138	0x3d4e4104	0.050354972
139	0x3ec0bd91	0.37644628
140	0x3eb0d81f	0.34539887
141	0x3e86c797	0.2632415
142	0xbe2b2bcc	-0.16715926
143	0xbe08e278	-0.13367641
144	0xbe34a50a	-0.17641082
145	0x3dc1b9b2	0.09459247
146	0xbe5d1055	-0.21588261
147	0xbe0f194a	-0.13974491
148	0xbe7a6d2b	-0.24455707
149	0xbe018410	-0.12648034
150	0x3e44972c	0.19198292
151	0xbe2dc170	-0.16968322
152	0xbea95aa3	-0.33076963
153	0xbe8b94ed	-0.2726206
154	0xbe6d0031	-0.23144604
155	0xbda2b177	-0.07944005
156	0x3dbc7144	0.09201291
157	0x3e306baa	0.1722857
158	0x3e70be2c	0.23510045
159	0x3e5ea1b8	0.21741378
160	0x3dde25b8	0.10847038
161	0xbde0e4fe	-0.10981177
162	0xbe140466	-0.14454803
163	0xbe61b93f	-0.22043322
164	0xbe48293e	-0.19546983
165	0x3d2f6840	0.04282403
166	0xbe6aa8fd	-0.22916026
167	0x3d687380	0.056750774
168	0xbd4524dc	-0.048130855
169	0xbdb2189c	-0.086961
170	0x3dc11830	0.094284415
171	0x3d9638f0	0.07335079
172	0x3d999f4c	0.075010866
173	0xbe8dc1bc	-0.2768687
174	0xbe52e27b	-0.20594208
175	0x3e028c2e	0.12748787
176	0xbe13bddd	-0.14427896
177	0xbde0d082	-0.1097727
178	0x3e928bf2	0.28622395
179	0x3e4173b2	0.1889179
180	0x3e80788f	0.2509198
181	0xbc9b0963	-0.018925374
182	0x3da4ba35	0.08043329
183	0xbd940628	-0.07227737
184	0xbbe63a42	-0.007025988
185	0x3db0b64f	0.086285226
186	0xbdd9761e	-0.10618232
187	0x3e5c4920	0.2151227
188	0x3e702951	0.23453261
189	0x3de2a701	0.1106701
190	0xbca68b36	-0.020330053
191	0xbe5a9396	-0.21345362
192	0xbd2aa938	-0.041665286
193	0x3e315c3c	0.17320341
194	0xbc915870	-0.017742366
195	0x3c8827a0	0.016620457
196	0x3db1ffa8	0.08691341
197	0xbb800fc0	-0.0039081275
198	0xbe8540b9	-0.26025942
199	0x3e1b7874	0.15182668
200	0xbca62b30	-0.020284265
201	0xbda42f84	-0.080168754
202	0x3ca33300	0.01992178
203	0x3dba8870	0.09108055
204	0xbd038fd8	-0.032119602
205	0xbd8925b8	-0.066966474
206	0x3e6fec44	0.23429972
207	0xbd5abdf4	-0.05340381
208	0x3e8dfa3e	0.27729982
209	0xbe7e171f	-0.24813507
210	0xbd3b25e4	-0.045690432
211	0x3d758918	0.059945196
212	0x3e5736e2	0.2101703
213	0xbd7ddb04	-0.061976448
214	0x3e0baede	0.13640925
215	0x3ddb8de0	0.1072042
216	0x3dc06987	0.09395128
217	0xbe599437	-0.21247946
218	0x3df8c83d	0.121475674
219	0x3e3cae85	0.18425949
220	0xbd03031e	-0.031985395
221	0x3e927235	0.28602758
222	0x3e636c3e	0.2220926
223	0xbe82fa10	-0.25581408
224	0x3dadcb56	0.08486049
225	0xbe31f62d	-0.17379065
226	0xbdbb3f03	-0.09142878
227	0xbe111e80	-0.14171791
228	0x3e64d9c8	0.22348702
229	0x3d4a91e0	0.049455523
230	0x3e3b67c2	0.18301299
231	0x3e5520e6	0.20813331
232	0xbe2ccd2c	-0.16875142
233	0x3e918ace	0.28426212
234	0xbd1e3470	-0.038624227
235	0x3e8f2854	0.27960455
236	0x3af4ca00	0.0018675923
237	0xbe8b5390	-0.2721219
238	0x3e65b354	0.2243169
239	0x3e8163f2	0.25271565
240	0x3e99309c	0.299199
241	0xbd31980e	-0.0433579
242	0x3e6ae47e	0.22938725
243	0xbde8ccd1	-0.11367191
244	0x3ca6dffb	0.020370474
245	0xbdf58ed9	-0.11990137
246	0x3d8b72a6	0.06808977
247	0xbd92f8e8	-0.07176381
248	0x3d326d5c	0.043561324
249	0xbe7cddb1	-0.24693944
250	0xbe3c343a	-0.18379298
251	0x3dc37c6d	0.09545217
252	0x3e86e45a	0.26346093
253	0x3e314a74	0.17313558
254	0xbe6977ae	-0.2279956
255	0x3e529d27	0.20567761

fc1.bias f4 [64]
0	0xbe0bcd37	-0.13652502
1	0xbb8632c0	-0.0040954053
2	0xbdef4fa4	-0.11685112
3	0x3d675586	0.056478046
4	0xbeb74c1f	-0.35800263
5	0x3dbabd3c	0.09118125
6	0x3dd79328	0.10526115
7	0xbe6302ba	-0.22169009
8	0xbe07007a	-0.13183776
9	0xbcc56a5d	-0.02409857
10	0xbc6295a0	-0.013829619
11	0xbe5aacfc	-0.21355051
12	0xbe2b967c	-0.16756624
13	0x3e8c17dc	0.27361953
14	0x3e7b1634	0.24520189
15	0x3d6e36ba	0.05815766
16	0x3e2ccd40	0.16875172
17	0x3e5f4548	0.21803772
18	0x3e146042	0.14489844
19	0xbdf0dc64	-0.11760786
20	0x3ce8052f	0.028322784
21	0xbe86752c	-0.2626127
22	0xbd88e4ee	-0.0668429
23	0x3e70bdb0	0.2350986
24	0xbc2a4f00	-0.010394812
25	0xbda664d0	-0.08124697
26	0x3d4c0dbe	0.049817793
27	0x3e32b63d	0.17452331
28	0xbdedc6cf	-0.11610185
29	0xbe73f7f1	-0.23825051
30	0xbe6f6769	-0.23379292
31	0x3e61a926	0.22037181
32	0x3e46afc0	0.19402981
33	0xbe0da02c	-0.13830632
34	0x3e259e02	0.16173556
35	0xbdcb5b9a	-0.09929581
36	0xbe17396e	-0.14768001
37	0x3e1e1966	0.15439376
38	0x3e1bf683	0.15230756
39	0xbe87c76f	-0.26519343
40	0x3daa6a04	0.08321002
41	0x3d6a9580	0.05727148
42	0x3e6c87b0	0.23098636
43	0xbe29765b	-0.16549055
44	0x3e2c59e7	0.1683117
45	0x3e6feee4	0.23430973
46	0x3e4e0a91	0.20121218
47	0xbe4d8491	-0.20070101
48	0x3ca57c30	0.020200819
49	0xbd657584	-0.056020275
50	0xbe911e6f	-0.2834353
51	0x3e705b39	0.23472299
52	0xbe76c642	-0.24099067
53	0x3e765680	0.24056435
54	0xbe5d3868	-0.21603549
55	0x3e0cce5a	0.13750592
56	0x3d18ade8	0.037275225
57	0xbe865313	-0.26235256
58	0xbe1d1352	-0.15339401
59	0x3dbb67eb	0.0915068
60	0x3cb3ca9b	0.021947196
61	0x3d92ea9c	0.071736544
62	0x3e69e120	0.22839785
63	0xbda48314	-0.08032814

fc2.weight f4 [64, 64]
0	0x3df73912	0.12071432
1	0x3c5c33f0	0.013440117
2	0x3df6d4ad	0.120522834
3	0x3e71797f	0.23581503
4	0x3cf508fd	0.029911513
5	0xbc1a4657	-0.009416184
6	0xbdf3be92	-0.11901583
7	0x3c9ccc80	0.019140482
8	0x3d882bd8	0.066489875
9	0x3dbd3402	0.09238435
10	0x3dd395d6	0.10331313
11	0xbdec5f87	-0.11541658
12	0x3db67af3	0.089101695
13	0xbdea3664	-0.114361554
14	0x3db1d7da	0.086837485
15	0xbd07515a	-0.033036567
16	0xbb609200	-0.003426671
17	0x3db0df52	0.08636345
18	0xbdc12412	-0.09430708
19	0xbdda6238	-0.10663265
20	0x3e09dd83	0.13463406
21	0x3dec3365	0.1153324
22	0x3d3fb02c	0.04679887
23	0x3dd17f20	0.10229325
24	0xbdab4c22	-0.083641306
25	0x3bbebbe7	0.0058207395
26	0xbd957d7d	-0.072993256
27	0x3e5a0d15	0.21294053
28	0xbc98368e	-0.018580701
29	0xbddd1682	-0.10795309
30	0x3e15a3b1	0.14613225
31	0xbdd1cbef	-0.10243975
32	0xbc36bdca	-0.011153648
33	0xba887300	-0.0010410249
34	0xbcdcf0c4	-0.026970275
35	0xbcf4f378	-0.029901251
36	0xbdd3703c	-0.103241414
37	0x3d5302f0	0.051516473
38	0xbc09dc96	-0.008414408
39	0xbda30dca	-0.079616144
40	0xbd6e9e98	-0.058256716
41	0xbc540a24	-0.012941871
42	0x3d83455c	0.064097136
43	0xbd7b8dea	-0.061414637
44	0xbcd8163e	-0.026377793
45	0x3acfc680	0.0015852004
46	0xbc626e13	-0.013820189
47	0xbd7eb479	-0.06218383
48	0x3d778d68	0.06043759
49	0x3b16668f	0.0022949313
50	0x3d000650	0.03125602
51	0x3d0abc39	0.03387091
52	0xbd751133	-0.059830856
53	0xbc0b7f90	-0.0085143
54	0xbcb9239c	-0.022599988
55	0xbdefde5d	-0.11712334
56	0xbdbf2aa0	-0.09334302
57	0xbdb36491	-0.08759416
58	0x3cfdcf90	0.030982763
59	0x3d99c197	0.075076275
60	0x3ceb12d9	0.02869551
61	0x3d4be114	0.049775198
62	0x3e85c7a8	0.26128888
63	0x3e341946	0.17587766
64	0xbd9ea590	-0.07746422
65	0xbd307ffc	-0.043090805
66	0xbdd451ee	-0.10367189
67	0xbc8fdd47	-0.017561568
68	0xbdd51881	-0.104050644
69	0xbdfbe069	-0.12298662
70	0x3cdc97e0	0.026927888
71	0x3da36c52	0.07979645
72	0x3dd9f71a	0.10642834
73	0xbd7e1007	-0.062027004
74	0xbcdd9638	-0.027049169
75	0x3dba2f6e	0.09091078
76	0xbddf3237	-0.108982496
77	0x3da217ac	0.07914671
78	0xbdf1282a	-0.11775239
79	0x3de31b09	0.11089141
80	0x3df3f274	0.11911479
81	0x3c9e0168	0.01928778
82	0x3dab41ca	0.08362158
83	0x3dda617c	0.10663125
84	0xbd6e2634	-0.058141902
85	0xbdb8dbd4	-0.09026304
86	0xbd95ec4c	-0.07320461
87	0xbc3c5ba1	-0.011496455
88	0xbc4fe5c0	-0.012689054
89	0xbc11c89a	-0.008897925
90	0xbdf1c43c	-0.11805007
91	0x3d443e04	0.047910705
92	0xbc9eb66a	-0.019374091
93	0x3d596dc8	0.05308321
94	0xbba51b3f	-0.0050386484
95	0x3d4c29a9	0.049844418
96	0x3dec591b	0.11540433
97	0x3d2575a8	0.04039541
98	0x3c6b3d7f	0.0143579235
99	0x3d93834e	0.07202779
100	0x3db60460	0.08887553
101	0x3da9b6dc	0.08286831
102	0xbdb21907	-0.0869618
103	0x3d851cc1	0.06499625
104	0xbd30fd10	-0.04321009
105	0xbd2e9f03	-0.042632114
106	0x3cbd1358	0.023080513
107	0xbd987695	-0.07444493
108	0x3de04e26	0.10952406
109	0xbd677d14	-0.05651577
110	0x3cdc1f7b	0.02687048
111	0xbdfe3a1c	-0.12413427
112	0x3d59c7e8	0.05316916
113	0xbd329e03	-0.043607723
114	0x3ce03dc8	0.02737321
115	0xbc9586d6	-0.018252771
116	0x3dbf09de	0.09328054
117	0x3c9d9288	0.01923491
118	0x3c3dc523	0.011582646
119	0xbd46aa7e	-0.048502438
120	0x3caa2e00	0.020773888
121	0xbce4f3c5	-0.02794827
122	0x3d6926d5	0.0569218
123	0xbda8489b	-0.082169734
124	0xbc55999f	-0.013037114
125	0xbd615768	-0.055014998
126	0xbd444704	-0.04791929
127	0x3ddeeb71	0.10884751
128	0x3cbeec38	0.023305997
129	0x3def66b8	0.11689514
130	0xbd5aea48	-0.053446084
131	0x3d7ab980	0.061212063
132	0xbcaae370	-0.020860404
133	0xbd79997c	-0.06093739
134	0xbc9be548	-0.019030228
135	0x3dba22b0	0.09088647
136	0xbde0fdc2	-0.109859005
137	0xbdf006f6	-0.11720078
138	0xbd684b6c	-0.056712553
139	0xbdcecba0	-0.10097432
140	0xbd72de94	-0.0592943
141	0xbcce4520	-0.025179446
142	0x3d9e55ba	0.07731195
143	0xbdd72a3a	-0.10506101
144	0x3b1aefc0	0.0023641437
145	0xbd29770c	-0.041373298
146	0x3d06fc3c	0.032955393
147	0xbc657c50	-0.014006689
148	0xbd894d8c	-0.06704244
149	0x3d28f520	0.041249394
150	0xbd77bea4	-0.060484543
151	0xbc88ffe0	-0.016723573
152	0x3d199d18	0.037503332
153	0xbd682f04	-0.056685463
154	0x3dfa64f4	0.122262865
155	0x3dcef6cc	0.101056665
156	0x3dc4fd8a	0.09618671
157	0xbd7b2e9c	-0.061323747
158	0xbd8e20da	-0.0693986
159	0x3d5f5674	0.054525807
160	0x3d9f8d9a	0.0779068
161	0xbd8f62d2	-0.0700127
162	0x3cae4050	0.021270901
163	0x3db0592e	0.0861076
164	0xbc9e6248	-0.019333974
165	0x3d096a88	0.03354886
166	0x3d0cb024	0.03434767
167	0xbd913c50	-0.07091582
168	0xbd3f1864	-0.04665412
169	0xbdeff4fe	-0.117166504
170	0x3dce51f4	0.10074225
171	0x3cb1d670	0.021708697
172	0xbdf01fc2	-0.11724807
173	0xbd94154e	-0.07230626
174	0x3d247dc4	0.040159002
175	0xbdb367a8	-0.08760005
176	0xbcfdcc80	-0.030981302
177	0x3ca76230	0.020432562
178	0xbca064c8	-0.019579306
179	0xbd895f58	-0.067076385
180	0x3d3bc120	0.045838475
181	0x3d7cf1b0	0.06175393
182	0x3dfb9fe8	0.12286359
183	0xbc92ca98	-0.01791887
184	0x3d31e5ac	0.043431923
185	0x3dffc5a6	0.1248887
186	0x3d6da11c	0.058014974
187	0xbc69ff40	-0.014282048
188	0xbcc5bd08	-0.024137989
189	0xbdb2bf6c	-0.08727917
190	0xbd052760	-0.032508254
191	0x3db749de	0.08949636
192	0x3de85308	0.11343962
193	0x3dc8a8b6	0.09797804
194	0x3d3ae580	0.045629025
195	0x3e92822a	0.28614932
196	0xbdea9396	-0.11453931
197	0xbd22b711	-0.039725367
198	0xbcadebcd	-0.021230603
199	0x3da1a342	0.07892467
200	0xbd88ca94	-0.06679264
201	0x3dc0fe42	0.09423496
202	0x3dab1dbc	0.08355281
203	0xbdc2edae	-0.0951799
204	0x3e0e3aa8	0.13889563
205	0xbd9d082a	-0.07667573
206	0xbde6ac16	-0.112632915
207	0xbae7ce28	-0.0017685341
208	0xbdab59a8	-0.0836671
209	0xbd6cc608	-0.057806045
210	0x3dab8376	0.083746836
211	0x3d00d098	0.03144893
212	0x3e306eaf	0.17229722
213	0xbd15e196	-0.03659209
214	0x3dad8e38	0.08474392
215	0xbd45511e	-0.048173063
216	0x3dd622d2	0.1045586
217	0xbdbdc80a	-0.0926667
218	0xbdb71f05	-0.089414634
219	0xbb25edeb	-0.0025318812
220	0x3d04d1be	0.03242659
221	0xbd5745ec	-0.052556917
222	0x3de6bcc0	0.1126647
223	0xbd95a698	-0.07307166
224	0xbccb98af	-0.024853079
225	0x3c794d58	0.015216194
226	0xbca595d8	-0.020213053
227	0x3d5dff48	0.054198533
228	0x3ceea4e0	0.029131353
229	0x3d9aafea	0.07553084
230	0xba68bd19	-0.00088782754
231	0xbdbbe16c	-0.09173855
232	0x3bbce380	0.005764425
233	0x3ceb909e	0.028755482
234	0x3cf3fc08	0.029783264
235	0xbdedad61	-0.11605335
236	0xbda710ea	-0.08157523
237	0xbc8c0430	-0.01709184
238	0x3df4f1b8	0.11960167
239	0x3da1863c	0.07886931
240	0xbde48dcc	-0.11159858
241	0xbde603bd	-0.11231182
242	0x3d39b9cc	0.045343205
243	0x3de36e51	0.111050256
244	0x3daea75e	0.085280165
245	0xbdf89f58	-0.121397674
246	0x3dee52bc	0.11636874
247	0x3c313b3e	0.010817347
248	0xba57ee00	-0.0008237064
249	0xbe0c7250	-0.13715482
250	0xbd2047c8	-0.039130956
251	0x3d922d43	0.07137539
252	0xbc4af65c	-0.012387838
253	0xbc52b8a0	-0.012861401
254	0x3e3a9eef	0.18224691
255	0x3e37869a	0.1792244

fc2.bias f4 [64]
0	0xbdd3d460	-0.10343242
1	0xbb2fd4c0	-0.002682969
2	0xbcf7ce30	-0.030249685
3	0x3dda04fb	0.10645481
4	0xbe032789	-0.1280805
5	0xbdcbf734	-0.0995926
6	0x3d9c8dda	0.076442435
7	0x3dc3fa78	0.095692575
8	0xbc31ff40	-0.010864079
9	0x3d7e2d14	0.06205471
10	0xbdf7119c	-0.120639056
11	0x3ccf0a1a	0.025273371
12	0xbc9c9478	-0.019113764
13	0xbdf2ce06	-0.11855702
14	0x3c7f67b7	0.015588692
15	0x3db25330	0.08707273
16	0xbdab867c	-0.0837526
17	0x3d9107e7	0.070815854
18	0x3d21d475	0.039509255
19	0x3d127a20	0.035761
20	0xbda029f2	-0.078205004
21	0x3da6f44a	0.08152063
22	0xbd4916a4	-0.049093857
23	0xbda6d7d7	-0.08146637
24	0xbd2cbb9b	-0.042171102
25	0x3ded54d1	0.11588443
26	0x3bf73ab8	0.0075448416
27	0x3db73f83	0.08947661
28	0x3d4abf14	0.049498633
29	0x3d1cf177	0.038316216
30	0xbd1264a0	-0.035740495
31	0xbdd8c37a	-0.10584159
32	0xbe01e22d	-0.12683935
33	0x3bb0a9d8	0.0053913407
34	0xbd8b6641	-0.06806613
35	0xbc06592a	-0.008199969
36	0xbe25d790	-0.16195512
37	0x3cc6d459	0.024271177
38	0x3d1e3c4c	0.038631722
39	0xbe0df1c9	-0.13861765
40	0xbcc918b4	-0.024547912
41	0x3dd8ef0e	0.10592471
42	0xbcdbe8d8	-0.026844427
43	0xbddb6226	-0.1071208
44	0x3dee3693	0.11631503
45	0xbd227427	-0.039661553
46	0xbda1dd4f	-0.079035394
47	0xbd8da970	-0.06917083
48	0xbd8664dc	-0.06562206
49	0xbd34c17a	-0.044129826
50	0xbb9e32f2	-0.0048278505
51	0xbdf95ffc	-0.12176511
52	0x3dcb5b62	0.09929539
53	0xbd8e42de	-0.06946348
54	0x3cb233c9	0.021753209
55	0xbce0ceb7	-0.02744232
56	0xbd883a18	-0.066517055
57	0xbd87d6a4	-0.06632736
58	0x3bba3bd3	0.005683401
59	0xbe08d7fe	-0.13363644
60	0xbc4a0705	-0.012330775
61	0xbd96791a	-0.07347317
62	0x3c12b79b	0.008954908
63	0xbd918cb5	-0.07106916

fc3.weight f4 [64, 64]
0	0x3e62a656	0.22133765
1	0x3d88995b	0.06669875
2	0xbd561c2c	-0.05227296
3	0x3df1fe28	0.118160546
4	0x3d264208	0.040590316
5	0xbd61bf38	-0.055114
6	0x3d1c9cb8	0.038235396
7	0x3c60f899	0.013731145
8	0x3a3fa800	0.0007311106
9	0xbd8a9454	-0.067665726
10	0x3859d91a	5.1939023e-05
11	0xbd2437d6	-0.04009231
12	0x3e252830	0.16128612
13	0x3df71296	0.12064092
14	0x3e5ef166	0.21771774
15	0x3e24c25f	0.16089772
16	0x3c493c20	0.012282401
17	0xbd46b084	-0.048508182
18	0xbd9c4556	-0.07630412
19	0x3d5e4fe4	0.05427541
20	0x3df1f7d2	0.11814846
21	0xbb2fb5c0	-0.0026811212
22	0xbe0bab29	-0.13639511
23	0x3dd8cda8	0.10586101
24	0xbda2bd26	-0.079462335
25	0x3e7474d8	0.23872697
26	0x3ccf69f8	0.025319085
27	0xbd94b6c0	-0.07261419
28	0xbd40542c	-0.046955273
29	0xbdaecf91	-0.08535684
30	0x3b900ce0	0.004396066
31	0x3d8a2ec4	0.06747201
32	0x3d9091ff	0.070590965
33	0x3d6c2f81	0.05766249
34	0x3dc847c0	0.0977931
35	0x3d8e2648	0.06940895
36	0xbd00c608	-0.031438857
37	0xbd13e9fa	-0.03611181
38	0x3d6c03ac	0.05762069
39	0xbda210f0	-0.07913387
40	0xbd48812b	-0.04895131
41	0x3d45d3a8	0.048297554
42	0xbd88b4f2	-0.066751376
43	0x3d466dcb	0.04844455
44	0x3db8125c	0.08987877
45	0x3d4f710f	0.05064493
46	0xbd144353	-0.036197018
47	0xbc3f44d0	-0.011674121
48	0x3e1aab0b	0.1510431
49	0x3ca1096f	0.019657819
50	0x3c8a037e	0.016847368
51	0xbddd27fa	-0.107986405
52	0x3da69786	0.081343696
53	0xbdf35c06	-0.118827865
54	0xbc8a276e	-0.016864505
55	0x3ddd84ab	0.1081632
56	0x3d29991c	0.041405782
57	0x3d158276	0.03650137
58	0x3dc63c9c	0.09679529
59	0xbca20581	-0.019778015
60	0x3cff73ea	0.031183202
61	0x3dff3692	0.1246158
62	0x3dd63d5c	0.10460922
63	0xbcd43f13	-0.025908982
64	0x3e22100f	0.15826438
65	0xbcf4de4f	-0.029891161
66	0x3dbea15e	0.09308122
67	0x3df95898	0.12175101
68	0x3c60545b	0.013691987
69	0x3dff18c6	0.12455897
70	0x3dae1776	0.085005686
71	0x3ce7949b	0.028269103
72	0x3cbf3bb8	0.023343906
73	0xbddf9566	-0.10917167
74	0xbd3d8dbc	-0.046277747
75	0x3c29618c	0.010338198
76	0x3d8af529	0.06785042
77	0xbda839a2	-0.082141176
78	0x3db854be	0.09000538
79	0x3d3a0781	0.045417313
80	0xbb9ca560	-0.0047804564
81	0x3c311037	0.010807089
82	0xbc2826e7	-0.010263181
83	0xbdf20c9e	-0.11818813
84	0xbc70a440	-0.014687598
85	0xbd91c3bc	-0.071174115
86	0xbe3156e5	-0.17318304
87	0x3dd392b2	0.10330714
88	0xbd76db43	-0.060267698
89	0x3df14598	0.11780852
90	0x3dba749e	0.09104274
91	0x3deed3ac	0.11661467
92	0xbc1224d0	-0.00891991
93	0xbd9d76f0	-0.07688701
94	0xbca7c050	-0.020477444
95	0xbd2e8c86	-0.042614482
96	0xbbe1428b	-0.0068743876
97	0x3de77ac2	0.11302711
98	0x3cec60e5	0.028854797
99	0x3e0d8abb	0.13822453
100	0x3d74f49c	0.05980359
101	0xbd910983	-0.07081892
102	0x3d977fc6	0.07397418
103	0xbaf7186b	-0.0018851882
104	0xbda46c09	-0.080284186
105	0xbdc601d6	-0.09668319
106	0x3dfd6da4	0.12374428
107	0xbd8bebad	-0.06832061
108	0x3ad07990	0.0015905369
109	0xbc91a3f8	-0.017778382
110	0x3bb45857	0.005503695
111	0xbc40fc60	-0.011778921
112	0x3d2e3eac	0.042540237
113	0x3dcb8f06	0.09939389
114	0x3d9f30e4	0.07772997
115	0x3d002258	0.031282753
116	0x3d9418bc	0.0723128
117	0xbdb72ab8	-0.08943695
118	0xbda35945	-0.07976011
119	0x3d268f58	0.040664047
120	0xbd9894f8	-0.074502885
121	0xbd2b238d	-0.04178195
122	0x3e27f5c8	0.16402352
123	0x3d95010a	0.07275589
124	0xbc23841f	-0.009980231
125	0x3dabbbe6	0.08385448
126	0x3d3ac83a	0.045601107
127	0xbda4dfb4	-0.080504805
128	0x3deccc3b	0.11562391
129	0x3d3ffe88	0.0468736
130	0xbd41f5f4	-0.0473537
131	0x3dda675d	0.10664246
132	0x3d56af9e	0.052413575
133	0x3d7fc0cd	0.06243973
134	0x3e3baab4	0.18326837
135	0xbcf7744e	-0.030206826
136	0x3d57ead8	0.0527142
137	0x3dcdf6be	0.10056828
138	0xbd45952f	-0.048237976
139	0x3e0c0187	0.13672458
140	0x3e26193b	0.16220562
141	0x3db19a66	0.08672027
142	0x3e676589	0.22597326
143	0x3cc55b85	0.024091491
144	0x3d63968c	0.055563495
145	0xbd9cb3c0	-0.07651472
146	0x3d108daf	0.03529137
147	0x3b504140	0.0031777173
148	0xbc92b040	-0.017906308
149	0xbdf591b2	-0.1199068
150	0xbcf5aa8f	-0.029988555
151	0xbdab7f45	-0.08373884
152	0x3c7862b8	0.015160255
153	0xbc3c9022	-0.011508973
154	0xbd1f3452	-0.038868256
155	0x3d98a26c	0.074528545
156	0x3ddaa5da	0.10676165
157	0x3dad1f9c	0.08453295
158	0xbd7bb9ab	-0.061456364
159	0xbddb3fca	-0.10705526
160	0x3d3335c9	0.043752465
161	0x3db40573	0.08790102
162	0xbcac8187	-0.021057857
163	0xbc02b35d	-0.007977334
164	0x3dfc25b0	0.12311876
165	0xbe49e4b7	-0.19716154
166	0xbde08a52	-0.109638825
167	0x3d96b6d8	0.073590934
168	0x3d99354c	0.07480869
169	0xbd99eb0e	-0.07515536
170	0x3ddfc90a	0.10927017
171	0x3dcecece	0.100980386
172	0xbddb0621	-0.10694528
173	0xbcd337cd	-0.025783444
174	0x3ccfc024	0.025360174
175	0xbc9ea0d8	-0.019363806
176	0x3d2efb7e	0.04272031
177	0xbd5fe0f3	-0.054657888
178	0x3d699e46	0.057035707
179	0xbd81f03e	-0.06344651
180	0x3e127cfd	0.14305492
181	0x3d8930e2	0.06698777
182	0x3cb8353b	0.02248632
183	0x3d50c949	0.05097321
184	0xbce0bdb8	-0.027434215
185	0x3da8dbd2	0.082450524
186	0x3c2186d8	0.009858809
187	0xbd8aee12	-0.067836896
188	0x3de7e83f	0.11323594
189	0xbb8748e0	-0.0041285604
190	0x3c162709	0.00916458
191	0xbcf8be11	-0.030364068
192	0x3c4cc5b9	0.012498313
193	0xbdeb9920	-0.11503816
194	0xbd8ca440	-0.06867266
195	0x3d00fc5b	0.031490665
196	0x3da822a9	0.08209736
197	0x3da01fbf	0.07818555
198	0x3e1d383d	0.15353484
199	0xbccf38cf	-0.025295643
200	0x3d97b5b6	0.074077055
201	0xbdf466be	-0.11933659
202	0x3c80962d	0.01569661
203	0x3ddb7d96	0.10717313
204	0x3da1ab75	0.07894031
205	0xbd8b9028	-0.06814605
206	0x3e3e33a6	0.1857439
207	0x3dc30819	0.09523029
208	0xba189600	-0.00058206916
209	0xbcbb2194	-0.02284316
210	0xbd231ae0	-0.039820552
211	0xbcef3290	-0.029198915
212	0xbb736ac0	-0.0037142485
213	0x3dcf0444	0.101082355
214	0xbc72041b	-0.014771487
215	0x3d908a2f	0.070576064
216	0xbda3ff2f	-0.08007657
217	0xbd123c72	-0.035702176
218	0x3cd4a49b	0.025957396
219	0xbc283a1d	-0.010267762
220	0x3da23aee	0.07921396
221	0x3d955884	0.07292274
222	0x3d22b0b3	0.039719295
223	0x3dbabfbb	0.09118601
224	0x3d1f2034	0.03884907
225	0x3dd573d0	0.1042248
226	0xbc0dd84f	-0.008657529
227	0x3e42b04b	0.19012563
228	0x3bb32a22	0.005467669
229	0xbdacd7e9	-0.08439619
230	0xbd934c6a	-0.07192309
231	0x3d960cf0	0.073266864
232	0xbba54c20	-0.005044475
233	0xbce020a0	-0.027359307
234	0x3ddfee4a	0.10934122
235	0x3b81544a	0.0039468156
236	0xbc9988a5	-0.018741915
237	0xbd961154	-0.07327524
238	0xbce6845a	-0.028139282
239	0xbbe67860	-0.007033393
240	0x3e3dac4a	0.18522754
241	0xbd6e0f36	-0.058119975
242	0x3e1190a0	0.14215326
243	0x3dcd8d0c	0.10036668
244	0x3dd7b951	0.10533393
245	0x3a004400	0.0004892945
246	0x3ddb9b86	0.10723023
247	0x3deb1238	0.11478084
248	0xbb9cdf80	-0.0047873855
249	0x3d6871bf	0.0567491
250	0x3dd42522	0.10358645
251	0xbd4b37d8	-0.049613804
252	0x3d6d57ac	0.05794494
253	0x3db7d258	0.08975667
254	0xbd28ffaf	-0.041259464
255	0xbca82bbc	-0.020528667

fc3.bias f4 [64]
0	0xbbf78306	-0.007553461
1	0x3e04d08e	0.12970182
2	0x3d98603a	0.07440229
3	0xbd9645e6	-0.07337551
4	0xbdca06e8	-0.098645985
5	0x3d321ef0	0.043486536
6	0x3a60c4df	0.0008574258
7	0x3d5c4895	0.053780157
8	0xbd950121	-0.07275606
9	0xbdf11702	-0.117719665
10	0xbdcf292d	-0.101152755
11	0xbdbaf1c4	-0.091281444
12	0xbd2f9a81	-0.042871956
13	0xbdb230f4	-0.08700743
14	0x3df31639	0.11869473
15	0xbc7bcad0	-0.0153681785
16	0x3d897591	0.06711877
17	0x3cbb2d79	0.022848831
18	0xbbbdb128	-0.005788941
19	0xbabf4a55	-0.0014594296
20	0xbd8d1b31	-0.06889952
21	0xbd9105f4	-0.070812136
22	0xbdfb8040	-0.12280321
23	0xbda3a23e	-0.079899296
24	0x3d51a803	0.05118562
25	0xbda13338	-0.07871097
26	0x3ceeb6dc	0.029139929
27	0xbdce74f1	-0.100808986
28	0x3d83d578	0.064372
29	0x3db624e6	0.088937566
30	0x3dcb6d72	0.099329844
31	0xbd433f68	-0.04766789
32	0xbda9bd2b	-0.08288034
33	0xbdba0610	-0.090831876
34	0xbd3f535c	-0.046710357
35	0x3d84583a	0.064621404
36	0x3db529b5	0.088458456
37	0x3e04314d	0.12909432
38	0x3d609ddb	0.054838043
39	0xbe195098	-0.1497215
40	0x3de27539	0.11057515
41	0xbd3aab1e	-0.045573346
42	0x3dbb8c54	0.09157625
43	0xbd52810c	-0.0513926
44	0xbe138e7e	-0.14409825
45	0x3cb21321	0.021737637
46	0x3d186800	0.037208557
47	0x3da01f41	0.07818461
48	0xbda9d9dc	-0.082935065
49	0xbd061828	-0.03273788
50	0xbdbec99a	-0.09315796
51	0xbe187c52	-0.14891174
52	0x3e0e1709	0.13875975
53	0xbbec878d	-0.0072183073
54	0xbb307a45	-0.0026928347
55	0xbe092520	-0.13393068
56	0xbb460ad2	-0.0030218852
57	0x3d9dd7d5	0.07707182
58	0xbdb79c14	-0.089653164
59	0xbe0d6676	-0.13808617
60	0xbda790a5	-0.08181886
61	0x3e1699db	0.14707129
62	0x3d1ea171	0.03872818
63	0xbcad529c	-0.021157555

action_out.weight f4 [1, 64]
0	0x3e1178b6	0.14206204
1	0x3d7cf6e0	0.061758876
2	0x3d66672c	0.056250736
3	0x3d610db4	0.05494471
4	0xb9bc813f	-0.0003595445
5	0xbde708c2	-0.11280967
6	0xbd8df462	-0.06931378
7	0xbe124953	-0.14285783
8	0x3e2fac3c	0.17155546
9	0x3db5631c	0.08856794
10	0xbd3c04c0	-0.045902967
11	0xbca68e58	-0.020331547
12	0xbde1093d	-0.1098809
13	0x3d7efbac	0.06225173
14	0x3e136f19	0.14397849
15	0x3d86e8a6	0.06587343
16	0x3d405774	0.0469584
17	0x3e337793	0.17526083
18	0x3db1ff60	0.08691287
19	0x3e0a1058	0.13482797
20	0x3e2d837f	0.16944693
21	0xba2f1100	-0.00066782534
22	0x3b38fd2a	0.002822707
23	0xbd92b7fb	-0.07163998
24	0xbdc666e3	-0.09687593
25	0x3db4bd47	0.08825164
26	0xbd32a4b6	-0.04361411
27	0xbddfae6d	-0.10921941
28	0x3e155ce5	0.14586218
29	0x3e17d17c	0.14826006
30	0xbdcfc617	-0.101452045
31	0xbd0f7fa0	-0.035033822
32	0x3d93c348	0.07214981
33	0x3dd824fe	0.10553931
34	0xbde8bfd0	-0.1136471
35	0xbe0ce4c7	-0.13759147
36	0xbded79bc	-0.115954846
37	0x3d219f44	0.03945853
38	0xbd694d18	-0.056958288
39	0xbdd0a473	-0.10187616
40	0xba56ead2	-0.0008198443
41	0x3d856d0c	0.0651494
42	0xbc2dfa70	-0.010618791
43	0xbd94871e	-0.07252334
44	0xbdeb61c2	-0.11493255
45	0x3dc0ac45	0.09407858
46	0xbd7e5848	-0.06209591
47	0xbd999404	-0.07498935
48	0x3d621167	0.055192377
49	0x3c8e2744	0.017352708
50	0x3b5ab020	0.003336914
51	0xbd8d4b1f	-0.06899094
52	0x3d8a64cd	0.067575075
53	0xbd7b8d45	-0.061414022
54	0xbce5b063	-0.02803821
55	0xbe37c930	-0.1794784
56	0x3d81c46c	0.063362926
57	0xbd566a28	-0.052347332
58	0x3d848e0c	0.06472406
59	0xbc24138c	-0.010014426
60	0x3d878af8	0.06618303
61	0x3df7445c	0.120735854
62	0x3e4e69a1	0.20157482
63	0x3db0fde8	0.08642179
