model/simple_charge/agent_5/214_critic_params.pkl (torch, 72179 bytes, 7 tensors)

fc1.weight f4 [64, 139]
00000000: dd5f c2bd 00bd 95bd a1bb 00bd 555b c03e
00000010: 3f9b c1bd 249a aabd 7c7a 4cbd bf3b 1dc0
00000020: 8686 003e f7d6 e63c 6c27 87bd 68b0 edbd
00000030: e6d6 153d 5770 8bbd 7be0 74bc 70c9 8fbe
00000040: 3c1a 18be 72a5 e23a ad2a eebd 3290 1cc0
00000050: 560f 88bc 2468 4ebd 5db2 d6bd 28aa 8abd
00000060: ffbb d3bb f1c6 a4bd 8984 b7bc eb1a 8c3e
00000070: 36fa c9bd 3053 cbbd 2fac 4f3c 53ac 1ac0
00000080: a087 6a3d 20dd a3bd be37 673c 78f1 aabd
00000090: 6a94 4e3c 659e 78be f4c8 6c3c 950f 3e3e
000000a0: a441 123c 0d6d 37bd adbc e1bd 6885 1ac0
000000b0: e8f1 873d d6f3 8bbd ca54 353d a47d 143c
000000c0: ea29 903c 43cf 85bd 4608 79bd 0fdc 8f3d
000000d0: 2d64 81bd 98c5 813c 528e 333d c8bb 18c0
000000e0: 9ed9 c93d 0c33 3bbd 85bd 5dbd 3e6b 8ebc
000000f0: 267f 00bd 6189 093d 7f27 523d 35ec c53c
00000100: 2717 0ebe e11e 0fbb c94b e9bd 834e 17c0
00000110: ec8c 693d 8f10 f03c 251a b9bc 35dc 80bd
00000120: b44c 293d e149 b7bd 952b c33b 0d0c 6f3e
00000130: 1f1d 983d 6084 cc3c 388f 20bd 5829 1fc0
00000140: 0aa5 0bbd 9804 6abd 85f6 8b3b ec4f c93c
00000150: da82 6abd eab2 ae3c e8be 2d3d 5095 4b3b
00000160: 7b39 3ebe a985 cfbc b095 223d e9b2 1fc0
00000170: c4a0 873d cf37 c9bc 2146 cdbd 47c6 1e3d
00000180: a810 01bc b692 ce3d 518a 3bbd 6871 b63d
00000190: da54 2cbd 449e 053c 4dc1 b23c dfbc 19c0
000001a0: 768c f83d 228e 8f3d 8cd2 4ebc c9f1 25bd
000001b0: 11bd 883d ad10 89bd 0817 23bc c6fa 363e
000001c0: 373c 043d 2410 09bd ce87 32bd d727 20c0
000001d0: 2072 ef3d beab 213d f092 003d a6c3 fe39
000001e0: e41b 293d 03b8 94bd fbd3 ad3b e9a8 1ec0
000001f0: 7bce 7e3d 077d 623c 7da8 303d 9b81 8dbd
00000200: 6cb5 cd3e 5b71 8c3d 63a1 ec3d b442 bb3c
00000210: afe6 023e 2457 abbe bbeb 6e3e ea4f 9c3e
00000220: 8e2b b8bd cf77 ba3d 5a36 fabf b1b9 2abd
00000230: 337a 50bd 9232 35bd 12e5 403d 106f fc3b
00000240: a02c 033b 245a 25bd 6dba 24bd 0006 babb
00000250: 1027 64bd b0be 383c 482f cf3c ac42 9a3c
00000260: 9cff 98bc 872a a53d 146b 56bd 4c1f 5ebd
00000270: f0a3 e73b 9485 90bd 404e 9ebd dac8 583d
00000280: d2a2 013d c49a 9f3c 4e93 7e3d aeb0 66bd
00000290: 3c34 10bd 7c98 80bd 6c9d 98bd 0a9d dcbc
000002a0: cd9f 8f3d 4f48 ab3d 01f0 aa3d 301c a63b
000002b0: cc36 be3c cc09 843c 11bd aa3d 80c0 0abc
000002c0: 7824 dc3c 982b 9ebd 6f2d a33d cc20 0a3d
000002d0: b5af 8a3d 9878 a73c 249a 063d d849 a5bd
000002e0: 9e19 393d 00fa 7239 f701 923d c6ff 263d
000002f0: a1e0 9abd 203e 453c 1485 ae3c de21 84bd
00000300: 00cc 8538 3e68 96bd a6e0 093d 4075 edbb
00000310: 4667 a1bd ac6f d4bc 9e53 bdbc 40b8 8cbd
00000320: 16d5 593d a00f 91bd 2397 a6bd 7553 913d
00000330: d011 92bc 288b 25bd 1dc0 933d 8857 f3bc
00000340: 9af1 49bd 5a4b 94bd 4214 7b3d 9549 943d
00000350: 9986 a63d 5900 82bd 1054 c63b 1ab0 3c3d
00000360: 74b1 0e3d 5e07 723d 2c9b e53c b8da 2fbc
00000370: a40e 7ebd 9066 f1bb 8e58 80bd 62a0 9cbd
00000380: 3001 c23c 8ef7 5cbd 96a7 14bd 5151 8d3d
00000390: 323e 513d bc90 92bd 00ed 4bba e7fe 53bd
000003a0: f89b 02bd f603 533d 4ebb 2f3d fabc 48bd
000003b0: 98a7 83bc 79dd aabd e082 e6bc 908b 8c3c
000003c0: 9240 1a3d 301d 253c 9e15 4ebd 5dcb 8d3d
000003d0: 4037 87bb 0b7a 0cbd 09c6 86bd b95c aa3d
000003e0: 0066 20bc 9f12 a0bd 5e4a 493d 61ba 823d
000003f0: c0c1 50bc a0f9 d1bb a20e 7c3d cedc 8bbd
-0.09490941 -0.073114395 -0.031428937 0.3756968 -0.09453439 -0.08330181 -0.049921498 -2.4567716
0.12551317 0.028178675 -0.06599316 -0.116059124 0.036581896 -0.068085365 -0.014946098 -0.28083372
-0.14853758 0.0017291738 -0.116292335 -2.446301 -0.016608875 -0.050392285 -0.10483239 -0.06770736
-0.00646162 -0.080457576 -0.022402065 0.27364287 -0.09862177 -0.09927976 0.012675329 -2.4167678
0.05725825 -0.080011606 0.014112411 -0.08346838 0.012608627 -0.24279173 0.014452208 0.18560632
0.008926783 -0.044781733 -0.11022315 -2.4143925 0.06637937 -0.068336174 0.044270314 0.009063158
0.017598111 -0.06533673 -0.060798906 0.07024395 -0.06317935 0.01584129 0.0438369 -2.3864613
0.0985596 -0.04570298 -0.054135818 -0.017385121 -0.03137126 0.03357828 0.051307198 0.024160484
-0.1387602 -0.0021838474 -0.11391408 -2.364167 0.05701916 0.02930477 -0.022595474 -0.06292001
0.041332915 -0.08949638 0.005956123 0.23344441 0.074274294 0.024965465 -0.039199084 -2.4868984
-0.03409294 -0.057133287 0.004271331 0.024574243 -0.057253696 0.021325547 0.04241839 0.003106434
-0.18576615 -0.025332289 0.039693534 -2.4952948 0.066224605 -0.024562744 -0.10023142 0.03876331
-0.007877506 0.10086577 -0.045786206 0.08908349 -0.04207311 0.008155409 0.021820689 -2.4021528
0.12136166 0.070095316 -0.0126234405 -0.040513787 0.066766866 -0.06692634 -0.009954222 0.178691
0.032283988 -0.03346266 -0.043586545 -2.5024316 0.116916895 0.039470427 0.03139013 0.00048592425
0.041286364 -0.0726166 0.005304811 -2.4790595 0.062208634 0.013823754 0.043129433 -0.06909486
0.40177476 0.06857558 0.115542196 0.022858955 0.12783311 -0.3346492 0.23332112 0.3052972
-0.089926824 0.09104883 -1.9547837 -0.041680995 -0.05089779 -0.04423768 0.04709346 0.0077036694
0.0020015612 -0.040369168 -0.040216852 -0.005676985 -0.055701315 0.011275932 0.0252911 0.01883062
-0.018676572 0.08064752 -0.05234821 -0.054229066 0.0070691034 -0.07056728 -0.07729769 0.052925922
0.03164942 0.019482978 0.0621522 -0.05632084 -0.035206065 -0.06279084 -0.07451901 -0.02693035
0.070129015 0.08363401 0.08346558 0.005069278 0.023219489 0.016117953 0.08336843 -0.008468747
0.026872858 -0.077231586 0.0796765 0.033722684 0.06771795 0.020443246 0.032861844 -0.08070725
0.045190446 0.0002317205 0.07129281 0.04077127 -0.07562376 0.012038738 0.021303691 -0.06451772
6.379932e-05 -0.07344101 0.033661507 -0.0072466433 -0.07881026 -0.025932156 -0.02311116 -0.068710804
0.05318173 -0.07083058 -0.08134296 0.07095996 -0.01783076 -0.040415913 0.07214377 -0.029704824
-0.049302675 -0.07240935 0.061298616 0.07240597 0.08131141 -0.063477226 0.0060525015 0.04606638
0.0348372 0.059089057 0.028028093 -0.010733299 -0.06202568 -0.0073669627 -0.062668905 -0.07647778
0.023682207 -0.053947024 -0.036292635 0.069002755 0.051084705 -0.07156512 -0.0007779151 -0.051756766
-0.031887025 0.05151745 0.042903237 -0.049008347 -0.016071126 -0.08343024 -0.028138578 0.017156392
0.037659235 0.01007776 -0.050313585 0.06923554 -0.0041264594 -0.034296077 -0.06580741 0.08318467
-0.009789944 -0.07816052 0.049143188 0.06383205 -0.012741506 -0.0064079314 0.061537392 -0.068292245

fc1.bias f4 [64]
00000000: 5b56 d9bd 6364 18bd b12e b5bc 075d fbbb
00000010: 6172 8d3c b349 763d 8fe3 553e 77c2 59bc
00000020: 6954 adbd fe98 1dbe 1a04 ea3c 2eea 74be
00000030: c0b0 d8bc a5f7 423d eac8 883c d3d9 52bb
00000040: fb37 8b3d 7fb6 f6bc 5f4d 9ebd 6d3c 2e3c
00000050: 65da d43c 28db 7ebc 9327 853d cb5b 003d
00000060: cffa 933d 98a0 61bd 0244 80bd 5798 063e
00000070: e729 1d3d df7b c0bc 70d5 90bd ae60 79bd
00000080: ad7e 8a3d e804 65bc 2af4 563c 1255 63bd
00000090: a76a cd3d 9ca9 9ebd 8acf b2bd 5092 e53c
000000a0: b041 823b fb34 3abd e1e7 a9bd 98d9 92bc
000000b0: c0a0 cfbb 45df 593d 4076 6d3d b32c 523d
000000c0: ea73 713d 0edc dabc ed45 96bd 8e75 933d
000000d0: 592b 1ebd 3c46 0dbd 2486 58bd 9236 53bd
000000e0: eeab 31be e52f 393d d02c d03b 6936 003d
000000f0: ef0e a5bd 1e95 a13c 7efe 08bd c57a 31bd
-0.10612174 -0.03720511 -0.02211699 -0.007671002 0.017266454 0.06012888 0.20887588 -0.013290993
-0.084633656 -0.15390393 0.028566409 -0.23917457 -0.026451468 0.047599453 0.016697366 -0.003217329
0.06797787 -0.030116318 -0.07729601 0.010634524 0.025983045 -0.015555181 0.06501689 0.03133754
0.07225572 -0.055084795 -0.062629715 0.1314405 0.03837004 -0.023496566 -0.0707196 -0.060883217
0.06762443 -0.0139782205 0.013119737 -0.05550105 0.10030108 -0.07747194 -0.08730991 0.028023869
0.0039751157 -0.045460682 -0.082961805 -0.017926022 -0.0063363016 0.053191442 0.0579741 0.05131216
0.058948435 -0.026716258 -0.07337556 0.07200156 -0.03861556 -0.03449081 -0.0528623 -0.051565714
-0.17350742 0.04521169 0.0063529983 0.03130189 -0.08059489 0.019724425 -0.033445828 -0.043329973

fc2.weight f4 [64, 64]
00000000: 44f4 6b3d 8881 693d 1608 08be ec45 ccbd
00000010: f1a7 b0bc e0a7 b03d a3f0 0f3e e300 133e
00000020: e7c0 f13c 6f2b 6abc 3a97 1f3d 5885 073e
00000030: 65a4 dbbd 5861 89bb 4b4c d73d 9108 29bd
00000040: a345 b23d 6531 623d ec37 81bd c3dd 0b3e
00000050: 0044 dd3d f089 5b3d 6bc5 18bd 479a da3b
00000060: 5fcf cb3d 308c dd3c 2f21 17bd 7990 23be
00000070: 9f09 943d 7326 a83a 4b3b 613b d40a f13d
00000080: d28e b9bd 4b44 62bd 965b 9fbc a0b1 1fbc
00000090: ad3f 71be c2ce dcbd 162d 12be 4002 b3bc
000000a0: 649e 6abd 92e2 f6bd 2ccd f8bd ce1b e2bd
000000b0: 2ce0 613d aaf7 97bc 3b5b 9bbd efd1 b63c
000000c0: 7283 423d 711a 93bd 8ac2 c53d a08f 9bbd
000000d0: 0c16 eeb9 8bb7 ac3d 55d4 c9bd a8d9 bbbc
000000e0: 80bf 213d 3ca0 cebc c4da 9ebd 12c9 d73d
000000f0: 1323 bcbd 2cf0 843d 41b3 ec3b 72bb a43d
00000100: e09c 893b 6041 48bd 3069 a9bd ac8d 10bd
00000110: 727a a9bd e0d8 c6bb 76ed e8bd bc10 18bd
00000120: e6f1 923d 68f5 f93c 1048 24bd 30d6 b13d
00000130: d030 e4bd 4cb7 71bd 9461 6c3d a0e9 ae3d
00000140: ccdc f5bd d0c7 e8bc 38a6 193d 8691 a7bd
00000150: d674 f03d 4cfd 613d bad4 85bd 2aac c23d
00000160: a07d f6bb 06f4 b4bd 986a ba3c e001 d73d
00000170: a0ce 11bc 346d 6abd 863d fb3d 5c0d cfbd
00000180: cac0 de3d 92d7 aebd 7638 d53d 44fe 58bd
00000190: 0e17 c53d 54b8 ba3d 8c5a ebbd 8887 80bc
000001a0: 201f bcbb d8c9 cebc c82f bb3c 0034 343c
000001b0: a08c 743d 80e2 e8bc 3481 f2bd 2824 d63d
000001c0: 209e 663c b2e1 9b3d 9609 9b3d 9878 5abd
000001d0: 98fa a7bd 9c5a 013d 607d ef3b 3093 163c
000001e0: 4875 71bd d03b 00bc 4412 93bd 24a5 b9bd
000001f0: eaf1 debd 2e9f b0bd 145b 4dbd 1049 0bbd
00000200: b8a0 a43c 6063 9bbc b321 07bd 5b7d 6abc
00000210: d009 e3bd 18f8 dd3d a9b5 bdbc e9a5 ac3b
00000220: ebb7 0ebd ed84 c8bc 2bd4 6d3c a557 95bd
00000230: 200f 503d 819b a2bc 7bb7 48bd 6224 bebc
00000240: c511 8cbd eac8 6bbd 86c7 89bd 1cf2 b5bd
00000250: 17de 633d aaf8 843d e80e 51bd 9f65 9abd
00000260: 281e b8bd 0817 e83d 94b0 463d 8ac5 c8bd
00000270: 6f58 05bc 711b cb3b 55af 17be 197b ca3d
00000280: 0214 a6bd 038e ac3d a870 c4bd cf5b a03d
00000290: 11db c9bd b66f 73bd 16de 74be a480 5dbd
000002a0: 2ccb 043d 2807 f83c acb3 533d 5a08 bcbd
000002b0: 0c56 41bd 5789 54be 9f4c efbd 023d e83d
000002c0: 4be3 923d 11ba a6bd daf0 e6bd bd63 d6bd
000002d0: ab75 fbbc ad97 8fbd bf63 563d b22a 853d
000002e0: 9e44 80bc 2ffa ddbd 0a61 cebd 00cd cbbc
000002f0: bc38 5dbd c824 30be 8074 583d 5546 953c
00000300: f7da 46be f872 7ebd 71ee a9bc ad1e 2a3d
00000310: 952a 8fbc 728e 863d db63 debc 1136 57bd
00000320: dda1 973d 938b 8f3d b0d7 51bd 3a96 db3e
00000330: e602 cabd 9729 b6bc e033 47be 6215 3e3d
00000340: 326e 173d ef51 0d3d 0ef4 933d 37da 43bd
00000350: 6b08 c73d a01f d23b 427c a9bd 86e6 573c
00000360: ab41 583e 20c0 8abb 635f 6dbd ecc9 44be
00000370: 7d60 c23d 0dc9 93bd bacc 1ebe 7568 8dbd
00000380: 682a 94bc 96a6 a53c 953f 1fbc b20d 033d
00000390: d66f 86bd b6f7 e13c dcec 81bf 2082 f8bc
000003a0: 00dc 803a aee4 9bbd 9807 57bd 6042 e83c
000003b0: a8ca 88bd a609 2b3b cc9f 2dbd aa48 dabc
000003c0: 8bbc d0bf e1b9 84bd 888c e0bc f69a abbd
000003d0: 7668 92bd a693 8fbd a9b5 83bc 7087 ffbc
000003e0: b1ef 433d 55ce 973c 9449 953d e48b b6bd
000003f0: cd50 4a3d fc07 563b de44 73bc 61a7 17be
0.057605997 0.057008296 -0.13284335 -0.09974274 -0.021564456 0.086257696 0.1405664 0.14355807
0.029510928 -0.014292582 0.03896258 0.1323446 -0.10724715 -0.0041925125 0.105125986 -0.041267935
0.087046884 0.055222888 -0.063094944 0.13658814 0.108039856 0.053598344 -0.037297647 0.0066712233
0.09951662 0.027044386 -0.03689688 -0.1597308 0.072283976 0.0012828842 0.0034367617 0.117696434
-0.09060444 -0.05524091 -0.019452851 -0.009746939 -0.23559447 -0.107816234 -0.14275011 -0.021851659
-0.05727996 -0.120549336 -0.121485084 -0.110404596 0.055145428 -0.018550713 -0.0758576 0.022316901
0.047488637 -0.07182778 0.09656246 -0.07595754 -0.00045411324 0.084334455 -0.09854952 -0.022930935
0.03948927 -0.02522289 -0.0775657 0.10536398 -0.091863774 0.06491122 0.007223517 0.08043565
0.004199609 -0.04889047 -0.08272016 -0.03529136 -0.08275308 -0.006068334 -0.11373417 -0.037125334
0.07175045 0.030512527 -0.040107787 0.08683431 -0.11142123 -0.059012696 0.057710245 0.08540654
-0.12005004 -0.02841559 0.037512034 -0.08182053 0.11741035 0.055173203 -0.06534715 0.09505494
-0.0075223 -0.08835606 0.022755906 0.104984045 -0.008899361 -0.05723305 0.12267594 -0.1010997
0.10876615 -0.085372105 0.1041116 -0.05297686 0.09623538 0.09117189 -0.1149188 -0.015689626
-0.005741015 -0.025242731 0.022849932 0.010998726 0.059704423 -0.028428316 -0.1184105 0.10456115
0.014075786 0.07611407 0.07570188 -0.053337663 -0.08202094 0.031580552 0.007308647 0.009190366
-0.05894974 -0.00782676 -0.07181218 -0.09064701 -0.10885985 -0.08624111 -0.050135687 -0.034005225
0.020096168 -0.018968284 -0.032991122 -0.014312114 -0.11085856 0.10838336 -0.023157911 0.0052688015
-0.034843367 -0.024477446 0.014515917 -0.072921075 0.050795674 -0.01984954 -0.049003106 -0.023210708
-0.06839327 -0.057564653 -0.06727509 -0.08884069 0.055631723 0.064927414 -0.051039606 -0.07538914
-0.08990127 0.11332518 0.04850824 -0.098033026 -0.00813876 0.0061983396 -0.14812978 0.0988676
-0.08109285 0.08425524 -0.095918 0.07830011 -0.09856237 -0.059432708 -0.23912844 -0.05407776
0.032420322 0.03027685 0.05168502 -0.091812804 -0.0472012 -0.20755516 -0.11684536 0.11339761
0.07172259 -0.08140958 -0.112764075 -0.10468242 -0.030695757 -0.07011352 0.05234122 0.06502284
-0.01565772 -0.10838734 -0.100771025 -0.024878025 -0.054009184 -0.17201531 0.052845478 0.018222013
-0.19419466 -0.06212136 -0.02074358 0.04153316 -0.01747636 0.06570138 -0.027147224 -0.052541796
0.0740392 0.070090435 -0.051231086 0.4288805 -0.09863834 -0.022236628 -0.19453382 0.04640711
0.036970325 0.034501966 0.07224284 -0.047815528 0.097184025 0.0064124614 -0.082756534 0.01317752
0.211188 -0.004234329 -0.057952296 -0.19217652 0.0949106 -0.07216082 -0.15507784 -0.06904689
-0.018086627 0.020221036 -0.009719749 0.031995483 -0.065643 0.027583938 -1.0150409 -0.030335486
0.000983119 -0.076119766 -0.052497476 0.028351963 -0.066792786 0.002609828 -0.042388722 -0.026645977
-1.6307539 -0.06480766 -0.02741076 -0.08379166 -0.071488306 -0.070105836 -0.016077833 -0.031192511
0.04783601 0.018531004 0.072894245 -0.08913401 0.049393464 0.0032658568 -0.014847962 -0.14809944

fc2.bias f4 [64]
00000000: d809 793e c2cb f63d 2bab 6abe ebfe dcbd
00000010: 342b d43d 2fb4 fb3b d473 dfbd 31d5 5abe
00000020: 6960 01be 4282 a73d 3196 0bbd 6eea 3bbe
00000030: 3ec6 d7bc 1874 04be 65c8 dbbe f7d8 69bd
00000040: 4d34 b93d 0437 213d 06ad 22be fdf8 ba3e
00000050: d14d 883d 49f5 04be f3a1 e43c dc00 1bbe
00000060: 1554 133d c2d4 263f 172c 2ebd fd0d e53d
00000070: 70c2 3bbe 2c54 943d 5111 253e d5c2 81bd
00000080: ffda 053e c167 92bd 0941 5bbe 093e 933e
00000090: 28ef 1bbd 90c4 ffbd 48cf 7bbe e834 54bd
000000a0: 2c73 e63e eb79 a9be 5076 7b3c 8f48 05be
000000b0: bed0 0b3d 4f78 adbe 2109 9a3e 529e f6bd
000000c0: 22d0 13be 8c3b c83d 83dc 11be c706 053f
000000d0: 4cfd 9fbc de88 e6bd df06 183d 6aab 8bbd
000000e0: e653 97bd b36a aa3d a2a5 21be bf0d 03bf
000000f0: 4f9a 04bf 370b 543f 1fa1 8cbf 7da5 d53d
0.24320161 0.120505825 -0.22916858 -0.10790809 0.10359803 0.0076813917 -0.10910764 -0.21370389
-0.12634434 0.081791416 -0.03407878 -0.18351147 -0.026339646 -0.12934911 -0.42926326 -0.05709168
0.09043179 0.039359108 -0.15886316 0.36518088 0.06655467 -0.12984194 0.027909255 -0.15137047
0.03596886 0.6516839 -0.042522516 0.11184309 -0.18335891 0.07242617 0.16119887 -0.063359894
0.13071822 -0.07148696 -0.21411528 0.28758267 -0.038069874 -0.12488663 -0.2459079 -0.051808268
0.45009744 -0.3310083 0.015348032 -0.1301596 0.03413462 -0.3388085 0.3008509 -0.12041916
-0.14434865 0.09776983 -0.14244275 0.51963466 -0.019529961 -0.11256574 0.037115928 -0.06819804
-0.07389049 0.083211325 -0.1578584 -0.5119285 -0.51797956 0.8282961 -1.098667 0.10431955

fc3.weight f4 [64, 64]
00000000: 2efb 71bd 783c 3abd a8f1 3fbd 3168 ed3d
00000010: 2d4e b23d c125 1d3e 10cd e53d a26b 30bd
00000020: 41c8 e0bd 89fc 60bd 27af 0fbe c09c 67bd
00000030: b42a 3ebd 4e3d dcbd 7575 393e 2263 843d
00000040: c85c 20bf afb0 a1bc 211c aab9 86fd 13bf
00000050: 8795 3dbd a7b4 f4bd 5f5b 04bd ab5d 00be
00000060: 8a87 9a3d 824c 7cbf f650 1abd 804e 45be
00000070: f9c0 753d 91e6 143e beb6 9fbe c918 953d
00000080: a410 f43d e819 d73e f929 bcbb d48d 84bd
00000090: 95eb ae3d eee6 c33c f6f9 623d 95ab dcbf
000000a0: 7a46 71be 33cb 5fbf 3b7a 8cbc 0272 febe
000000b0: 4537 c1bd 77de 1dbf 661a 6c3d 54b0 0c3d
000000c0: 2ec8 893d ab76 543d 5113 013e 2d68 ddbe
000000d0: d144 87bf b0eb 2d3d 8db8 94bd 214b dabd
000000e0: e894 473d 14a0 9b3d 18e9 5b3d 1ad4 a7be
000000f0: 53bb 413d b315 043f 779a 73bc d864 833c
00000100: 6b83 3cbe 3089 ec3c 6a5f 74bd 094d e7bf
00000110: 4f50 483e aa66 8d3d ce86 df3c 6691 d4bd
00000120: 96ae da3d 90b2 b43d d852 2f3e c92f 54bd
00000130: eea7 003d 4ba6 0dbd f4a7 23bf 89e2 17bb
00000140: 513f a7bf 9ed9 483d 1ac2 92bd b363 26bf
00000150: b5f4 d03c f065 983c f5ba df3b 8d4f 353d
00000160: ade3 a43c 5223 4d3d 1d86 e23d 16a6 a13e
00000170: 9f98 ad3d 8629 a43b 6817 db3c 97ab a2bd
00000180: 5bc8 4f3d e993 85bd f663 73bf 11c1 50be
00000190: d3f5 26bd b209 a2bd bce6 54bd a7df d83e
000001a0: c5d7 043e c689 dabd 83dd ebbd 53ae 71bf
000001b0: a411 ac3d f10f ff3b 98a5 f2bd e4ca d63d
000001c0: 08bd e53d 3cb7 ea3d 9718 febd efec 8ebe
000001d0: 31c6 4d3e ae65 53be 7e53 823d e91c a53d
000001e0: 10a2 cf3c af1b 35bd 4a22 aebd be74 77be
000001f0: 88ff 01be 1d57 ed3d fa5a 10bf 370c 913d
00000200: 6f21 aabe 14f8 4fbd 026d 093e bc27 f7bf
00000210: 3464 9f3e 6906 eabc c25a 8b3c 7338 d9bb
00000220: 4ae7 493d 33cc 4e38 a72c 733d 023d 0b3e
00000230: 566c e93d ac2e f9bc a87a 43bd 6895 d4bf
00000240: c06f b33e 5210 d93d a01d cb3c e645 6cbd
00000250: 770e ba3d acce f9bc 2304 f5bd a57d c13d
00000260: f545 cb3c 2089 953e 9730 b93c 528d 9ebd
00000270: c866 c8bd fca9 fd3d f6b7 ccbe a6ad 363d
00000280: 17d6 d93d 74c4 60be f017 cfbd 8d07 7fbd
00000290: d487 05be cc19 203d 2995 923d d3ba ad3e
000002a0: 1563 bbbe 7ce0 213e c411 903e ace5 1a3e
000002b0: 398e e3bd b3a2 f6bd b0d7 31be e007 ca3b
000002c0: 3c28 583d 22bd 263c d079 b9bd 1529 b2be
000002d0: 9c62 2c3d 5964 c43c 5a78 afbd 2a35 c4bd
000002e0: 5410 233d 654b fb3d 66cf 753d 546f 9cbc
000002f0: bd2f 25be a181 cb3d f296 2fc0 e1fa c33a
00000300: 6e3a 8e3c 54f5 19bd aece 383d ef46 07be
00000310: c745 193c efa8 e93d 3875 963d 40e2 af3d
00000320: 6034 b63c 796c adbc 6223 96be 30ba f83d
00000330: 796f d13d 97dd a0bd b28e 94bd 4b84 253d
00000340: 9f0b 1cbe a098 553d 00a1 f9bd 19e8 873d
00000350: 0b77 1b3e 931f a03d c0ea 62bc 5492 bebd
00000360: d74c 8c3c f74a 89bc eddc e03d 3499 43bd
00000370: 4244 863d 8f43 53bd 4122 8cbc 073c 033d
00000380: 6e80 03be 893c ec3a b588 f1bc f5e3 20bd
00000390: 351e c1bd 387c 833d bc6b 2fbd e457 76bc
000003a0: afb5 44bc 4329 403d 65a5 aabd 8806 23bd
000003b0: 1b23 8fbd f5ed 51be 42eb e3bd 268a a6bd
000003c0: 3cb5 b7bd 260b 8ebd bff1 c03c e17d 9a39
000003d0: 67e3 a43d 574e 6d3d f529 ca3d ebfa c2bd
000003e0: 9865 4dbd 0835 ef3c 46ea 27be 3168 c53c
000003f0: ecb7 e6bd 10fc 1cbe 5965 163d d4c1 a63d
-0.059077434 -0.045467824 -0.04686132 0.115921386 0.08706317 0.15346433 0.11220753 -0.043071397
-0.109756954 -0.054928336 -0.14031659 -0.056545973 -0.046427444 -0.107538804 0.18111213 0.064642206
-0.6264157 -0.01973757 -0.00032445884 -0.5780872 -0.04628518 -0.11948519 -0.0323137 -0.12535731
0.07545383 -0.9855424 -0.037674867 -0.19268227 0.059998486 0.14541079 -0.3119411 0.07280118
0.119172364 0.42011952 -0.005742308 -0.06472364 0.085410275 0.023913827 0.055414163 -1.7239863
-0.23562041 -0.8741943 -0.017148128 -0.49696356 -0.0943437 -0.6166758 0.057642363 0.034347847
0.06727634 0.051870983 0.12605025 -0.43243542 -1.0567876 0.042461097 -0.07261763 -0.10658861
0.048725992 0.07598892 0.053689092 -0.32779008 0.047297787 0.5159561 -0.01486837 0.016039297
-0.18409507 0.02887401 -0.059661306 -1.8070384 0.19561885 0.06904347 0.02728596 -0.10379295
0.10677831 0.088231206 0.17121446 -0.051803384 0.03141015 -0.034582417 -0.6392815 -0.0023175797
-1.3066198 0.04903566 -0.07165928 -0.6499588 0.02550731 0.018603295 0.006827707 0.04426532
0.020128096 0.050082512 0.11060736 0.31572026 0.08476376 0.005009833 0.02674456 -0.079428844
0.050728183 -0.06522352 -0.95074403 -0.20386149 -0.04076178 -0.079120055 -0.051977858 0.42358133
0.12972935 -0.106708094 -0.115168594 -0.9440662 0.08401802 0.007783883 -0.11847991 0.10487917
0.112176955 0.114607304 -0.12407034 -0.2791514 0.20095135 -0.20644256 0.06363581 0.08062155
0.025345832 -0.044215854 -0.08502634 -0.24165627 -0.12695134 0.11588881 -0.5638882 0.07082408
-0.33228633 -0.050773695 0.1342049 -1.9309001 0.31131136 -0.02856751 0.01701105 -0.0066290437
0.04929284 4.9304403e-05 0.059368756 0.13597491 0.113976166 -0.030417763 -0.047724396 -1.6608095
0.35046196 0.10598816 0.0247944 -0.057683848 0.0908479 -0.030494057 -0.1196368 0.09447793
0.024813632 0.2920618 0.022606177 -0.077417985 -0.09785229 0.123859376 -0.399841 0.044599198
0.106365375 -0.21949941 -0.101119876 -0.06226306 -0.13040096 0.0390871 0.07157356 0.33931598
-0.3659903 0.1580829 0.28138554 0.15126675 -0.11111111 -0.12042751 -0.17367435 0.0061654896
0.052772745 0.010176929 -0.09056437 -0.34796968 0.04208623 0.02397363 -0.08567877 -0.09580453
0.039810494 0.1227024 0.060012244 -0.019096054 -0.16131492 0.09936834 -2.743588 0.0014952087
0.017361846 -0.03758748 0.04511898 -0.13210653 0.009355015 0.11409175 0.073465765 0.08588076
0.022241771 -0.021169888 -0.2932387 0.121448874 0.1022634 -0.07854765 -0.072537795 0.040409368
-0.15238808 0.052147508 -0.121889114 0.06636066 0.1518213 0.07818522 -0.013849914 -0.093052536
0.017126484 -0.016759379 0.10979638 -0.047753528 0.06555988 -0.0515781 -0.017106177 0.03203967
-0.12841961 0.0018023412 -0.029484132 -0.039279897 -0.0942959 0.06420177 -0.042827353 -0.015035603
-0.012006207 0.04691435 -0.08332328 -0.03980115 -0.06989118 -0.2050093 -0.11128856 -0.081318185
-0.089701146 -0.0693572 0.023552774 0.00029466956 0.08051186 0.05793604 0.09871284 -0.09520515
-0.050145715 0.029200092 -0.16397962 0.024097534 -0.11265549 -0.15330529 0.036717746 0.081424385

fc3.bias f4 [64]
00000000: 83cf 5a3f da21 f0be f140 63be 111b 3abe
00000010: f30b 6ebf 1267 cbbd 4907 ccbb 9b08 eb3e
00000020: 17cb 58bf 7f48 65bf 9f87 01be d574 85be
00000030: d7c7 633d 3a7c 1e3e 83fe a8bc 1f84 47bd
00000040: dd9a 503f c708 09be a8de 00bf 95b1 763f
00000050: 295f 86bd 83e2 873f 2f6e 07be 6656 49bd
00000060: 9260 9d3e 77e2 f3be 839b 0cbe dea8 783d
00000070: 46cd 87bd c04c 423f a651 2b3f 0a0b 19be
00000080: 47d2 88bd 1a79 bcbe 5c94 c0bd bbed debd
00000090: e61d fdbe 86ae 18be c7a8 09bd 971f 843d
000000a0: 25f8 7bbd fb14 a7bd 96b6 24bf 974a 473c
000000b0: 3a1b c33e 3b88 5cbd 1b3a 1cbe 4201 e7bd
000000c0: 1272 89b9 d2af 8ebf d269 7cbf 556f afbd
000000d0: 5998 01be a16e 0cbe 92cf b2bd 5b98 ba3e
000000e0: 7a17 2e3f 1630 6bbd 31c3 073d c557 023e
000000f0: 20b4 27bf 7604 96bd b381 03be 23c3 94bd
0.8547289 -0.46900827 -0.22192742 -0.18174388 -0.92986983 -0.099317685 -0.0062264544 0.45905003
-0.8468489 -0.89563745 -0.12649392 -0.26065698 0.055610504 0.15477076 -0.020629173 -0.048709985
0.814863 -0.13382255 -0.50339746 0.9636472 -0.06561119 1.0616001 -0.13225625 -0.04915466
0.3073774 -0.47633716 -0.13731198 0.06070792 -0.0663095 0.7589836 0.6692146 -0.14945617
-0.06680732 -0.36811143 -0.09403297 -0.10885187 -0.49436873 -0.14910325 -0.033608224 0.06451338
-0.061515946 -0.081582986 -0.64341104 0.01216378 0.3810671 -0.053840857 -0.1525654 -0.11279537
-0.00026215665 -1.1147406 -0.9859897 -0.08566157 -0.12655772 -0.13714077 -0.08730997 0.36444363
0.6800457 -0.057418905 0.033145133 0.12728794 -0.65509224 -0.073250696 -0.12842445 -0.07263782

q_out.weight f4 [1, 64]
00000000: d826 ab3c deb3 c9bc 28a8 583c 81e6 eabc
00000010: 2c10 9dbc 90c8 04bc 0022 a63b ccad 45bc
00000020: 8672 6ebd 90a9 45bd 7907 85bc 648a f6bc
00000030: bcf9 e43c 255b e83c d554 adbb fa8e 913a
00000040: e21c be3c 27e5 5d3c 6930 e4bc 3d8d da3d
00000050: ae03 e73b 3200 303d f3f7 94bc 319a f5bb
00000060: f5cb dbbc 0b74 c1bc 4832 393d 0166 0fbc
00000070: a802 043c 315d 1b3d 4200 da3c dd9b 87bb
00000080: 7aa7 c9bb 5d7b a33c 5ff9 2a3b d3fb a7bc
00000090: 7685 04bd 4d42 37bc 771d ae3b 7774 b7bc
000000a0: 74e2 13bc 49e2 143d 2760 94bc 27f4 9d3d
000000b0: df51 b43c 6949 823b 14a1 77bd 182d 62bc
000000c0: c231 1cbd 4e63 f2bc b4a1 90bd 0912 a83c
000000d0: c5e5 ebbc 84ad d93c 09a9 463c b221 053d
000000e0: 014d 013d 678c 49bc 9bcf f03c 1854 353a
000000f0: 6b8f 72bd 690b 60bc bc4d ac3c e511 82bc
0.020892546 -0.0246219 0.013223685 -0.028674366 -0.01917275 -0.008104458 0.005069971 -0.012065362
-0.058214687 -0.04825741 -0.016238915 -0.030095287 0.027951114 0.028363774 -0.005289654 0.0011105232
0.023207132 0.013543404 -0.027855115 0.1067147 0.007049999 0.042968936 -0.018184638 -0.0074951877
-0.026830653 -0.023614904 0.045213968 -0.008752347 0.008057274 0.03793067 0.026611451 -0.0041384534
-0.006153998 0.019956285 0.0026088578 -0.020505821 -0.03235384 -0.011185241 0.005313571 -0.022394402
-0.009026159 0.036348615 -0.018112255 0.07712584 0.022011695 0.0039760363 -0.06045635 -0.0138046965
-0.03813339 -0.029588368 -0.070620924 0.020516412 -0.028796086 0.026571997 0.012125262 0.032502837
0.031567577 -0.012301541 0.029395869 0.0006917133 -0.059218805 -0.013674595 0.02103316 -0.015877673
