model/simple_charge/agent_5/53_actor_params.pkl (torch, 38111 bytes, 7 tensors)

fc1.weight f4 [64, 6]
0	0x3e97a550	0.2961831
1	0x3ecf993f	0.40546605
2	0xbe31b619	-0.17354621
3	0x3d6c6bbb	0.057719927
4	0x3e844d32	0.25840145
5	0x3e207ef4	0.15673429
6	0x3edf7653	0.43644962
7	0x3eba0d54	0.36338294
8	0xbe38ef84	-0.18060118
9	0xbe8b3b3d	-0.27193633
10	0x3ea693d8	0.3253467
11	0xbebfac0b	-0.37435946
12	0x3e2e0256	0.16993079
13	0xbdc05fcb	-0.09393271
14	0x3eb6c761	0.3569899
15	0x3ed7ad30	0.4212432
16	0x3e97cc33	0.2964798
17	0xbc4c83d4	-0.012482602
18	0x3ec4f571	0.38468507
19	0xbe33a3d9	-0.17542972
20	0xbe379fb6	-0.17932019
21	0xbea7c1bb	-0.32764992
22	0xbe7f3ea3	-0.24926238
23	0x3ddbc818	0.10731524
24	0xbdc89078	-0.0979318
25	0x3d8e12ec	0.06937203
26	0x3d8fbb28	0.07018119
27	0x3d0bcdf9	0.034131978
28	0xbe107a9f	-0.14109276
29	0x3ed709f8	0.41999793
30	0xbecee870	-0.4041171
31	0xbe984b60	-0.29745007
32	0x3e629dac	0.2213046
33	0x3e0bf558	0.1366781
34	0xbeb7e9eb	-0.35920653
35	0xbec05809	-0.37567165
36	0xbe46400c	-0.1936037
37	0x3ecea13e	0.40357393
38	0x3e390b28	0.18070662
39	0xbe94cbb8	-0.29061675
40	0x3d81f47b	0.06345459
41	0x3edb71d5	0.42860284
42	0x3eba798a	0.36420852
43	0xbec2cc9d	-0.38046733
44	0xbeab238b	-0.33425555
45	0xbe99f1c6	-0.3006727
46	0x3e1d56d4	0.15365154
47	0xbeb16279	-0.3464544
48	0xbe843f6a	-0.2582963
49	0x3e062919	0.13101615
50	0x3e9d3e63	0.3071166
51	0xbd729388	-0.059222728
52	0xbdbef42e	-0.09323917
53	0x3d5a98b5	0.05336829
54	0xbdbafa35	-0.091297545
55	0x3d59acb6	0.053143226
56	0xbdd03107	-0.10165601
57	0x3e80e605	0.2517549
58	0x3ebb9a61	0.3664122
59	0x3e1ceba1	0.1532426
60	0xbdf4f558	-0.11960858
61	0x3e1867a9	0.14883293
62	0xbe911eb1	-0.28343728
63	0x3edd1893	0.4318281
64	0x3e260e0c	0.16216296
65	0x3e725316	0.23664507
66	0x3dc78a60	0.0974319
67	0x3c0f5ab2	0.008749651
68	0x3dd180f3	0.10229673
69	0x3e2fd8b4	0.1717251
70	0xbe22a6cf	-0.15883945
71	0x3e9898bf	0.29804036
72	0x3e5e5c72	0.21714953
73	0x3db364d6	0.08759467
74	0xbd483999	-0.048883054
75	0x3e45e049	0.19323839
76	0xbe3267c0	-0.1742239
77	0x3e9ff83a	0.3124407
78	0xbe559e24	-0.20861107
79	0xbd9064f3	-0.070505045
80	0xbe85a4ac	-0.26102197
81	0x3eaba06b	0.33520827
82	0x3d9c6287	0.0763598
83	0x3e5df36e	0.21674892
84	0xbe859125	-0.260873
85	0x3eae20c7	0.34009382
86	0xbeb4482e	-0.3521132
87	0xbe7d5658	-0.24739969
88	0x3e09dee2	0.1346393
89	0x3dabdef0	0.08392131
90	0x3b385927	0.002812931
91	0x3ec8c191	0.3921018
92	0xbdfef94e	-0.12449895
93	0xbe5ab34d	-0.2135746
94	0xbe9f1116	-0.31067723
95	0x3d3b6b13	0.04575641
96	0x3edba041	0.42895702
97	0x3e9dbb5a	0.30807
98	0xbbb3019a	-0.0054628374
99	0xbe9f6447	-0.31131193
100	0xbd827761	-0.06370426
101	0x3dad837d	0.08472345
102	0x3dade995	0.08491818
103	0x3ed9d125	0.42542377
104	0x3e3870b0	0.18011737
105	0x3e522105	0.20520408
106	0xbdc6592a	-0.096849754
107	0xbe8be38a	-0.27322036
108	0x3dec8998	0.115496814
109	0xbe9edecb	-0.31029353
110	0x3e3a2e54	0.18181735
111	0x3da5034c	0.080572695
112	0xbe58978f	-0.21151565
113	0x3d6ec818	0.058296293
114	0x3e93427c	0.2876166
115	0x3ed8be8a	0.4233287
116	0x3eb05b13	0.34444484
117	0x3e1a8f0c	0.1509363
118	0x3d987c7b	0.07445618
119	0x3e8579de	0.2606954
120	0x3ecff6e0	0.40618038
121	0x3e89041d	0.2676095
122	0xbeb5428f	-0.35402343
123	0xbe46f8ba	-0.19430819
124	0x3d46106f	0.048355516
125	0xbe9d6f6e	-0.30749077
126	0x3e99741e	0.29971403
127	0xbe3daf3f	-0.18523882
128	0xbe923b58	-0.285609
129	0xbdbd3edc	-0.09240505
130	0xbea18398	-0.3154571
131	0x3d769088	0.06019643
132	0xbde74b74	-0.112936884
133	0x3db48079	0.08813567
134	0x3d6ce2d3	0.057833504
135	0xbe801572	-0.2501636
136	0x3ed470eb	0.414924
137	0x3dece7a6	0.11567621
138	0xbb782380	-0.0037862957
139	0xbea5a14e	-0.32349628
140	0xbdaa7740	-0.083235264
141	0xbd8eea38	-0.069782674
142	0xbe372547	-0.17885314
143	0xbdeeb1e4	-0.11655024
144	0x3e1b774b	0.15182225
145	0x3ed4d9ac	0.4157232
146	0x3ed7256e	0.42020744
147	0xbebd4fc3	-0.36974916
148	0xbcbb9d6f	-0.022902219
149	0xbe83f4ed	-0.257728
150	0x3e12f0b8	0.1434964
151	0x3c45f2d0	0.012081817
152	0xbe11f55f	-0.14253758
153	0x3df6cdaa	0.12050946
154	0x3e8c4fdd	0.2740468
155	0x3e9ec0ae	0.31006378
156	0xbec5eb35	-0.3865601
157	0x3ea8f0e6	0.3299629
158	0x3bd4bf80	0.006492555
159	0xbdb44f9c	-0.08804247
160	0xbeb83418	-0.35977244
161	0xbebc82fb	-0.3681868
162	0xbe41f5a4	-0.1894136
163	0xbeab4904	-0.33454144
164	0x3ec6644a	0.3874839
165	0x3dede3cd	0.11615715
166	0xbe9c76c8	-0.30559373
167	0x3edad461	0.42740157
168	0x3e678b89	0.22611822
169	0x3e8beb0a	0.27327758
170	0x3e11d37b	0.1424083
171	0x3e94ea14	0.29084837
172	0xbe79b55c	-0.2438559
173	0x3d89bd2e	0.06725536
174	0xbe222838	-0.15835655
175	0xbe55a9b8	-0.20865524
176	0x3eb5607e	0.3542518
177	0x3dc17998	0.0944702
178	0xbbd18540	-0.0063940585
179	0xbe9f8d36	-0.31162423
180	0x3e9262f2	0.28591114
181	0x3ecd9cfc	0.40158832
182	0xbeb610c0	-0.35559654
183	0x3d9ff8bc	0.07811114
184	0xbe04a49c	-0.12953418
185	0xbd783374	-0.060595945
186	0xbd236efd	-0.03990077
187	0xbe8825ab	-0.26591238
188	0xbe904e00	-0.2818451
189	0xbd832f56	-0.06405513
190	0x3e8fe82a	0.28106815
191	0x3e665c0d	0.22496052
192	0xbe879c96	-0.26486653
193	0x3edf9b23	0.43673047
194	0x3ea34cbb	0.31894478
195	0xbe1c4899	-0.15262069
196	0x3c1dbef8	0.00962805
197	0x3cdfe7a0	0.027332127
198	0x3dcc4abb	0.09975191
199	0xbda5a86b	-0.08088764
200	0xbe7586f3	-0.2397726
201	0xbeaa1da8	-0.3322575
202	0xbeb7af44	-0.35875905
203	0x3e8eaeb0	0.2786765
204	0x3e7a7a20	0.2446065
205	0xbdba03ac	-0.090827316
206	0x3db44b70	0.08803451
207	0xbdc1bfc4	-0.094604045
208	0xbe41ca28	-0.18924773
209	0xbe8c8882	-0.27447897
210	0xbeb464f1	-0.35233262
211	0x3e566dad	0.20940275
212	0x3e8b6113	0.272225
213	0x3eb8edd5	0.3611895
214	0x3d11de22	0.035612233
215	0xbe8768f8	-0.26447272
216	0x3ec18e24	0.37803757
217	0x3db8016f	0.089846484
218	0xbd87270b	-0.06599244
219	0xbdaf26af	-0.085523
220	0xbe9b0136	-0.3027436
221	0xbeaa25a4	-0.33231843
222	0x3e841cfa	0.25803357
223	0xbe2b3456	-0.16719183
224	0x3e1a66ab	0.15078227
225	0xbd558f84	-0.05213882
226	0x3dc7c20c	0.097538084
227	0x3d73cd09	0.05952171
228	0x3debdb4b	0.11516436
229	0xbbac2704	-0.0052536745
230	0x3e82c32c	0.2553953
231	0xbe648ed5	-0.22320111
232	0xbb593f07	-0.003314914
233	0x3e645009	0.22296156
234	0xbe8c5636	-0.27409524
235	0xbe668d5b	-0.2251486
236	0xbc502160	-0.01270327
237	0x3eaf7afb	0.34273514
238	0x3e8b36e0	0.27190304
239	0xbe21fe0f	-0.15819572
240	0x3e30f0de	0.17279384
241	0x3eaacb2c	0.33358133
242	0x3e92eb0f	0.2869496
243	0x3ead665f	0.33867165
244	0x3e999fb7	0.30004665
245	0xbdb0c6b7	-0.08631652
246	0x3e703c4a	0.23460498
247	0xbe724e33	-0.23662643
248	0xbdaaba59	-0.08336324
249	0x3e7b4865	0.24539335
250	0x3eb4945b	0.35269436
251	0xbdad8537	-0.08472674
252	0x3e7aa4f2	0.24476984
253	0x3e080522	0.13283208
254	0x3eb81ef4	0.35961115
255	0xbe5d7ad5	-0.21628888

fc1.bias f4 [64]
0	0x3eaff09b	0.34363255
1	0x3ed7c477	0.42142078
2	0xbe8c10aa	-0.27356464
3	0x3e4daf87	0.2008649
4	0xbde82dcb	-0.11336859
5	0xbcebc160	-0.028778732
6	0x3e77ed53	0.24211626
7	0xbebc261e	-0.3674783
8	0xbe2c12b7	-0.16804014
9	0xbe35efd5	-0.1776727
10	0xbebba7ad	-0.36651364
11	0x3e9b214b	0.30298838
12	0xbec75f83	-0.38940057
13	0x3eac1b80	0.3361473
14	0xbe70cb21	-0.23514988
15	0x3ea95e64	0.33079827
16	0xbdd3d332	-0.10343017
17	0xbeb1711a	-0.34656602
18	0xbe81a950	-0.25324488
19	0x3ec423d2	0.3830858
20	0x3e8347ac	0.2564062
21	0xbe642c45	-0.22282512
22	0x3ec85425	0.39126697
23	0xbed0ff7e	-0.40819925
24	0x3ee11f8a	0.43969375
25	0xbed31183	-0.41224298
26	0xbe23ad62	-0.15984109
27	0x3e3bc357	0.18336235
28	0xbde8b7a5	-0.113631524
29	0xbde9e2d8	-0.1142022
30	0x3ee4ea29	0.447099
31	0x3edb5351	0.42837003
32	0x3e53ef60	0.20696783
33	0x3e9afe0a	0.3027194
34	0xbe441b9c	-0.19151157
35	0x3ed672ad	0.41884366
36	0xbd77ab97	-0.060466375
37	0x3e890138	0.26758742
38	0x3ece164b	0.40251383
39	0x3e9a3d9b	0.30125126
40	0x3ea8c596	0.32963246
41	0x3e801d45	0.2502233
42	0x3e61aaaa	0.2203776
43	0x3e821715	0.25408235
44	0x3eed6817	0.46368477
45	0x3eb75ca8	0.3581288
46	0xbd3d8ce6	-0.04627695
47	0x3dd3b64e	0.10337506
48	0x3d9b1960	0.07573199
49	0xbe60279d	-0.21890111
50	0x3eed4059	0.46338156
51	0x3ebf486a	0.37359935
52	0xbdcc4bac	-0.09975371
53	0x3eda46b2	0.4263206
54	0x3e22ce4b	0.15899007
55	0x3e8a311a	0.26990587
56	0xbebf0855	-0.37311044
57	0x3ebf6860	0.3738432
58	0xbea4bd0a	-0.32175475
59	0x3e03d813	0.12875395
60	0x3e6c2d93	0.2306426
61	0x3e1feea0	0.15618372
62	0x3ef4e1bb	0.4782847
63	0xbdc1e2f6	-0.094671175

fc2.weight f4 [64, 64]
0	0xbc5d8e63	-0.013522717
1	0x3d79a970	0.060952604
2	0xba136b6a	-0.0005623611
3	0xbdf50cdf	-0.119653456
4	0xbcceec82	-0.02525926
5	0xbda26ce0	-0.079309225
6	0xbdf633eb	-0.12021621
7	0xbdc390e2	-0.095491186
8	0xbdc9961a	-0.09843083
9	0x3dcf6b45	0.10127882
10	0xbcafd919	-0.021465825
11	0x3cdaa07a	0.02668785
12	0xbd0c6bbb	-0.034282427
13	0x3a9e0fbb	0.0012059131
14	0x3dbea8ae	0.09309517
15	0xbdce7da5	-0.100825585
16	0xbdfc8a7d	-0.12331102
17	0xbe04823c	-0.12940305
18	0xbdf1571c	-0.11784193
19	0xbd9aeec1	-0.0756507
20	0xbd83c2ff	-0.06433677
21	0xbd346060	-0.044037223
22	0x3d5c3315	0.053759653
23	0x3d715dd8	0.058927387
24	0xbd9632c4	-0.073339015
25	0xbc800f1e	-0.015632208
26	0x3d292500	0.04129505
27	0xbe07810f	-0.13232826
28	0xbd157b2a	-0.03649441
29	0xbdd4d68e	-0.103924856
30	0x3be3c4a7	0.006950933
31	0x3dc6184d	0.09672604
32	0xbd428c52	-0.0474971
33	0x3ce838cb	0.028347393
34	0xbc4ffda0	-0.012694746
35	0xbd6ef3e0	-0.058338046
36	0xbd646dcb	-0.05576877
37	0xbdc970ee	-0.09835993
38	0xbd31b1de	-0.043382518
39	0x3c226052	0.00991066
40	0xbd747190	-0.059678614
41	0xbc711e00	-0.014716625
42	0x3c9af5f4	0.018916108
43	0x3dd7250e	0.105051145
44	0x3ce21624	0.027598448
45	0xbe0f5674	-0.13997823
46	0xbb9b321f	-0.0047361995
47	0x3dc03164	0.093844205
48	0x3c0d575f	0.008626788
49	0xbd3b75a0	-0.045766473
50	0x3d811278	0.06302351
51	0xbd3ad052	-0.045608826
52	0x3cadf9c6	0.021237265
53	0x3d943cca	0.07238157
54	0x3dacfe74	0.084469706
55	0x3d0f8f5d	0.03504883
56	0xbdc01dc4	-0.09380677
57	0x3dd2d761	0.102949865
58	0x3d7feb1c	0.062480077
59	0x3c7b847d	0.015351412
60	0x3dd9196e	0.106005535
61	0x3dd64001	0.104614265
62	0xbd94ec03	-0.07271578
63	0x3d369d7d	0.044583786
64	0x3d20a06c	0.03921549
65	0x3c4a0540	0.012330353
66	0x3d983ef6	0.07433884
67	0xbdfea278	-0.12433332
68	0x3c7c1470	0.015385732
69	0xbc812150	-0.015762955
70	0x3cfebbd0	0.031095415
71	0x3d983fe2	0.0743406
72	0xbde3fcd2	-0.11132206
73	0xbc668d10	-0.014071718
74	0x3c741710	0.014898077
75	0xbd4b9684	-0.04970409
76	0x3dff26c8	0.12458569
77	0x3d55b028	0.05216995
78	0x3db57976	0.088610575
79	0x3dc9de80	0.09856892
80	0x3db075ec	0.08616242
81	0x3c963a90	0.018338472
82	0x3df2edbe	0.11861752
83	0xbcad6a98	-0.021168992
84	0x3db260a8	0.08709842
85	0xbc11fd60	-0.008910507
86	0xbdddd1ea	-0.108310536
87	0x3dca5908	0.098802626
88	0x3d02a6c0	0.031897306
89	0xbde85e3c	-0.11346099
90	0x3dd53ae4	0.10411623
91	0x3d1ccaec	0.03827946
92	0xbca7cc08	-0.020483032
93	0xbd2765fc	-0.040868744
94	0xbd9f175a	-0.07768126
95	0x3c7801f0	0.015137181
96	0x3d866a32	0.06563224
97	0xbcca7120	-0.024712145
98	0x3dda946e	0.10672842
99	0xbbf870a0	-0.0075817853
100	0x3de82abe	0.113362774
101	0xbbff4920	-0.0077906996
102	0xbdf0295c	-0.11726639
103	0x3ac00e00	0.001465261
104	0x3d4ae968	0.049539
105	0xbbc05100	-0.005869031
106	0xbdd5a63a	-0.10432096
107	0xbc0045c0	-0.00782913
108	0xbd46badc	-0.048518047
109	0xbd2b2fb0	-0.041793525
110	0xbc595720	-0.013265401
111	0x3ccdd258	0.025124714
112	0xbdd1f64c	-0.102520555
113	0x3dc9884e	0.09840451
114	0xbc130630	-0.008973643
115	0x3d4eedac	0.05051963
116	0xbb99ee20	-0.004697576
117	0xbde68c5a	-0.11257239
118	0x3deab37a	0.11460014
119	0x3ddb8de6	0.10720424
120	0x3cf5c8b8	0.030002937
121	0xbdebdb80	-0.11516476
122	0xbdd25a80	-0.10271168
123	0xbdb34cda	-0.08754893
124	0x3da49308	0.080358565
125	0xbc004ab0	-0.007830307
126	0x3d88861a	0.06666203
127	0x3dfb3e9a	0.122678
128	0x3e1d868d	0.15383358
129	0x3d623fad	0.055236507
130	0x3ca39e65	0.01997299
131	0x3db2dee0	0.08733916
132	0xbdaac6f6	-0.0833873
133	0xbdbadbc0	-0.09123945
134	0xbd887f91	-0.06664956
135	0x3d156984	0.03647758
136	0x3d40a27c	0.047029957
137	0x3cf629ac	0.030049168
138	0x3d82863a	0.06373258
139	0xbd37dc62	-0.044887908
140	0xbd56ab4d	-0.05240946
141	0xbd469dd9	-0.04849038
142	0x3d86cb8b	0.065817915
143	0x3bd9dad9	0.006648403
144	0xbd152d03	-0.03641988
145	0x3e152ef7	0.14568697
146	0x3cfc7560	0.030817688
147	0xbd457fae	-0.048217468
148	0x3e236217	0.15955387
149	0xbb6feac0	-0.0036608428
150	0x3e15a73b	0.14614575
151	0x3ca3ace0	0.019979894
152	0x3e16f464	0.14741665
153	0xbbfcbff1	-0.007713311
154	0x3de836e4	0.113385946
155	0x3e27daf9	0.16392125
156	0x3d987706	0.07444577
157	0xbda0569a	-0.07829018
158	0x3e0b6506	0.13612756
159	0x3d8da8ec	0.06916985
160	0x3da8433e	0.082159504
161	0x3e0b4b14	0.13602859
162	0xbd9213bc	-0.0713267
163	0x3d007f2e	0.031371288
164	0x3e10181b	0.14071696
165	0x3ed0797b	0.40717682
166	0x3e03de41	0.12877752
167	0xbd6dfb54	-0.058101013
168	0xbda053dd	-0.07828496
169	0xbcaea3e8	-0.021318391
170	0x3e190937	0.14944921
171	0x3e2d36ee	0.16915485
172	0x3d9d97b3	0.0769495
173	0xbcec33c7	-0.028833283
174	0xbd743092	-0.059616633
175	0xbd304c8d	-0.043041755
176	0x3de0c551	0.10975135
177	0x3df2bc44	0.11852315
178	0x3dee55e7	0.11637478
179	0x3c978cb8	0.018499717
180	0xbc0376d1	-0.0080239335
181	0x3daa7d60	0.08324695
182	0xbb1e7a43	-0.002418176
183	0x3de37259	0.111057945
184	0x3def8d7c	0.11696908
185	0xbd90b679	-0.07066054
186	0xbd5ecbe4	-0.054393664
187	0x3de472f9	0.11154742
188	0x3e07465b	0.13210432
189	0x3df7148e	0.12064467
190	0xbc796a3f	-0.015223085
191	0x3c3fca0c	0.011705887
192	0xbd4bfd4b	-0.049802106
193	0xbbd31c8f	-0.0064426134
194	0x3d8c1d93	0.06841578
195	0x3dd2af40	0.102873325
196	0x3c0b72dc	0.008511271
197	0x3d15f07c	0.036606297
198	0x3e00a420	0.12562609
199	0xbc49f360	-0.0123260915
200	0x3d636c49	0.05552319
201	0x3e1368ac	0.14395398
202	0x3e06baca	0.13157192
203	0x3d9b0d22	0.07570864
204	0x3d8bd65e	0.06827997
205	0x3e2c6768	0.16836321
206	0xbdbf9de0	-0.09356284
207	0x3dba7c2b	0.091057144
208	0x3dfe2667	0.124096684
209	0x3da8c7a9	0.08241207
210	0xbd8637e4	-0.06553629
211	0xbd893d26	-0.06701116
212	0x3e359e66	0.17736205
213	0xbd0ec75c	-0.034858093
214	0x3dcdee56	0.100552246
215	0xbdd94ee0	-0.10610747
216	0x3da5c554	0.08094278
217	0x3d022149	0.031770024
218	0x3c1311e0	0.00897643
219	0x3d994919	0.074846454
220	0xbd346d35	-0.04404946
221	0x3d0642f4	0.032778695
222	0x3d9c70b3	0.07638683
223	0x3e1d5901	0.15365984
224	0x3da141f7	0.0787391
225	0x3e383d0e	0.1799204
226	0xbcc99910	-0.024609119
227	0xbceee3c2	-0.029161338
228	0x3cc1267f	0.023577927
229	0x3ecb19cd	0.39668122
230	0x3d8943da	0.06702395
231	0xbcac2c61	-0.021017255
232	0xbcd5bb5a	-0.026090313
233	0x3c2330a7	0.00996033
234	0x3d947448	0.072487414
235	0xbba8c16b	-0.0051500103
236	0xbd00571e	-0.03133308
237	0x3d807382	0.06272031
238	0x3c6900c1	0.014221371
239	0xbd287942	-0.041131265
240	0x3df9b418	0.12192553
241	0xbd4513d4	-0.048114613
242	0x3dafa8f4	0.08577147
243	0x3cedc10c	0.029022716
244	0xba7380bf	-0.0009288899
245	0x3d0cc97c	0.034371838
246	0x3da7c932	0.08192672
247	0xbd528b74	-0.051402524
248	0xbd6f2ad8	-0.05839047
249	0x3df8601b	0.12127706
250	0x3cc020f0	0.023453206
251	0x3d9b9cde	0.075982794
252	0x3d5858b1	0.052818958
253	0xbd833ac0	-0.0640769
254	0xbd288070	-0.041138113
255	0xbd052c3a	-0.03251288

fc2.bias f4 [64]
0	0xbceef8e0	-0.029171407
1	0xbda12130	-0.07867658
2	0x3e0cee9b	0.13762896
3	0x3dcbcf98	0.09951705
4	0x3e1b4b99	0.15165557
5	0x3e14d91c	0.14535946
6	0x3e15f184	0.14642912
7	0x3e174efb	0.14776222
8	0xbc77b359	-0.015118443
9	0x3c37ccfa	0.011218304
10	0x3ddc34da	0.10752268
11	0x3e482aff	0.19547652
12	0xbc3fba23	-0.011702093
13	0xbd61a85a	-0.055092193
14	0xbc2e4a9b	-0.0106379045
15	0xbdd90cea	-0.10598166
16	0x3e127d76	0.14305672
17	0xbc58d269	-0.013233759
18	0x3d533509	0.05156425
19	0x3d76b28a	0.060228862
20	0x3d388e80	0.045057774
21	0x3d0ae17f	0.033906456
22	0x3d9b5c72	0.07585992
23	0x3d1b3144	0.03788878
24	0xbd809e4e	-0.06280194
25	0x3e1484d6	0.14503798
26	0xbdd1c3c2	-0.10242416
27	0x3deb9e85	0.115048446
28	0xbd5b8ab3	-0.05359907
29	0xbd869e0c	-0.06573114
30	0x3e1e4f6d	0.15459986
31	0x3e09a67a	0.13442412
32	0x3d83445b	0.06409522
33	0x3c1dcf70	0.0096319765
34	0x3e2e9aad	0.17051192
35	0xbcd01378	-0.025399908
36	0x3db8500d	0.089996435
37	0x3de9ce4f	0.11416303
38	0x3d055268	0.03254929
39	0x3e2db5d7	0.16963898
40	0xbda204fc	-0.07911107
41	0x3e0bad2f	0.13640283
42	0x3d9a2a75	0.07527629
43	0xbdfb99d6	-0.12285201
44	0x3dde0cb5	0.108422674
45	0x3da84ad7	0.082173996
46	0x3d65b2c9	0.056078706
47	0xbc25f7af	-0.010129853
48	0x3d971209	0.07376487
49	0x3cfcdb86	0.030866396
50	0x3dbf5e66	0.09344177
51	0x3d9a741e	0.07541679
52	0x3e213dda	0.15746251
53	0xbdd049f2	-0.10170354
54	0x3e0ad239	0.13556756
55	0x3da5b56b	0.08091243
56	0x3d83a4d2	0.06427921
57	0xbdf21272	-0.118199244
58	0x3db777dd	0.08958409
59	0xbd4601a4	-0.04834141
60	0xbd1b4a9d	-0.037912954
61	0x3c9bbee0	0.019011915
62	0x3dde633e	0.10858773
63	0xbbbe6d40	-0.0058113635

fc3.weight f4 [64, 64]
0	0xbd931380	-0.07181454
1	0xbde6356a	-0.11240657
2	0xbc8e2f84	-0.017356642
3	0x3d886890	0.06660569
4	0x3ddf8d15	0.10915581
5	0xbdcf8ed6	-0.10134666
6	0xbdd79b08	-0.10527617
7	0x3d1b559e	0.037923448
8	0x3d868056	0.06567447
9	0xbd7a357e	-0.06108617
10	0xbdb03aa8	-0.08604938
11	0x3d35fed7	0.044432487
12	0xbdceb828	-0.10093719
13	0x3cef134e	0.02918401
14	0x3d90bca2	0.07067229
15	0x3c0fc6b0	0.008775398
16	0xbe04639a	-0.1292862
17	0xbca13e61	-0.019683065
18	0x3bb0a7ed	0.005391112
19	0x3dc15b3b	0.09441229
20	0x3d9cbbac	0.07652983
21	0xbdb9072c	-0.09034571
22	0x3d7553f8	0.059894532
23	0x3cf81ee0	0.03028816
24	0xbdd24090	-0.102662206
25	0x3daa71a9	0.0832246
26	0xbd8cfd0c	-0.06884202
27	0xbdae61b1	-0.08514727
28	0x3d929aca	0.0715843
29	0x3df32346	0.11871962
30	0xbc1208c3	-0.008913222
31	0xbdaba1b7	-0.08380454
32	0xbddaf4c0	-0.106912136
33	0x3d181db8	0.037137717
34	0xbd89da34	-0.06731072
35	0x3d02b08c	0.03190665
36	0x3df3861b	0.11890813
37	0xbdb9b5de	-0.090678915
38	0x3dd8aef2	0.10580243
39	0x3a8c0bdc	0.0010684687
40	0xbd37e27c	-0.044893727
41	0xbd85d3e7	-0.06534558
42	0x3d37f17b	0.044908028
43	0x3ddb4510	0.10706532
44	0x3da91a18	0.0825693
45	0x3d45ff0b	0.04833893
46	0x3b0869a2	0.0020814915
47	0x3d864574	0.06556216
48	0xbdf48b44	-0.11940625
49	0x3ba242d7	0.0049518156
50	0xbde91e29	-0.11382706
51	0x3dcd01f5	0.10010139
52	0x3c7dd188	0.015491851
53	0xb98a5600	-0.00026385486
54	0x3d7e1efd	0.06204127
55	0xbde9a2b1	-0.11407984
56	0x3d890f1d	0.06692336
57	0xbdb4867c	-0.08814713
58	0x3c309ec0	0.010780036
59	0xbd88541a	-0.06656666
60	0x3d2a7634	0.041616634
61	0xbd108507	-0.035283115
62	0x3df2849e	0.11841701
63	0xbd84a504	-0.06476787
64	0xbd44b9dd	-0.048028816
65	0x3b88b380	0.0041717887
66	0x3daba29e	0.08380626
67	0xbc4f8b7b	-0.012667532
68	0x3b5d8730	0.0033802502
69	0x3bb7f256	0.0056136055
70	0x3d15c9ff	0.03656959
71	0xbda20544	-0.079111606
72	0x3dd69a1c	0.10478613
73	0x3d772e45	0.06034686
74	0xbd17822c	-0.036989376
75	0xbcdcf19d	-0.026970679
76	0xbc5e31c0	-0.013561666
77	0xbbbd01d3	-0.0057680397
78	0xbc7ea5b0	-0.015542433
79	0x3dfc0b0a	0.12306793
80	0xbdd8a58f	-0.10578453
81	0x3cbbcc3f	0.02292454
82	0xbca8a858	-0.020588085
83	0x3d5bbfbf	0.05364966
84	0xbdd1743c	-0.10227248
85	0xbb9b53e0	-0.0047402233
86	0xbdc92c9c	-0.09822962
87	0x3cfb45a0	0.030672848
88	0x3bc75380	0.006082952
89	0xbdba6fa9	-0.09103329
90	0xbca37088	-0.01995112
91	0x3d9a3e32	0.07531394
92	0x3de97c91	0.11400712
93	0x3c959998	0.018261716
94	0xbdda56c8	-0.106610835
95	0x3d22ef81	0.03977919
96	0x3d3f222f	0.04666346
97	0x3d98b54c	0.07456455
98	0x3d2b0021	0.04174817
99	0xbda76efc	-0.081754655
100	0x39c3b0d9	0.0003732506
101	0x3de3118b	0.110873304
102	0xbdfed586	-0.1244307
103	0xbc1aeae4	-0.009455416
104	0xbcdae438	-0.026720151
105	0xbde6b614	-0.112651974
106	0x3d7ced7a	0.061749913
107	0xbd2fec70	-0.042950094
108	0x3d50253a	0.050816752
109	0x3c1e1573	0.009648669
110	0xbd9055b6	-0.07047598
111	0xba8e88f8	-0.001087456
112	0xbdfe38b8	-0.12413162
113	0xbd652487	-0.05594304
114	0x3da08117	0.07837122
115	0xbda0eb8a	-0.078574255
116	0xbccea61d	-0.025225693
117	0xbd416124	-0.04721178
118	0x3cdec91a	0.027195502
119	0xbc184706	-0.009294277
120	0x3cb4afc2	0.022056464
121	0xbdaa6d42	-0.083216205
122	0xbdd88b2b	-0.10573419
123	0x3de957da	0.113937095
124	0x3da2e0cc	0.07953033
125	0xbc60e30f	-0.01372601
126	0xbd745c0b	-0.05965809
127	0xbdc5e9aa	-0.096637085
128	0xbde2c108	-0.11071974
129	0x3dd3466c	0.10316166
130	0xbc621d40	-0.013800919
131	0xbd14b934	-0.036309436
132	0x3c9b6478	0.018968806
133	0xbdf89e84	-0.121396095
134	0xbd9a2b90	-0.0752784
135	0xbc82fcd0	-0.015989691
136	0x3de653a2	0.112464204
137	0x3db34372	0.087530985
138	0x3caaa9d0	0.020832926
139	0x3d98f248	0.074680865
140	0xbdf70f22	-0.12063433
141	0xbd8cde9e	-0.06878398
142	0xbdf0d8d8	-0.1176011
143	0x3dfdd0c6	0.12393336
144	0xbd1ced20	-0.038312078
145	0xbddcf1dc	-0.107883185
146	0xbca15ea0	-0.019698441
147	0xbdea3d7a	-0.11437507
148	0x3d8f882e	0.07008396
149	0x3d14f8cc	0.036370084
150	0x3d8eea9e	0.069783434
151	0xbc459490	-0.012059346
152	0xbd7ecda8	-0.062207848
153	0x3d33c920	0.04389298
154	0xbc3089c0	-0.01077503
155	0x3df7a0ae	0.12091194
156	0x3d003d1c	0.03130828
157	0xbdf64c5e	-0.12026285
158	0x3dcc9928	0.0999015
159	0xbdf6478a	-0.12025364
160	0xbdd89546	-0.10575347
161	0x3b7ab300	0.0038253665
162	0x3d398440	0.04529214
163	0x3dc221aa	0.09479077
164	0xbd621884	-0.05519916
165	0xbde3a656	-0.111157104
166	0xbb832da0	-0.0040032417
167	0xba6f9400	-0.000913918
168	0xbdc77212	-0.09738554
169	0xbde13ab8	-0.10997528
170	0x3c7d5a30	0.015463397
171	0xbc82e878	-0.01597999
172	0x3d67c300	0.05658245
173	0x3cfc7638	0.03081809
174	0xbd21bbec	-0.039485857
175	0x3d80aa1a	0.06282444
176	0x3c666b50	0.014063671
177	0x3cb3ca40	0.021947026
178	0xbdc3dd54	-0.09563699
179	0xba9bec00	-0.0011895895
180	0xbd86f5be	-0.0658984
181	0x3d904ef4	0.07046309
182	0x3b6eb300	0.003642261
183	0xbdb3b6da	-0.087751105
184	0x3d96302a	0.07333405
185	0x3de34438	0.11096996
186	0x3a20db00	0.0006136149
187	0x3ab2de00	0.0013646483
188	0xbd3450d4	-0.044022396
189	0xbd1e9fc8	-0.038726598
190	0x3d302278	0.043001622
191	0xbd42a4f0	-0.047520578
192	0x3d59167d	0.052999962
193	0xbdbf7bc6	-0.0934978
194	0x3d869937	0.06572192
195	0x3e070860	0.13186789
196	0x3e46e15b	0.19421904
197	0xbd72ecfd	-0.05930804
198	0x3e0b9d9d	0.13634343
199	0x3ddf9a2d	0.109180786
200	0x3d08de1b	0.03341494
201	0x3e22790a	0.15866485
202	0x3d6750b3	0.056473445
203	0x3e300e7f	0.1719303
204	0xbdc62d5e	-0.09676622
205	0x3c04d6b4	0.00810783
206	0xbde4dd15	-0.111749806
207	0x3ce025f0	0.02736184
208	0xbc4413f1	-0.011967645
209	0x3dcaa1c2	0.09894134
210	0x3e252ebe	0.16131112
211	0xbd1e8eed	-0.038710523
212	0x3dcdf5a2	0.10056616
213	0xbd32f49d	-0.043690313
214	0x3c9dd030	0.01926431
215	0x3dbe9640	0.09306002
216	0xbd92dd46	-0.07171111
217	0x3e428d42	0.18999198
218	0x3df96dc8	0.12179142
219	0x3daff443	0.08591511
220	0x3df72982	0.12068464
221	0xbcca7fc8	-0.024719134
222	0x3e20eb06	0.15714654
223	0xbc354524	-0.011063848
224	0x3e2275ee	0.15865299
225	0x3dfaa90a	0.12239273
226	0x3e202ba9	0.15641655
227	0xbd92fc12	-0.07176985
228	0x3e2e95c6	0.17049322
229	0x3e0c34f0	0.13692069
230	0x3d54bc70	0.05193752
231	0x3de08fff	0.10964965
232	0xbddb08b7	-0.106950216
233	0x3d34490d	0.04401498
234	0xbd75b7b9	-0.059989665
235	0xbc8445a8	-0.016146496
236	0x3d10c550	0.035344422
237	0x3c7c6c15	0.015406628
238	0x3ab9c1ba	0.0014172115
239	0xbc37ae35	-0.011210968
240	0xbd40f3a8	-0.04710737
241	0x3d0227ef	0.031776365
242	0xbd2f9808	-0.042869598
243	0x3d38df8f	0.045135077
244	0x3c574e41	0.013141216
245	0xbd21bbf8	-0.0394859
246	0x3cd0b646	0.02547754
247	0x3cb403b1	0.021974416
248	0x3e034825	0.1282049
249	0xbde1c81c	-0.11024496
250	0x3e0e9815	0.13925202
251	0x3dbc9dd4	0.09209791
252	0xbdd93fe7	-0.106078915
253	0x3a472040	0.0007596053
254	0x3e025d58	0.1273092
255	0x3df02ac0	0.11726904

fc3.bias f4 [64]
0	0xbda776f4	-0.081769854
1	0xbdfc3ba7	-0.12316065
2	0xbd4ea488	-0.050449878
3	0x3e1b3f44	0.15160853
4	0xbd9a1263	-0.07523038
5	0xbc65cd00	-0.014025927
6	0xbda0a9b7	-0.078448705
7	0x3dc718af	0.09721505
8	0x3c94f438	0.018182859
9	0xbd29b441	-0.04143167
10	0x3e28a400	0.16468811
11	0x3e293012	0.16522244
12	0xbd5f438e	-0.054507785
13	0xbbd247f0	-0.006417267
14	0x3dcaa34c	0.09894428
15	0xbdab8bea	-0.08376296
16	0x3d2a9f71	0.04165596
17	0x3d0e4788	0.034736186
18	0xbc1afeee	-0.009460194
19	0xbd260f5c	-0.04054199
20	0x3cdd1b1d	0.026990468
21	0x3e0d116c	0.13776177
22	0xbc23b43f	-0.0099917045
23	0x3dcaa9c2	0.0989566
24	0xbdb70612	-0.08936705
25	0xbc5d6e77	-0.013515106
26	0xbdb5b546	-0.08872466
27	0xbdc50772	-0.09620561
28	0xbd49a4ee	-0.049229555
29	0xbd3f5ed4	-0.046721295
30	0xbd99fb8a	-0.075186804
31	0xbd7fee39	-0.062483046
32	0xbcd5d9e0	-0.026104867
33	0x3d581da9	0.05276266
34	0x3e25058b	0.16115396
35	0xbdbbdfdc	-0.09173557
36	0x3da83748	0.08213669
37	0xbde16448	-0.11005455
38	0xbdca6c63	-0.098839544
39	0xbc004dd0	-0.007831052
40	0xbe0f3eac	-0.13988751
41	0x3d84c6c6	0.064832255
42	0xbd765365	-0.060138125
43	0x3da60ec8	0.08108288
44	0xbdf9413e	-0.12170647
45	0x3db764be	0.08954762
46	0xbb103bd8	-0.0022008326
47	0xbd6dc993	-0.058053564
48	0x3e0e216f	0.13879941
49	0x3dfe895e	0.124285445
50	0x3d7a77fc	0.061149582
51	0xbbfb2400	-0.0076642036
52	0xbde0eaaa	-0.109822586
53	0xbd488e0a	-0.048963584
54	0xbdd45da0	-0.1036942
55	0x3d8ecd3b	0.06972738
56	0xbda3706a	-0.07980426
57	0x3d8fdc7a	0.070244744
58	0x3d2a51c0	0.04158187
59	0xbdb07f72	-0.08618058
60	0xbd1782ed	-0.036990095
61	0xbdd9747c	-0.10617921
62	0x3d952c26	0.07283811
63	0xbdd0470a	-0.101697996

action_out.weight f4 [1, 64]
0	0xbd3cd291	-0.04609925
1	0xbdada065	-0.084778585
2	0x3dec576e	0.115401134
3	0x3e32e0d2	0.17468575
4	0xbc64b4ef	-0.013959154
5	0xbdd48036	-0.10376017
6	0xbdb03b8c	-0.08605108
7	0x3dcadbec	0.09905228
8	0xbd5bca04	-0.053659454
9	0xbce42867	-0.027851297
10	0x3df289f1	0.118427165
11	0x3e43985c	0.19101089
12	0x3e4bcfe0	0.19903517
13	0xbba8118e	-0.005129046
14	0x3e2f8d69	0.17143787
15	0x3dd3fa1e	0.103504404
16	0xbde50f58	-0.11184567
17	0x3d8624f2	0.065500155
18	0xbd4e17a1	-0.050315503
19	0x3c207bd0	0.009795144
20	0xbdaac018	-0.0833742
21	0x3e175fd7	0.14782654
22	0x3d95d148	0.07315308
23	0x3da99436	0.08280222
24	0xbaac8080	-0.0013160855
25	0xbd257647	-0.040396
26	0xbdd87dd0	-0.10570872
27	0x3d34b8a0	0.044121385
28	0x3e14d443	0.14534096
29	0x3de0a7e8	0.109695256
30	0x3e02af53	0.12762193
31	0xbdde514d	-0.10855351
32	0xbd5003bc	-0.05078481
33	0x3e3e7236	0.18598256
34	0x3e3cfbd7	0.18455444
35	0xbcfc4358	-0.03079383
36	0x3bdb2ec0	0.0066889226
37	0x3bbc60c0	0.005748838
38	0xbd81e318	-0.06342143
39	0xbd01a188	-0.03164819
40	0xbda9d642	-0.082928196
41	0x3db0f6af	0.08640801
42	0x3e2d3698	0.16915357
43	0x3dc8e7fc	0.098098725
44	0x3c956718	0.018237635
45	0xbdda592f	-0.10661542
46	0xba8d053a	-0.0010759004
47	0xbd20dac4	-0.03927113
48	0x3e025b6b	0.12730186
49	0x3de146f4	0.10999861
50	0xbc1a0c20	-0.009402305
51	0xbdf753f2	-0.12076558
52	0x3d35f694	0.04442461
53	0xbd7a23ba	-0.061069228
54	0xbddf1ca6	-0.10894136
55	0x3abfcbf8	0.0014632931
56	0xbc32ef30	-0.010921285
57	0x3e26900c	0.16265887
58	0xbdb3e0a5	-0.08783082
59	0x3d3b80b4	0.045777038
60	0x3e2ed223	0.17072348
61	0x3dfdfe9a	0.12402077
62	0x3e1111d5	0.14166959
63	0xbd8278ba	-0.06370683
