model/simple_charge/agent_10/227_critic_params.pkl (torch, 72179 bytes, 7 tensors)

fc1.weight f4 [64, 139]
00000000: 5a54 a13c 8e70 413d 5eee fb3c d420 38bd
00000010: d5b9 d9bd 7e31 91bd e1be e5bc 2c97 74bd
00000020: 4c19 24bd eb0e 3e3b 8e5d 5e3b 01e5 ed3c
00000030: 73eb fe3b f9bb 703c 995b 66bc c282 c6bd
00000040: a82f 253c c0e4 82bb 2f00 143d 1669 4c3d
00000050: 2c89 84bd adc2 35bb efea c5bd f82c a2bd
00000060: 15fa dabd e162 adbd 5ad2 61bd 9823 dabd
00000070: e6cb a2bd d1de 04bd 3e60 67bd 58bc 4d3c
00000080: 31d2 d7bc c53a 92bb 65d9 5f3d 0311 a83b
00000090: b128 a5bc 4522 043d bf74 5a3d f780 bebd
000000a0: b531 abbc c0d2 82bd c50f 643c 69d2 90bd
000000b0: 2bc1 d8bd d42a d4bc 51ae 8c3c 8a26 893c
000000c0: 55fb 603d 5c6f a4bd 19eb cfbd 7533 b1bd
000000d0: a72e 65bd 2c71 bf3c aacb 93bc 2601 383d
000000e0: 7378 833c 75e0 36bd c59c 18bd 3d47 5cbc
000000f0: df87 0d3d b885 3b3d 51e5 37bc 9b22 ac3c
00000100: 9e9a 8fbb e65f 6f3c b7e0 81bd 90d7 dcbd
00000110: 52f6 403c d427 c23c 7ad9 c6bd 5461 c23c
00000120: d5a2 dabd c4bb ecbc bd15 053c b699 633d
00000130: 82c0 523d ee7a d1bd 2ef9 cabd cc8f 58bb
00000140: f2bd 92bc 4ccf e8bc f7a3 a2bd 1bb1 333c
00000150: 03ff b9bd 2779 8dbd 93ed e4bc 97a0 70bd
00000160: e6a7 c33c c356 533c 3b9c 65bd af1d 06bd
00000170: c1a1 5cbd d67b a6bb cf2e e53c 04c6 d6bd
00000180: adc0 d8bd 00bf 79bd c2f5 b43c 8b9b cfbd
00000190: 7814 4abd 85f9 3b3d eb5f a7bd 12af 13bd
000001a0: ce55 083d a335 82bd f5c3 71bc ec47 733c
000001b0: 7323 aa3c a1a3 0ebc f4aa 5d3d df7f cfbd
000001c0: d672 2c3a be1b 05bb 8f04 d1bd c82e c4bc
000001d0: cb1e 6d3d 88c7 72bd 5bf1 65bd e80e 2abd
000001e0: f166 1dbd 5236 c8bd 3642 20bd ec9c b2bc
000001f0: 77a8 923c ca2a 353d 7982 cebd b18e c8bd
00000200: f293 d83d 568f c8bb 7eec db3d da04 973d
00000210: 7a50 c9bb b1ea 313d 402b db3a e37e 68bd
00000220: 27c4 b1bd 0fe0 36bd 7193 87bd 5a4a a3bd
00000230: 7527 62be 3f89 2c3e 1ab8 01bf 419a 3fbe
00000240: 0357 31c0 a9f7 dfbc fea5 303f 18f8 453d
00000250: 2733 48bd c2e7 a33b b31c 09be 0b8f 19be
00000260: d944 3c3e 0341 dfbe 0157 7abf 86a7 5abe
00000270: 0b9e 34c0 2570 aabc 12c0 3b3f 0804 55bd
00000280: 3b03 26bb 2a77 8fbc 9687 f9bd 6fc9 2abd
00000290: bce3 32bc 5313 6abd 85ed 9fbe 3ca5 2abe
000002a0: 37b1 35c0 e682 c8bd 2423 2e3f 6a52 69bd
000002b0: de8e 8dbc 5af0 663c d835 c0bd 029d 5ebe
000002c0: 51aa 943d e268 783d 2fab 61be d698 3bbf
000002d0: 9324 39c0 4602 92bd 0a34 3c3f a804 4abd
000002e0: 56f8 62bd dd88 45bc 6ee1 9ebd ea1b 9cbd
000002f0: 654a f9bd f533 74bd d806 e93d d847 413e
00000300: 2bed 3ac0 a28b 963b d00a 2d3f eec5 b4bd
00000310: 487c b6bd c1f2 a93c 35f0 57bd 3443 bc3d
00000320: 0aa6 a6bc c3be 9c3e bf7f 34bf ecd8 893d
00000330: bf67 33c0 27cb d8bd 0a6b 2e3f 8599 b13c
00000340: 1d6f f2bb a1b1 db3c 7a19 d6bc 7d7c a23d
00000350: 9c1b 213e 7ee0 573d 0f3b 21be 3ef0 bf3e
00000360: 63b5 31c0 e668 0cbd aeb9 2e3f 9cc8 36bc
00000370: 6f9b e7bb 6035 f0bd 5842 bdbd fcd0 ad3d
00000380: f36a 30be 3643 cf3d 71a3 6cbe 527e a8be
00000390: b15b 36c0 b99b 80bc d04b 203f 3c63 573d
000003a0: b1d0 cbbc 0321 79bd 1ec5 9bbd 16d2 85bd
000003b0: b6ab 793e 8bb3 b53b 8b33 b3be 48b2 6c3e
000003c0: 5573 31c0 53b7 febd 7423 1a3f 2b52 27bd
000003d0: 66d8 adbc b5c9 08bd be22 fe3c e6b5 5dbc
000003e0: 13e6 de3c 5bc3 1bbe ca8c a5bd ddce 713e
000003f0: 4956 3bc0 43e9 9d3c 1204 2a3f e96b a4bd
0.019693542 0.04722648 0.03075331 -0.044953182 -0.10631148 -0.07089518 -0.02804512 -0.05971448
-0.040063187 0.002900059 0.0033930275 0.029039862 0.0077795326 0.014693254 -0.0140599245 -0.09692909
0.010082163 -0.0039945543 0.036132988 0.049904905 -0.06471476 -0.0027734444 -0.09663951 -0.07918733
-0.106922306 -0.08466125 -0.055132248 -0.1065132 -0.07949047 -0.032439057 -0.056488268 0.012557112
-0.026345344 -0.0044625723 0.054650683 0.005128981 -0.020161005 0.032259244 0.053333994 -0.09301942
-0.020897726 -0.063878536 0.013919775 -0.070713826 -0.10583719 -0.025899328 0.017172964 0.01674201
0.05492719 -0.080290526 -0.10152263 -0.08652393 -0.055952694 0.023369394 -0.01804145 0.04492297
0.016048646 -0.044647653 -0.037258882 -0.013444719 0.034553405 0.04578182 -0.011224107 0.021012595
-0.0043824455 0.014610266 -0.06341689 -0.10783303 0.011777477 0.023700632 -0.09709449 0.02372805
-0.10675589 -0.028898127 0.008122859 0.055566512 0.05145312 -0.10228525 -0.099108085 -0.0033044694
-0.017912839 -0.02841916 -0.0794143 0.010967518 -0.09081843 -0.069078736 -0.027945315 -0.0587469
0.023883771 0.012899104 -0.056057196 -0.032743152 -0.053865198 -0.0050806804 0.027976422 -0.10486987
-0.10583625 -0.060973167 0.022089843 -0.10137089 -0.049335927 0.045892257 -0.08172592 -0.036055632
0.033284955 -0.06357887 -0.014756192 0.0148486905 0.020768857 -0.008706004 0.05411811 -0.10131811
0.0006578391 -0.0020310725 -0.102059476 -0.023948088 0.057890695 -0.05927232 -0.056138378 -0.041518122
-0.03842825 -0.09775986 -0.039125644 -0.021803342 0.017902596 0.04423026 -0.100834794 -0.09792841
0.10575093 -0.0061206026 0.10738467 0.07373972 -0.0061436268 0.04343671 0.0016721264 -0.056761634
-0.08679991 -0.044647273 -0.06619919 -0.07973166 -0.22085364 0.1684923 -0.5067154 -0.18711187
-2.7709358 -0.027339773 0.69003284 0.048332304 -0.048876908 0.005001993 -0.13389854 -0.14995973
0.18385638 -0.43604288 -0.9778901 -0.21352968 -2.8221462 -0.020805428 0.7333995 -0.052005798
-0.0025331515 -0.017512877 -0.12184064 -0.04169601 -0.010918554 -0.057147335 -0.312359 -0.16664594
-2.8389413 -0.09790592 0.6802237 -0.05696336 -0.017280038 0.01409539 -0.0938527 -0.21739581
0.07259048 0.0606469 -0.22037958 -0.73280084 -2.8928573 -0.0712934 0.73516905 -0.049320847
-0.055412613 -0.0120565565 -0.07757841 -0.07622512 -0.12172393 -0.059619863 0.113782585 0.18875062
-2.9207256 0.0045942822 0.67594624 -0.088268146 -0.089104235 0.020745637 -0.052719314 0.091925055
-0.020342845 0.3061429 -0.70507425 0.06730828 -2.8032072 -0.10585623 0.6813208 0.02167965
-0.0073984996 0.026818099 -0.026135195 0.079339005 0.15733188 0.052704327 -0.15745185 0.37487978
-2.776696 -0.034279726 0.68252075 -0.011156227 -0.0070680897 -0.117289305 -0.0924117 0.08487126
-0.17228298 0.10120241 -0.23109223 -0.32908875 -2.8493464 -0.015699254 0.6261568 0.05258487
-0.024879785 -0.060822498 -0.076059565 -0.06534211 0.24381909 0.005545085 -0.35000262 0.23114884
-2.7726643 -0.1243731 0.6021035 -0.040849846 -0.02122135 -0.033395488 0.031022426 -0.0135321375
0.027209317 -0.15211241 -0.08083494 0.23614068 -2.9271414 0.019276267 0.6641246 -0.08028395

fc1.bias f4 [64]
00000000: ef85 e43c 1bed ec3c cf22 acbd 8ba0 863d
00000010: c41f 3bbe 8167 d03c 9d52 50bd fed6 92bd
00000020: 0561 67bd d5ed 69bd 2930 b1bd c1ae 89bd
00000030: a7d7 aa3d 7467 b9bd e2fb 7bbb 3211 223d
00000040: 70b1 32bd 22f0 fc3b 0201 b4bc ccd2 96bd
00000050: 374b 903d 7211 14bc acf7 a1bd 50c9 583e
00000060: 0afe 5c3d 28c6 30bd 8ccb 7b3d b184 7ebc
00000070: 116c 90bd a08c 70bd a86b aebd 0d9c 69bc
00000080: 30e7 07bc afec 413d 46af 843d db60 27bd
00000090: 17b5 8b3d ddec 393d 606a 173d d0c0 79bc
000000a0: 3e50 3dbd f82e 5d3d 38f7 1a3c f67d 443d
000000b0: d22e 84bd 7dd7 2bbd 8324 28bb f473 cabc
000000c0: 30e6 ec3c dbfd b8bd c78a 7dbd 7f06 1c3c
000000d0: a30f 4e3d 6c39 9e3c c525 4dbc 8282 2d3e
000000e0: ac1d d53c b026 273d 6b10 c43c 1f78 b63d
000000f0: 827b 413d 598e e8bc b1fa 233d b356 a5bd
0.027895896 0.028921654 -0.08405077 0.0657359 -0.18273836 0.02543998 -0.050860036 -0.07169913
-0.05648901 -0.05711158 -0.08651764 -0.06722785 0.08341914 -0.09052935 -0.0038449694 0.03956718
-0.04362625 0.0077190557 -0.021973137 -0.07364425 0.07045596 -0.009037362 -0.07908568 0.21170545
0.053953208 -0.043157727 0.061473414 -0.015534566 -0.07051862 -0.05872786 -0.085166276 -0.014258397
-0.0082948655 0.04734486 0.06478743 -0.040863853 0.068216495 0.045391906 0.03696668 -0.015243724
-0.046219103 0.05399987 0.009458356 0.04797169 -0.06454243 -0.041953553 -0.0025656528 -0.024713494
0.028918356 -0.09032794 -0.061899927 0.009523033 0.05030788 0.01931449 -0.012521212 0.16944316
0.026015125 0.04080838 0.02393361 0.0890963 0.047236927 -0.02838819 0.040034 -0.08073177

fc2.weight f4 [64, 64]
00000000: 1685 ec3d 9dc4 a4bd 889f 30bd 26f3 45be
00000010: 1276 bebd ab4a 69bd 1861 dcbd 029d b83d
00000020: 18b8 27bc 714a 0a3c 4874 febc ab08 ec3c
00000030: a825 8a3c ad13 13be e0e8 603d 96ff ffb7
00000040: a7a4 c3bc 44bf 3fbd 91fa c0bd 00fc cabb
00000050: 0aa8 62bd 7e38 a63d 48b1 ffbd 46b7 953b
00000060: aeea 983d df29 483d b8ce 89bd 10f7 a9bd
00000070: f74a 783a 6109 3cbe aa32 dfbd 9421 e3bc
00000080: d0bf 463c 8406 a6bd 044d d6bd 7316 3d3d
00000090: e8f8 ee3c f238 7cbd c061 40bc 0051 7c3a
000000a0: 902c e83c 214b 90bd e725 df3d d0fd 43bd
000000b0: f81c e83c 8c0c 953d d41e d9bc a064 2abd
000000c0: c079 a63c a022 c5bb 445e 86bd 6882 a0bd
000000d0: 36ce e0bd 5d9a bcbd 7265 f83d 890a 82bd
000000e0: 8078 8ebb e1eb 81bd c05f 5ebc 4676 d3bd
000000f0: 98b4 ac3c 4cc8 313d d46e 983d cacf 9dbd
00000100: 4c0c 5f3d e314 00be a029 913c acac 4f3d
00000110: 74ff 80bd ec65 913d d4be 643d 6630 9a3d
00000120: 5aa7 8cbd 7432 b5bd bdeb 8c3d 002f d8bd
00000130: 9abe f7bd 1887 8ebd 6b10 4d3d cac6 78bd
00000140: 7cfc febd 475f 483c f587 96bd bbed 6f3d
00000150: c305 9b3d 2d6f 73bd 1c20 2c3d 4165 2abe
00000160: 906e 823d 6ce2 483c 9ef7 4ebd 64f5 6b3d
00000170: babc e73d 38c1 0cbe 2f05 f6bd 94ef 99bc
00000180: 54f9 22bd c1ed 76bb 3c3c e43d 9a68 babd
00000190: f93d 2ebd 5c07 8bbd 4047 32bd b28f e2bd
000001a0: 3831 05bd 9eb5 213d 8a69 143d eaa9 803d
000001b0: c0ba d0bb 22a9 b5bd e56d d53d 49d2 813d
000001c0: 542e 68bd a6b5 d7bd 30c9 48bd 6d6a 2cbd
000001d0: a407 aebd 3a05 82bd 1ba2 7dbb b4ab bd3b
000001e0: 16df c0bd 719e e23d b85e f23d 7529 e9bd
000001f0: f086 c73c 71e1 503d 3e9c d63d f69c dbbd
00000200: a665 0cbe 0bcf be3c 0a0f febd 7b4b c8bd
00000210: ffa7 8abf 1436 0d3e e406 6fbd 4089 de3c
00000220: 56e3 ed3c c377 b0bc c885 cbbd e74b 973c
00000230: bc4a 58bd 0b97 6c3d 2887 9dbe 2144 a1bc
00000240: 94ca a5bd 9700 bd3c ac6e fdbc 3dc9 2fbb
00000250: 9e1b b93d 72c4 cdbd 1026 f93d 5e64 adbe
00000260: 9058 6c3d b10a 69bd 70a5 aa3d 224b a13c
00000270: d34e 093d b686 193e 3abe d6bd cfb0 a43c
00000280: 8ed2 e0bd 86f6 893f 2a53 523c 5da6 373c
00000290: df94 bbbd a950 1abd ce7b d63d 0cb5 b53d
000002a0: d2ae e03d 0d8b 0d3c c19a d4be d47f 1b3d
000002b0: a0b3 0fbd 8027 6f3c 5b3c 95bd 93ea 80bf
000002c0: a4e9 fcbd 0f14 55bd 05a7 b63d 85c2 ac3b
000002d0: ce31 d53c 2816 45bc 5d2f 753c 11aa 053f
000002e0: ffbf bbbd d049 85bd 4c92 243d ad88 da3b
000002f0: bef8 ff3d 7225 973c 9809 d23d e222 e3bd
00000300: c831 cd3c e04b 8d3e 7064 41bd bc87 803e
00000310: 9952 9abe 8ecb b1be 11af 67bd 266b 903d
00000320: 956f efbf ac80 0dbd 7b1a 41be befc 133c
00000330: 008f 28bd b71a bdbd bd40 5e3d a497 023d
00000340: c8b2 36bf 0225 f1be 4eab 6b3d 24a5 a5bc
00000350: 254c b2bd c46d ce3d d0e0 243c bc48 5cbe
00000360: 95d1 e23d cd84 9dbd 219b 393d ac58 b5bd
00000370: 55f1 00be 95c8 a4be d64a 593d 973f d4bd
00000380: 8439 0c3d 3084 c13e 70de 183d bd7b a63d
00000390: 920a 9cbd f8f4 803d a076 d63d 185f 223d
000003a0: ac08 ffbd fb48 183b b2b7 d3be eed8 d5bd
000003b0: 0226 aebd 90c6 ac3d bdde 94bd 4a40 243f
000003c0: 9496 3d3d 4125 1dbd 11b8 1fbd 9972 d43d
000003d0: 9368 39bf e1c6 ba3e eae5 9abd da59 c63e
000003e0: 9bf2 aabd 5818 53bd 1c9d 6d3d 1a49 593d
000003f0: dc46 ca3d 6149 5cbd 9667 583c 80e7 46bd
0.11548822 -0.080453135 -0.04312089 -0.19331035 -0.09299864 -0.056955975 -0.10760707 0.09014322
-0.010236762 0.0084406 -0.031061307 0.028812727 0.016863659 -0.14362974 0.054909587 -3.0517385e-05
-0.023882223 -0.046813264 -0.09422792 -0.0061945915 -0.055336036 0.08116244 -0.124849856 0.004568967
0.074666366 0.048868056 -0.067288816 -0.082990766 0.000947162 -0.18362953 -0.10898335 -0.027725972
0.012130693 -0.081067115 -0.10463908 0.046163987 0.029171422 -0.061577745 -0.011742055 0.0009625107
0.028341562 -0.0704558 0.10895901 -0.047849476 0.028334126 0.07277784 -0.026503958 -0.04159987
0.020321727 -0.0060160905 -0.065609485 -0.07837373 -0.109768316 -0.0920913 0.12128724 -0.06349666
-0.004347861 -0.063438185 -0.013572633 -0.10325293 0.021082208 0.04340391 0.07443014 -0.07705648
0.054455087 -0.12507968 0.017720044 0.050701782 -0.06298724 0.07099518 0.05584605 0.075287625
-0.06867857 -0.08847514 0.06880901 -0.105558395 -0.12096901 -0.06959361 0.050064486 -0.060736455
-0.12450501 0.012229747 -0.073501505 0.058576327 0.07569458 -0.059432197 0.04202281 -0.16640188
0.063687444 0.012261014 -0.050529115 0.05760707 0.113152936 -0.13745582 -0.120127074 -0.018790998
-0.03978856 -0.0037678333 0.11144301 -0.091019824 -0.04253957 -0.06788513 -0.04352498 -0.11062564
-0.03251764 0.039479844 0.036233462 0.062824085 -0.0063699186 -0.0887015 0.10421351 0.06338937
-0.056684807 -0.105326936 -0.049019992 -0.042093683 -0.08497551 -0.06348653 -0.0038701359 0.005788291
-0.0941755 0.110653765 0.118344724 -0.113848604 0.024356335 0.050996248 0.104790196 -0.10723297
-0.13710651 0.023292085 -0.12405212 -0.09780022 -1.0832518 0.1379016 -0.05835618 0.027165055
0.029039066 -0.021541482 -0.09937626 0.01846881 -0.052805647 0.057761233 -0.3076718 -0.019685807
-0.08095279 0.02307157 -0.030936562 -0.0026822828 0.09038471 -0.100472346 0.12165463 -0.33865637
0.057701647 -0.05689496 0.08332336 0.019689146 0.03352244 0.14992794 -0.104855016 0.02010384
-0.1097766 1.0778358 0.012837211 0.011209098 -0.09159254 -0.03767458 0.104728326 0.088724226
0.10970844 0.008639109 -0.41524318 0.037963703 -0.035083413 0.01459682 -0.072869025 -1.0071586
-0.12349251 -0.052021082 0.08918575 0.005272212 0.026024725 -0.012029208 0.014964906 0.52212626
-0.0916748 -0.06508219 0.040178582 0.006669125 0.12498616 0.018450473 0.10255736 -0.11090638
0.025048152 0.2759695 -0.047214925 0.25103557 -0.30141142 -0.34725612 -0.05656344 0.07051687
-1.8705927 -0.03454654 -0.18857758 0.009032426 -0.041152 -0.09233611 0.054260958 0.031882897
-0.7136655 -0.47098547 0.057536416 -0.020220347 -0.0870593 0.1007953 0.010063365 -0.21512121
0.11075131 -0.07691345 0.045313958 -0.088548034 -0.12592061 -0.32184282 0.053049885 -0.10363691
0.03423454 0.37796164 0.037321508 0.0812907 -0.076192036 0.06296724 0.10471845 0.03964147
-0.12452826 0.002323686 -0.41351086 -0.10441767 -0.08503343 0.0843631 -0.072690465 0.641606
0.04628618 -0.038365606 -0.0389939 0.1037342 -0.7242519 0.36479858 -0.07563384 0.38740426
-0.083470546 -0.051536888 0.05801116 0.05304823 0.098767966 -0.053780917 0.013208291 -0.04856062

fc2.bias f4 [64]
00000000: 380a efbd c903 a33d 97f3 32bf 2019 debe
00000010: fa42 0ebe 47bf 5fbe 5e74 e0bd fe0c 3fbe
00000020: 1c70 d6bd 212c e7bd 56fb 00be 1965 5ebe
00000030: 883c 52bd dafe 253e d179 22be 8a8c 61bb
00000040: 3e76 de3d f8fc df3e ca9a b9be 2164 d13e
00000050: ccfd 8b3e c0e3 be3e ced8 3b3d 6442 b63d
00000060: 0210 d23b 8219 9fbd 5779 03be b6f5 c6bd
00000070: 1c0f 30bf d0f3 033f 34f1 36be 37b9 143f
00000080: fe8a b6bd 7da0 2d3e abbc d2be 4a88 45bf
00000090: c2fa 03bd 3ac5 bfbe a95b 99be 1206 313f
000000a0: ea5b 3b3e f399 f13b b3b9 103d 90f3 d53e
000000b0: 76c7 81bd 10fb b7bc 6c88 68bd 78d5 39be
000000c0: 29d7 95bd 13df d4bd 9157 36be 345f fabd
000000d0: efdd 24be 35f8 75bc a3b0 03be 7714 07bf
000000e0: 444a 3d3d ea91 3bbe 0273 543b 8e59 7dbe
000000f0: 3ead 85bd ffdb 463c 3263 4fbd 3c1d aebc
-0.11671871 0.07959706 -0.6990294 -0.43378544 -0.13892737 -0.2185031 -0.10959695 -0.186573
-0.10470602 -0.11287714 -0.12595877 -0.21718253 -0.05132726 0.162105 -0.15866782 -0.0034416043
0.10862397 0.43747687 -0.36250907 0.40896705 0.2734207 0.37283134 0.045861058 0.08899382
0.0064105997 -0.07768537 -0.12839256 -0.097148344 -0.68773055 0.51543903 -0.17865449 0.58095115
-0.089132294 0.16955753 -0.41159567 -0.77161086 -0.032221563 -0.3745516 -0.29952744 0.6914989
0.18296781 0.0073730885 0.035333347 0.41787386 -0.06336872 -0.022458583 -0.056770727 -0.18147838
-0.07316429 -0.103941105 -0.17806841 -0.1222519 -0.16100286 -0.01501279 -0.1286035 -0.527656
0.046213403 -0.1831738 0.0032417183 -0.24741194 -0.06527184 0.012137412 -0.05063171 -0.021254174

fc3.weight f4 [64, 64]
00000000: 2e52 26bd 0e23 dfbd 4685 afbd fbfd dc3d
00000010: e5b7 2d3c 80a5 19bd b6b1 da3d 1258 9cbd
00000020: 0766 76bd 97ef 813d c246 eabd dfc6 16bf
00000030: e3bf 5dbd e913 71bf c63f 1e3d 397c e13e
00000040: 49ca 89be 9f2c 1ebf a091 bd3e 5c47 a6bb
00000050: 9b2d 843d 425d 2abd 998c a1be 8012 37bd
00000060: 9dfe 4b3c 60c8 f53c 0bb0 0f3e 9a6a 1fbc
00000070: 263d b13f 3c84 d2bb eae5 753d ae71 1fbe
00000080: 8cf9 9ebc 0f9d 67be b797 adbe d792 5cbf
00000090: 9322 39be 306c dfbe 0b37 46bc 9fac 83be
000000a0: 9cdb 0dbe 3a56 f8bd b7cd 67c0 e777 6d3e
000000b0: f7c5 69bc 70be 983d 4600 883c 15c2 ebbc
000000c0: ece4 0abf 0cef 04be 828a febc 369e 893d
000000d0: c369 f4be dce9 b5be 9707 04bf 93d7 0d3d
000000e0: bea3 a8bd 8f87 5b3e 8022 9fbd c0f9 24bf
000000f0: 548e b4bd f6a6 07bc e05f e03d c805 a6bd
00000100: a617 6dbd 7b43 babd a2da 233c 750a 01be
00000110: 4c5e 85bd 8021 9fbb 309e f63c 9c6e f43d
00000120: 20e1 903c f848 abbd 4420 f2bd 9e58 763d
00000130: b505 41bd 0c57 78bd ca93 ac3d d1ce 593d
00000140: 6a7c 66be 7bcb acbb 2528 e3bd a41c a0bc
00000150: 92c8 0e3d c324 cc3d f274 00be ca12 d23d
00000160: d441 f53d bacf f3bd c659 8cbd b7e8 1b3c
00000170: 24ae e8bd d86a a4bc f47a eb3d 42e9 f8bd
00000180: 3a53 ad3c 8083 67bd 444e 64bd 961d 2abc
00000190: 77c7 a0bd 478c 753d b535 13be 56b0 f4bd
000001a0: 5517 3fbe a245 e33d 1643 babd e7fc a4bd
000001b0: d4e8 2abd 6a5f 85bd 68d7 b53b 9258 c33d
000001c0: 15bb 94bd f6a4 d03d 4205 3cbd 2b31 4cbd
000001d0: e121 c5bd 9672 25bd 3a88 17be 1a44 893d
000001e0: 38b8 88bd c034 f7bc 2ceb 02bd 3529 04be
000001f0: 2a05 d53d 2644 513d 3863 b03c f21e d0bd
00000200: 7a53 aa3d c1dc bc3d 331f f2bd ce45 30bf
00000210: cf32 2c3e ea9a b3bd bd9f ab3c 4891 61bd
00000220: ecc3 033c 77d4 01be 5830 88bc 2b75 4cbb
00000230: eb22 323d 779d 1f3b 00e2 64bd 8c9d 933d
00000240: 39ff ae3d 93db 46be 5b4e 9fbd bbe7 103b
00000250: 5935 25bf b68a 04be ee27 a1bd fcbe f73d
00000260: c875 703d 50b9 2fbc 30b2 a0bd 9abb c13d
00000270: 97eb 03c0 68d7 21bd 4c28 89bd 10f2 19bd
00000280: ac51 e6bc 46fb 1d3c 95ce 2c3d c279 4b3d
00000290: 7a25 18bd 661e b5bc 3263 013e 14b5 e13b
000002a0: 0c76 163d efe6 953d 42d3 0ebd 13a0 6dbe
000002b0: 9b0b 8dbd 904b 72bd 4fb9 313e 6ccc de3c
000002c0: ddeb 1fbe 77ce 933d 2816 e23a 6bf7 973d
000002d0: cb80 26bf a750 16be 864b c2be ff3e 25be
000002e0: b604 48bd 06be 43be f069 723d 3789 f33d
000002f0: 2e3b 42bf d2d2 f8bd 9cc3 353d 419f 8a3c
00000300: 1d38 853d ab1a be3c 2e89 84bf b3fc c5c0
00000310: 9036 043c c44c 25bb 0007 3e3d fc1f 03bd
00000320: 6e04 c5bd 8469 743d b060 7c3c ae08 04be
00000330: a01f 87bc 56ce 4abd a86b b13d 43c4 0abe
00000340: eb46 0fc0 dc67 debd f17c fcbe 9176 623a
00000350: cf33 f8bc d4f3 15bf 2a5c 363e 408b 833c
00000360: bb38 973d d066 0cbc e0cd e43c ff01 88be
00000370: aacf 56bf d4f7 a6bc c0d1 563b 6c71 a8bc
00000380: dc4c 9cbd 11c4 a7bd 6806 dabf b68c 44be
00000390: 74f8 72be 561a a3bf 2142 9c3e 8a73 783e
000003a0: 173f 8b3c 8227 c43d 0d8e 51be e8f1 863e
000003b0: 9cde c53d 460d f33d 05f2 a33d 1f63 923d
000003c0: 1ea4 9abe e1f4 f33d e06c d43c 3e21 233e
000003d0: bdb3 5dc1 75fa e0bf 47f1 4fbe 7fce cf3e
000003e0: 13be 8fbc 589d 10bf 0f32 acbe b40b f3be
000003f0: 480b 853e e572 013e 717a c2bd 562c 163d
-0.040605716 -0.10895358 -0.08570342 0.107906304 0.010602926 -0.03751135 0.10678427 -0.076339856
-0.060155895 0.06344526 -0.11439277 -0.58897203 -0.054138076 -0.94171005 0.038635038 0.44040087
-0.26912144 -0.61786836 0.37025166 -0.0050744247 0.06454011 -0.041592844 -0.3155258 -0.044695377
0.012450841 0.030002773 0.14031999 -0.009730006 1.3846786 -0.006424455 0.060033716 -0.15570709
-0.019406103 -0.22618507 -0.33904812 -0.8616156 -0.18079595 -0.43637228 -0.012098084 -0.25717637
-0.13853306 -0.121258214 -3.6219308 0.2319027 -0.01426839 0.07458198 0.016601693 -0.028779069
-0.5425556 -0.12981814 -0.031071905 0.067196295 -0.4773694 -0.35529983 -0.5157408 0.034629416
-0.08234356 0.2143843 -0.07770252 -0.6444359 -0.088162094 -0.008279553 0.10955787 -0.081065714
-0.05788388 -0.09094902 0.010000857 -0.12601645 -0.06512126 -0.0048562884 0.030104727 0.119351596
0.017685473 -0.08363527 -0.118225604 0.060143106 -0.047124583 -0.06062989 0.08426626 0.05317575
-0.22508398 -0.00527328 -0.11091641 -0.019544907 0.034859248 0.09967949 -0.12544611 0.1025749
0.11975446 -0.11904855 -0.068530604 0.009515933 -0.1136134 -0.020070478 0.11498061 -0.121538654
0.02115785 -0.056521893 -0.055738702 -0.01038303 -0.07850545 0.059948232 -0.14375956 -0.11947696
-0.18661244 0.11097266 -0.09094827 -0.0805605 -0.04172595 -0.065123394 0.00554936 0.09538378
-0.072622456 0.10187714 -0.04590345 -0.049851578 -0.096256025 -0.04039248 -0.1479806 0.067024425
-0.06675762 -0.03017652 -0.03196256 -0.12906344 0.104013756 0.051090382 0.021531686 -0.10162152
0.08316703 0.09221793 -0.11822357 -0.68856514 0.16816257 -0.08769782 0.020950193 -0.05507019
0.008042317 -0.12678705 -0.016624615 -0.0031197767 0.04349033 0.002435533 -0.055879593 0.07207784
0.085447736 -0.19419698 -0.07778617 0.0022110778 -0.6453453 -0.12943539 -0.07868944 0.12096974
0.058706075 -0.010725334 -0.078464866 0.0945961 -2.0612543 -0.039512068 -0.06697139 -0.037584364
-0.028115116 0.009642428 0.0421892 0.049676664 -0.037145115 -0.022109222 0.12635496 0.0068880413
0.036733672 0.07319438 -0.03486944 -0.23205595 -0.06886979 -0.059154093 0.17355846 0.027197085
-0.15617318 0.072171144 0.0017249035 0.07420238 -0.6504027 -0.14679204 -0.37948245 -0.16137312
-0.048832618 -0.19115457 0.05918306 0.11891406 -0.7587155 -0.12149586 0.044376 0.016921641
0.065048434 0.023206076 -1.0354364 -6.187097 0.008069649 -0.0025222758 0.046393394 -0.032012925
-0.096199855 0.05967094 0.0154039115 -0.12893936 -0.016494572 -0.049513184 0.08663112 -0.1355143
-2.2387035 -0.10859653 -0.49314073 0.00086388836 -0.030298142 -0.5857518 0.17808595 0.01605761
0.07383867 -0.008569434 0.0279302 -0.26564023 -0.8391062 -0.020381846 0.003277883 -0.020561896
-0.07631847 -0.081916936 -1.7033205 -0.19194302 -0.2372759 -1.2742412 0.30519202 0.24262825
0.016997857 0.09577848 -0.20464344 0.26356435 0.096616 0.11867766 0.08005146 0.07147812
-0.30203336 0.11911941 0.025930822 0.1593065 -13.856381 -1.7576433 -0.20306884 0.40587232
-0.01754669 -0.5649009 -0.33631942 -0.47469866 0.2598517 0.12641485 -0.0949601 0.036663376

fc3.bias f4 [64]
00000000: 5ae1 2b3f 60db 193d 3b54 b63e 77fd 27bf
00000010: 6f8a 45bf 48df 20be 3941 10bf 3889 f13d
00000020: 871e e9be f1ec d8bd 24a7 8dbe 8993 83be
00000030: 8a08 c63c 1db1 5fbd c2db e23a d8b4 07be
00000040: 436d 02bf a6cd 123f 6266 053f 2091 adbc
00000050: 96cb 17be 9376 8bbe 77bc f7bd 4da1 763b
00000060: 9720 0ebd 3372 233f b4c2 19be 116e acbd
00000070: c1d6 fd3c ac1e 10be 406b 0ebf e84a b73c
00000080: a8f0 cf3d 5538 41be 6c7d 2c3f 062a 0d3f
00000090: 1566 c9be 2d69 c9be 69c9 b1bd e003 1abe
000000a0: 9267 07be 3d2c a5be 528c 8cbd 861f f53e
000000b0: 8d64 0a3b eddb fabd a6c0 4bbf 4f9e c63e
000000c0: 1d6c 703d e6a1 d6be e16f 223f 5110 cabd
000000d0: 3434 43bc 84e5 30be 31af fbbe ca4b 97bc
000000e0: e336 223f e01d 51bf 6486 17bf a838 18be
000000f0: b72e 613f 74b7 93be b8df 96be 72e8 04be
0.67140734 0.037562728 0.35611138 -0.6562113 -0.7716436 -0.15710175 -0.5634952 0.117937505
-0.45531103 -0.10592068 -0.2766658 -0.25698498 0.024173994 -0.054612268 0.0017307925 -0.1325258
-0.5094797 0.57345045 0.5210935 -0.021187365 -0.14823756 -0.27238902 -0.12096494 0.0037632764
-0.03469905 0.6384613 -0.1501568 -0.08419431 0.030986192 -0.140742 -0.556324 0.022374585
0.101533234 -0.18869145 0.6737888 0.5514225 -0.39335695 -0.39338055 -0.08680994 -0.1504054
-0.13223103 -0.32260314 -0.068627015 0.47875613 0.0021117062 -0.12248979 -0.79590833 0.38792655
0.058696855 -0.41920394 0.63451964 -0.09866393 -0.011914302 -0.17275053 -0.49157098 -0.018468756
0.63365 -0.8168621 -0.5918944 -0.14865363 0.87961906 -0.288509 -0.2946756 -0.12979296

q_out.weight f4 [1, 64]
00000000: beaa 373c e722 b73b 2919 103c 9c6a 74bc
00000010: 68e1 2cbc 2526 10bc 242e 79bc 58e2 b5bd
00000020: 2805 6bbc 9826 6a3b 82e3 edbc d618 90bc
00000030: 9d14 8a3b e8bd b1bc ddb1 a5bc c341 9cbc
00000040: 7cb2 81bc 5d62 fb3b 3828 a43b 0ab1 1f3d
00000050: 7277 ca3c db22 c8bc f0f1 c4bc 4520 553c
00000060: 4315 983b f8c3 8a3c fb6c 26bc 8b85 41bc
00000070: e803 0cbd e039 cb3c 737a a0bd 62f4 d93c
00000080: 26b1 bd3c 6b4c c13b d21a 893c 16bb bf3c
00000090: cae3 de3c b4b8 81bc 7916 e1bc e059 433c
000000a0: 4e0e 0b3c e261 a43c 69e9 e3bc 140d 8c3c
000000b0: be02 0bbd cc10 71bc 5791 ccbc da3b ab3c
000000c0: dcc1 19bc 148d a6bc 59db 513c 24af 673c
000000d0: 0f96 623c 30a7 033d 09f5 93bc 156f f23c
000000e0: 2d42 7a3c 3db8 9ebc 4f28 47bc 6e24 5abd
000000f0: edf5 aa3d 4b64 b83c 6bb8 72bc acc5 ed3c
0.011210142 0.0055888775 0.008795061 -0.014917996 -0.010551788 -0.008798157 -0.015208755 -0.08881062
-0.014344491 0.003572857 -0.029039148 -0.017589968 0.004213883 -0.021697 -0.020226413 -0.019074326
-0.015832178 0.007671638 0.0050096773 0.038987197 0.02471516 -0.024430683 -0.024041146 0.013008182
0.0046412065 0.016939148 -0.010157819 -0.011811624 -0.034183413 0.02480787 -0.07835855 0.026605789
0.02315576 0.0058990023 0.016736422 0.02340464 0.027208228 -0.015835144 -0.027476536 0.011923283
0.008487297 0.020066205 -0.02782126 0.01709608 -0.033938162 -0.014713477 -0.024971647 0.020902563
-0.009384599 -0.020330943 0.012808644 0.014140878 0.013829722 0.032141864 -0.018061178 0.029593984
0.015274567 -0.019374961 -0.012155606 -0.0532574 0.08347688 0.02250876 -0.0148144765 0.029024921
