model/simple_charge/agent_3/7_actor_params.pkl (torch, 38101 bytes, 7 tensors)

fc1.weight f4 [64, 6]
0.30963823 0.39757773 -0.1643222 0.18107319 -0.25223485 -0.14891608 0.22391276 0.19465347
0.28258482 0.22892605 0.28017795 0.3331356 0.08370516 0.054359198 -0.14234209 0.08545794
0.2860574 -0.15455134 0.2434169 0.416713 -0.11860586 -0.019976284 0.26051453 -0.44479817
-0.11713194 -0.19658384 -0.24342291 -0.13057692 -0.12390652 -0.18576972 0.16634038 0.020698288
0.16310014 0.27222744 0.075466774 -0.17271055 0.34051138 0.11169419 -0.2661266 0.2159013
0.09196818 0.32634413 0.10502362 0.29224142 0.4416082 -0.020496214 0.30204824 -0.24287477
-0.074858494 0.43606165 0.17839652 0.5706922 -0.17671461 -0.007244337 0.33688015 -0.1550022
0.4009328 -0.3133411 -0.1469656 -0.101495504 0.092582166 -0.11206694 -0.15048046 0.3992003
-0.028388377 -0.051541064 0.38719153 -0.344109 -0.03498727 -0.1533294 -0.19818348 -0.30175194
0.027618188 -0.28835177 0.20649604 -0.52385145 0.1548461 0.20951772 -0.15955421 0.2032313
-0.011542674 -0.5782866 -0.3183465 0.29759866 0.40172166 -0.0075475974 0.49645105 0.4264522
0.19399084 -0.2489824 -0.12269691 0.3684114 -0.108491816 0.47471517 0.2373527 -0.15856887
0.40388414 0.4177069 0.30991802 0.51950806 0.35756752 0.0992566 0.099609084 0.22424491
0.62549883 0.499164 -0.34968412 -0.28809428 -0.5385426 0.21964824 0.7087237 -0.09645289
0.22738238 -0.1946127 -0.024646355 -0.05551622 0.2380323 -0.11317118 0.22686659 0.30767646
0.18872844 -0.28179663 -0.40452668 0.28069276 0.19274697 -0.16349953 -0.08013895 0.13164735
-0.3773339 0.115100324 0.019281179 -0.07138607 -0.029099692 -0.4973588 0.4420658 0.4249892
0.33612493 0.37219235 0.04384634 0.4118226 0.2993355 -0.196947 -0.29975167 -0.25911817
0.30985093 0.21793588 -0.30561656 0.6951458 -0.19703385 0.060533475 -0.45188078 0.29523876
-1.1041127 0.6663037 0.20211805 0.38033488 0.010685384 0.06827998 0.6140519 0.0811531
-0.47227305 -0.36551327 -0.35752714 -0.08781735 -0.47612387 -0.27650976 0.14111839 0.07898823
-0.049181517 0.41371214 -0.0046182126 0.9607878 -0.24216118 -0.0916787 -0.27694118 -0.106739804
-0.53205174 -0.008522433 0.3284993 -0.15970047 0.2676293 -0.017557053 0.033897296 0.39364347
0.0037323772 -0.039250433 0.20508505 0.1161181 0.4711452 0.45044732 0.2191398 0.28528106
0.26054317 0.25686014 0.85136545 0.20352255 -0.20656532 -0.50180364 -0.077254176 0.3394957
-0.15181741 0.43378893 0.24792537 -0.30568975 -0.2840083 0.24241497 -0.38146204 -0.35669905
-0.19717357 0.074732624 -0.27719527 -0.13651033 0.21969996 -0.20966484 0.14545405 -0.29574487
0.45264125 -0.08598181 0.10661728 -0.33814 0.19355273 0.29767582 0.1768727 -0.06453738
-0.42704946 -0.20709077 0.17752637 0.052521396 -0.29583117 0.038477395 -0.34111872 0.044121686
-0.08975289 -0.34390435 0.28137898 -0.06505376 -0.013299316 -0.4050145 -0.0068847835 -0.2200274
0.18538284 -0.28352147 0.084079 -0.06309831 -0.325174 -0.29389316 -0.12068264 0.37415215
0.23550835 0.5423917 0.3515499 -0.36780933 -0.15006116 -0.2983603 -0.15798113 -0.016605943
00000000: e788 9e3e 4f8f cb3e 1444 28be 406b 393e
00000010: ed24 81be 757d 18be 6349 653e 3d53 473e
00000020: f5ae 903e 976b 6a3e 7c73 8f3e c090 aa3e
00000030: 9c6d ab3d c0a7 5e3d 20c2 11be 9304 af3d
00000040: 1e76 923e b542 1ebe 4842 793e 685b d53e
00000050: a1e7 f2bd 4ea5 a3bc 2962 853e 96bc e3be
00000060: dfe2 efbd 464d 49be db43 79be f5b5 05be
00000070: b4c2 fdbd 6b3a 3ebe 2255 2a3e 758f a93c
00000080: b903 273e 6561 8b3e 538e 9a3d 09db 30be
00000090: 8257 ae3e ecbf e43d bf41 88be 3b15 5d3e
000000a0: d059 bc3d 9416 a73e a016 d73d aba0 953e
000000b0: 781a e23e ade7 a7bc 11a6 9a3e 2ab4 78be
000000c0: 694f 99bd 7943 df3e 94ad 363e e218 123f
000000d0: adf4 34be e761 edbb 8e7b ac3e e6b8 1ebe
000000e0: 1047 cd3e 3f6e a0be 267e 16be e0dc cfbd
000000f0: b89b bd3d 5a83 e5bd 8d17 1abe fb63 cc3e
00000100: be8e e8bc b91c 53bd f83d c63e 0e2f b0be
00000110: d04e 0fbd 6202 1dbe 9cf0 4abe 3b7f 9abe
00000120: 8a3f e23c d8a2 93be b373 533e 211b 06bf
00000130: fa8f 1e3e d08b 563e 2e62 23be de1b 503e
00000140: 7c1d 3dbc 970a 14bf 50fe a2be da5e 983e
00000150: 76ae cd3e d651 f7bb d52e fe3e f157 da3e
00000160: 89a5 463e 3ef5 7ebe 8448 fbbd 6ba0 bc3e
00000170: f530 debd de0d f33e 960c 733e e15f 22be
00000180: e7c9 ce3e aedd d53e 93ad 9e3e 7bfe 043f
00000190: 1713 b73e 0b47 cb3d d9ff cb3d 75a0 653e
000001a0: b120 203f 6c92 ff3e cc09 b3be 1881 93be
000001b0: eedd 09bf 78eb 603e eb6e 353f 1889 c5bd
000001c0: edd6 683e 8d48 47be 27e7 c9bc fa64 63bd
000001d0: bdbe 733e 4bc6 e7bd b74f 683e c587 9d3e
000001e0: 0742 413e a647 90be 1f1e cfbe f6b6 8f3e
000001f0: 765f 453e 6c6c 27be e41f a4bd 90ce 063e
00000200: e931 c1be b8b9 eb3d 90f3 9d3c dc32 92bd
00000210: 7a62 eebc d0a5 febe 7356 e23e 2f98 d93e
00000220: 9118 ac3e ff8f be3e 3898 333d 69da d23e
00000230: 8142 993e 79ac 49be 0d79 99be 23ab 84be
00000240: c8a4 9e3e 952a 5f3e c679 9cbe 13f5 313f
00000250: 3ec3 49be f3f1 773d eb5c e7be 8929 973e
00000260: 9153 8dbf e192 2a3f 09f8 4e3e 41bb c23e
00000270: c011 2f3c 60d6 8b3d 8132 1d3f 9933 a63d
00000280: c6cd f1be 8e24 bbbe cc0d b7be 95d9 b3bd
00000290: 82c6 f3be b092 8dbe 5781 103e 95c4 a13d
000002a0: 8f72 49bd 14d2 d33e 6054 97bb 30f6 753f
000002b0: 1af9 77be 0bc2 bbbd 3ccb 8dbe 669a dabd
000002c0: 8b34 08bf ada1 0bbc 0f31 a83e 8588 23be
000002d0: b506 893e cfd3 8fbc e4d7 0a3d a38b c93e
000002e0: e69a 743b 10c5 20bd d101 523e 54cf ed3d
000002f0: f239 f13e 08a1 e63e 2f66 603e 5c10 923e
00000300: ea65 853e 2c83 833e 16f3 593f 3768 503e
00000310: dc85 53be 3476 00bf 7037 9ebd 61d2 ad3e
00000320: 0676 1bbe 9519 de3e 26e0 7d3e 5e83 9cbe
00000330: 8969 91be a13b 783e fe4e c3be 42a1 b6be
00000340: dee7 49be 6b0d 993d 8aec 8dbe 5dc9 0bbe
00000350: 07f9 603e 61b2 56be e8f1 143e df6b 97be
00000360: 98c0 e73e 3b17 b0bd 295a da3d b020 adbe
00000370: b032 463e f768 983e 1e1e 353e 2d2c 84bd
00000380: 3aa6 dabe 9a0f 54be 79c9 353e ad20 573d
00000390: 2f77 97be 799a 1d3d 1da7 aebe f1b8 343d
000003a0: 5dd0 b7bd 3b14 b0be e810 903e e83a 85bd
000003b0: 60e5 59bc 0f5e cfbe c099 e1bb dd4e 61be
000003c0: 00d5 3d3e ba29 91be 9c31 ac3d b039 81bd
000003d0: 357d a6be 2a79 96be 7628 f7bd df90 bf3e
000003e0: 1a29 713e 2fda 0a3f 59fe b33e 8151 bcbe
000003f0: a2a9 19be aec2 98be cec5 21be 3009 88bc

fc1.bias f4 [64]
0.23033625 -0.3246439 -0.02938668 0.10624737 0.31732267 0.20309538 0.15441054 0.23106804
0.13999067 -0.2252602 0.22827159 -0.32225817 0.29689583 0.26105386 -0.23432902 0.0150081515
-0.38603532 0.21422765 0.057776067 -0.022432245 0.32231402 -0.24915971 0.13279083 -0.3256345
-0.16616155 -0.27018398 0.28058094 0.33663565 -0.027709022 -0.1904763 0.07339451 0.055660278
0.2048356 0.11803882 0.35003257 -0.13757367 -0.21028486 0.22856355 0.38916376 -0.21991177
-0.22208811 0.07269976 -0.062384754 0.30155542 -0.14663915 0.05209178 0.032697428 0.23768058
0.22116439 0.3005116 -0.25359243 0.15845412 -0.18106043 0.03995387 0.39523718 0.021078475
0.110569365 -0.2668623 -0.17629787 0.38581508 0.17683154 0.16694957 0.013861554 -0.031031463
00000000: 44dd 6b3e ba37 a6be 56bc f0bc 3998 d93d
00000010: 1e78 a23e 3cf8 4f3e cc1d 1e3e 1a9d 6c3e
00000020: b759 0f3e 9caa 66be 07c0 693e 06ff a4be
00000030: bb02 983e daa8 853e f2f3 6fbe c0e4 753c
00000040: 6ca6 c5be 7e5e 5b3e 99a6 6c3d d4c3 b7bc
00000050: 5806 a53e b923 7fbe 52fa 073e 91b9 a6be
00000060: 4126 2abe 8e55 8abe 4ea8 8f3e 825b ac3e
00000070: 08fe e2bc 380c 43be dc4f 963d 08fc 633d
00000080: 6cc0 513e 56be f13d 7837 b33e 1de0 0cbe
00000090: ea54 57be 900c 6a3e 7940 c73e 8d30 61be
000000a0: 116b 63be 9de3 943d 2887 7fbd 7965 9a3e
000000b0: 9328 16be 315e 553d bded 053d 8a62 733e
000000c0: eb78 623e a8dc 993e ded6 81be cc41 223e
000000d0: e867 39be aba6 233d 875c ca3e c4ac ac3c
000000e0: 3172 e23d 2da2 88be 6e87 34be 8e89 c53e
000000f0: 5413 353e d4f4 2a3e 921b 633c b235 febc

fc2.weight f4 [64, 64]
-0.053333834 0.0024647277 -0.06018544 -0.02956496 0.107821286 -0.0047194874 -0.044882387 -0.013271504
0.12521961 -0.16949522 0.03670974 -0.12227163 0.08912214 -0.100581065 0.084134765 -0.052401666
0.14048299 0.02269707 -0.14400262 0.13924213 -0.07614931 -0.07295701 0.05782725 -0.4305935
-0.035981953 0.19957173 0.041760437 -0.09252926 -0.04720605 -0.18864402 0.0028991569 -0.024004051
-0.003946543 -0.07410465 0.033813454 0.10188473 0.12508388 -0.068065785 -0.092570044 0.0292048
-0.09808944 0.122570924 -0.060874537 0.081453934 -0.30289918 0.08261066 -0.051004667 -0.02896912
0.07181318 0.02977315 -0.16782802 0.1225679 0.088494554 0.13801596 0.0127401985 0.14460978
0.1463316 0.10346326 -0.098957896 -0.014634787 0.16732597 0.039787434 0.064272024 0.05199315
0.06560141 -0.09539618 0.118372366 -0.0046441467 0.11275697 0.16809145 0.115479134 -0.02440951
0.06798761 0.46322402 0.034610756 -0.09352927 0.029010344 -0.119062826 -0.12896241 0.004100584
-0.005370923 -0.062956214 0.36036974 -0.1237901 0.16871044 0.1210043 -0.073224366 0.6069998
0.14766331 -0.2272732 -0.28648823 0.07883573 0.17691833 0.114541285 0.14221686 0.048558045
-0.01677258 0.029453734 -0.113294296 0.046405837 -0.12043955 -0.09834679 -0.026430227 -0.0032136142
-0.0579516 0.12464349 0.060927346 0.18769766 0.67145747 0.09230876 0.026668381 0.014468871
0.014697055 0.08521515 0.27692962 0.025484031 -0.12040338 -0.06524434 0.1033589 0.12115902
0.041891884 -0.24134377 -0.035986304 0.17488086 -0.054603927 0.07633863 0.36472973 0.055551987
-0.075863406 0.072263554 0.023115698 0.112977445 -0.1218928 -0.08215326 -0.114205636 0.069564536
-0.11214514 -0.1176793 -0.121694505 0.120268285 0.09758999 -0.09924144 0.06961049 0.122726634
-0.07040613 0.09240778 0.065773144 -0.04295262 -0.09954062 -0.0032507777 0.04938439 -0.041411757
0.10599662 0.017226653 0.11711307 0.103811376 0.121369734 0.06645704 0.1228811 -0.10766388
-0.036097724 -0.1125009 -0.106672324 0.017012894 -0.059256386 -0.10445748 -0.05183746 0.101745516
0.119644746 0.027516445 0.09770654 -0.061627477 -0.09900979 0.06775115 0.0050468547 -0.07784076
-0.08769424 0.092210665 -0.029402092 0.02366916 -0.047374696 -0.0028868872 -0.039649982 -0.038833693
-0.08271462 -0.11735221 0.083432764 -0.02732253 -0.095789716 0.07062892 0.12187317 -0.10143904
0.10478572 -0.02046907 0.011318906 -0.11489003 0.14208114 0.33885434 0.065689996 0.026144449
-0.03693051 0.29784343 0.09209958 -0.0035184324 -0.046348803 -0.15365374 -0.07899002 0.082076296
-0.1132529 -0.00089993177 0.14648475 -0.046647985 -0.042319555 0.044499934 -0.09188737 0.61547023
0.0051148087 -0.2788634 -0.3622668 0.09329296 0.23918453 0.17482975 0.17808424 0.13205796
-0.006563592 0.066929854 -0.060548007 0.08040173 0.0019198128 0.052214228 -0.029053327 -0.038198948
0.06335695 0.1189473 -0.074142426 0.3255753 0.7416205 0.029207438 0.10957964 0.25808722
-0.03544624 -0.09239162 0.18653065 0.10262781 0.040856063 0.003406513 0.0510119 0.00021352308
0.006791071 -0.14770205 -0.03665507 0.19050403 -0.12841173 -0.047769915 0.26605684 0.25424868
00000000: 9474 5abd 4587 213b 0285 76bd 3732 f2bc
00000010: 68d1 dc3d eea5 9abb 98d6 37bd b970 59bc
00000020: 9239 003e 2890 2dbe f45c 163d 8c69 fabd
00000030: ab85 b63d 72fd cdbd d94e ac3d 21a3 56bd
00000040: c6da 0f3e 35ef b93c 6c75 13be 7d95 0e3e
00000050: 2bf4 9bbd 7c6a 95bd 44dc 6c3d c076 dcbe
00000060: d061 13bd 885c 4c3e fe0c 2b3d fb7f bdbd
00000070: 225b 41bd e62b 41be c8ff 3d3b 25a4 c4bc
00000080: 0152 81bb 2ec4 97bd fa7f 0a3d f1a8 d03d
00000090: fd15 003e 1366 8bbd 5d95 bdbd e83e ef3c
000000a0: 1ee3 c8bd 7706 fb3d 9457 79bd 52d1 a63d
000000b0: 9a15 9bbe c72f a93d 45ea 50bd a650 edbc
000000c0: ca12 933d d2e6 f33c 1cdb 2bbe e104 fb3d
000000d0: a23c b53d 0e54 0d3e 44bc 503c 9614 143e
000000e0: f3d7 153e 8ce4 d33d 70aa cabd bfc6 6fbc
000000f0: 8057 2b3e 26f8 223d 0da1 833d c5f6 543d
00000100: 085a 863d 135f c3bd 366d f23d ed2d 98bb
00000110: 20ed e63d 2a20 2c3e 5380 ec3d 74f6 c7bc
00000120: 173d 8b3d b32b ed3e 02c4 0d3d 468c bfbd
00000130: 1aa7 ed3c 36d7 f3bd b90e 04be 315e 863b
00000140: 91fe afbb 30ef 80bd 6282 b83e aa85 fdbd
00000150: 6ec2 2c3e 1ad1 f73d a8f6 95bd 5764 1b3f
00000160: 0d35 173e 4eba 68be 96ae 92be a174 a13d
00000170: 142a 353e 9f94 ea3d 4ca1 113e cde4 463d
00000180: a666 89bc f548 f13c d706 e8bd 0c14 3e3d
00000190: 03a9 f6bd 0b6a c9bd 3484 d8bc 809b 52bb
000001a0: a85e 6dbd 1645 ff3d f48e 793d d133 403e
000001b0: a3e4 2b3f 600c bd3d a677 da3c d80e 6d3c
000001c0: ebcb 703c 4885 ae3d b8c9 8d3e e3c3 d03c
000001d0: 0c96 f6bd d39e 85bd d5ad d33d 3822 f83d
000001e0: d396 2b3d d222 77be 6066 13bd f813 333e
000001f0: 5ea8 5fbd 6d57 9c3d dbbd ba3e 7b8a 633d
00000200: 465e 9bbd eafe 933d 225d bd3c b860 e73d
00000210: efa2 f9bd f83f a8bd a5e4 e9bd da77 8e3d
00000220: 5aac e5bd d801 f1bd f83a f9bd 384f f63d
00000230: 43dd c73d 193f cbbd f28f 8e3d 1a58 fb3d
00000240: 1731 90bd 4a40 bd3d 12b4 863d 16ef 2fbd
00000250: f4db cbbd 000b 55bb 4947 4a3d 609f 29bd
00000260: c214 d93d e91e 8d3c fad8 ef3d 0f9b d43d
00000270: b290 f83d a11a 883d 16a9 fb3d e17e dcbd
00000280: 35db 13bd df66 e6bd 0577 dabd a05e 8b3c
00000290: d3b6 72bd ceed d5bd 8453 54bd f45f d03d
000002a0: 4e08 f53d 2b6a e13c 5e1a c83d 186d 7cbd
000002b0: a5c5 cabd 1dc1 8a3d 1660 a53b fa6a 9fbd
000002c0: 0a99 b3bd f2d8 bc3d a8dc f0bc d4e5 c13c
000002d0: f80b 42bd ee31 3dbb 0568 22bd 1410 1fbd
000002e0: 4866 a9bd 5b56 f0bd ccde aa3d 80d3 dfbc
000002f0: 662d c4bd e5a5 903d a498 f93d 45bf cfbd
00000300: e599 d63d c0ae a7bc ef72 393c 774b ebbd
00000310: b87d 113e 517e ad3e 7a88 863d e22c d63c
00000320: 7244 17bd ef7e 983e b49e bc3d 8095 66bb
00000330: 3ed8 3dbd 6857 1dbe 85c5 a1bd 9e17 a83d
00000340: 23f1 e7bd 66e9 6bba 1900 163e f511 3fbd
00000350: 4557 2dbd 9045 363d 722f bcbd 758f 1d3f
00000360: 209a a73b 2fc7 8ebe 097b b9be 6110 bf3d
00000370: caec 743e 9206 333e b75b 363e 343a 073e
00000380: 6613 d7bb 8512 893d 3001 78bd aaa9 a43d
00000390: 3aa2 fb3a 96de 553d 3e01 eebc 8076 1cbd
000003a0: 4ac1 813d a49a f33d fcd7 97bd ceb1 a63e
000003b0: d7da 3d3f 7044 ef3c 4a6b e03d 0224 843e
000003c0: 1430 11bd d137 bdbd e401 3f3e 872e d23d
000003d0: b058 273d ce3f 5f3b dbf1 503d 2ae5 5f39
000003e0: a287 de3b 353f 17be a023 16bd 7d13 433e
000003f0: 5d7e 03be 63aa 43bd 9a38 883e e22c 823e

fc2.bias f4 [64]
-0.09498246 0.04266899 0.04319815 -0.08189033 -0.06714462 -0.02785957 0.06818935 0.11216625
0.13208275 -0.024503797 0.12748192 -0.038704503 2.6041776e-05 -0.03392537 -0.059684247 0.11276117
-0.036413163 0.077492654 0.04824754 0.02310084 -0.054068014 0.037623588 -0.07990105 -0.05646781
0.08717176 0.00981118 0.09009928 -0.10229518 -0.017702445 -0.12888263 0.091494046 0.118824966
-0.07634153 0.012667565 -0.05011151 0.026045168 -0.047253925 0.07986423 -0.03616619 -0.084113866
0.13843957 -0.113855205 0.06863741 0.06264854 0.13921696 0.009482533 -0.04714336 -0.01826305
0.1185497 0.005814249 -0.017237619 -0.090604246 -0.05978012 0.11310379 0.0739699 -0.11532151
0.08795734 -0.18293229 0.0058086324 0.11232498 0.024233153 0.12099 -0.116899155 0.083934665
00000000: 2a86 c2bd aec5 2e3d 8bf0 303d 1eb6 a7bd
00000010: 1e83 89bd c139 e4bc dca6 8b3d 6bb7 e53d
00000020: b340 073e 30bc c8bc 9f8a 023e 9d88 1ebd
00000030: 4a74 da37 54f5 0abd 7877 74bd 54ef e63d
00000040: f825 15bd 78b4 9e3d 369f 453d f93d bd3c
00000050: 6c76 5dbd 311b 1a3d 29a3 a3bd ca4a 67bd
00000060: 1c87 b23d 12bf 203c f985 b83d 2380 d1bd
00000070: b804 91bc cff9 03be 3b61 bb3d 815a f33d
00000080: f358 9cbd 9e8b 4f3c ba41 4dbd ad5c d53c
00000090: 558d 41bd db8f a33d 0023 14bd e443 acbd
000000a0: 1ac3 0d3e eb2c e9bd c591 8c3d e14d 803d
000000b0: e48e 0e3e a05c 1b3c 6519 41bd 649c 95bc
000000c0: 2fca f23d 7585 be3b e835 8dbc b88e b9bd
000000d0: 00dc 74bd f6a2 e73d 887d 973d af2d ecbd
000000e0: fa22 b43d 9a52 3bbe 5756 be3b a40a e63d
000000f0: 9b84 c63c 9bc9 f73d d368 efbd f0e5 ab3d

fc3.weight f4 [64, 64]
0.09536381 0.053724445 -0.0001809163 0.059887875 0.068351775 -0.08913901 0.08944787 -0.044860248
-0.08521373 -0.0958031 0.03144318 -0.02748471 -0.0896653 -0.076873645 0.048295144 0.093265615
0.099386714 -0.09096138 -0.13352716 0.088000216 -0.114515364 -0.110666655 -0.05118157 -0.010418385
-0.017089412 -0.08883121 0.0929296 0.007547322 0.1086984 -0.022479039 0.0426877 -0.039235808
-0.062386163 0.0888634 -0.1015503 -0.07106282 0.015112741 -0.084808424 -0.0039698333 -0.06528674
0.04093366 -0.10099706 0.02847324 -0.07565359 -0.12866232 -0.103372455 0.024575014 0.077655606
0.07240375 0.018952664 0.031655535 -0.08371693 -0.078254074 -0.098820865 0.03842979 0.047239974
-0.024659583 -0.008139073 0.096762985 0.006723067 -0.13566148 0.061531752 0.10839689 -0.06835134
0.19610868 -0.07394173 -0.007203367 -0.036948755 -0.055418953 -0.20801659 0.047508594 -0.13437453
-0.03962235 0.11010058 -0.0015929742 -0.08713816 -0.16357829 -0.07658449 -0.02614635 0.03612015
0.072590604 0.13689321 -0.056383032 -0.0668991 0.078309864 0.06604013 -0.16706261 -0.12406495
0.09035965 -0.15853003 0.086199634 0.091051556 -0.120120525 0.067298576 0.011364596 0.10811854
-0.41802418 -0.77644163 -0.1433992 0.026076581 -0.078426465 -0.014383364 0.06723127 0.099795096
-0.03371954 -0.3188252 -0.04651967 0.1767181 -0.0973756 0.03034403 -0.0834609 -0.08189044
0.14472614 0.03136835 0.0020905882 -0.23232804 -0.044206712 0.08669216 -0.042152844 -0.046974197
-0.0210422 0.28135398 -0.14767739 0.093067594 0.07936242 0.10657695 -0.013081911 0.10648206
0.111741856 0.03477201 -0.11904025 0.11968711 0.12079181 -0.05933416 0.017144665 -0.07457298
0.069281355 0.07616721 -0.11275357 -0.044433594 0.053414777 -0.09635766 -0.032601073 -0.04115869
0.053825557 -0.113985315 -0.06581847 -0.08084302 -0.022056162 0.059247315 -0.06537965 -0.10321884
-0.10342778 0.060816348 -0.0073000193 -0.08741604 -0.04603988 0.038988516 0.051997587 0.01634729
-0.02875425 0.06004487 -0.10647799 0.10225788 -0.046616852 -0.049119323 0.055483177 0.041643456
-0.07639749 -0.09205535 0.008049265 0.068485975 0.0288876 0.028982729 -0.054290622 -0.08857459
0.10115825 0.09462425 0.06930295 -0.00364317 0.085398465 0.04710801 -0.023403078 -0.06734821
-0.066586584 -0.03529337 -0.05558321 -0.070338026 -0.07176067 0.12181647 0.027194172 -0.09202364
0.03190267 0.07846179 0.09229579 -0.060504243 0.12278353 0.08625632 0.09115517 0.046724617
0.06470697 0.098972455 0.021856608 -0.13164425 0.0060483534 0.058441047 -0.028806528 -0.14291447
-0.08587363 -0.14829227 0.0621095 -0.0031026083 -0.093525425 -0.10631795 -0.008590831 -0.073541656
-0.09540618 0.03309262 -0.04384795 0.0124124875 -0.025440246 0.004139442 0.07144196 -0.05566783
-0.043185435 -0.091218725 -0.08973427 0.04701264 0.0014902938 -0.101062395 -0.048993617 -0.05418065
0.07542619 0.058421392 -0.065257795 -0.12557353 0.06821643 -0.114430785 -0.021039063 -0.035654392
0.08719674 -0.03267933 0.074654505 0.06575879 0.08866278 0.08721927 0.0073343194 0.08717938
-0.11217131 -0.041220218 0.1009822 -0.06543131 0.05992999 0.09219548 0.054404017 -0.037071582
00000000: 1a4e c33d 2a0e 5c3d 59b4 3db9 fd4c 753d
00000010: 04fc 8b3d 838e b6bd 7230 b73d 61bf 37bd
00000020: 8984 aebd 6a34 c4bd 90ca 003d 9d27 e1bc
00000030: 71a2 b7bd ee6f 9dbd 21d1 453d 0b02 bf3d
00000040: 438b cb3d f649 babd 58bb 08be 7539 b43d
00000050: 0887 eabd 33a5 e2bd c4a3 51bd e0b1 2abc
00000060: 18ff 8bbc 23ed b5bd e051 be3d 874f f73b
00000070: 449d de3d f625 b8bc 4cd9 2e3d bab5 20bd
00000080: a288 7fbd 04fe b53d 9bf9 cfbd 6289 91bd
00000090: 6e9b 773c 0ab0 adbd 6015 82bb 0eb5 85bd
000000a0: 0eaa 273d 8cd7 cebd b640 e93c 45f0 9abd
000000b0: 0ec0 03be f0b4 d3bd 8a51 c93c e709 9f3d
000000c0: 6b48 943d 9e42 9b3c 3ca9 013d c873 abbd
000000d0: ac43 a0bd 9862 cabd 8e68 1d3d b47e 413d
000000e0: e502 cabc bf59 05bc ac2b c63d 2c4d dc3b
000000f0: d8ea 0abe b808 7c3d 30ff dd3d cafb 8bbd
00000100: b7d0 483e c36e 97bd 390a ecbb 9457 17bd
00000110: fcfe 62bd 4d02 55be 5f98 423d 7a99 09be
00000120: 0c4b 22bd 6a7c e13d 58cb d0ba 7e75 b2bd
00000130: 1181 27be 54d8 9cbd df30 d6bc b9f2 133d
00000140: 62aa 943d bc2d 0c3e e5f1 66bd 6502 89bd
00000150: ec60 a03d 0c40 873d 7612 2bbe c415 febd
00000160: 7b0e b93d b255 22be 6f89 b03d 3d79 ba3d
00000170: c001 f6bd d6d3 893d 9232 3a3c 416d dd3d
00000180: 4407 d6be e1c4 46bf 3dd7 12be 8e9e d53c
00000190: 0e9e a0bd 33a8 6bbc 8cb0 893d 5f61 cc3d
000001a0: 801d 0abd 0e3d a3be 698b 3ebd 97f5 343e
000001b0: dc6c c7bd 0b94 f83c 8ced aabd 2db6 a7bd
000001c0: 1733 143e 197c 003d 4002 093b 67e7 6dbe
000001d0: 1912 35bd a98b b13d 76a8 2cbd 0468 40bd
000001e0: b160 acbc a10d 903e be38 17be 399a be3d
000001f0: c488 a23d 0445 da3d 8355 56bc 4413 da3d
00000200: ead8 e43d 186d 0e3d 60cb f3bd 841e f53d
00000210: b261 f73d 6008 73bd f872 8c3c b8b9 98bd
00000220: 62e3 8d3d 8efd 9b3d 58eb e6bd 0000 36bd
00000230: 74c9 5a3d 2a57 c5bd b488 05bd 0496 28bd
00000240: 3078 5c3d 2271 e9bd d6cb 86bd 0691 a5bd
00000250: 20af b4bc 50ad 723d c4e5 85bd 6664 d3bd
00000260: f2d1 d3bd 901a 793d 0035 efbb 2e07 b3bd
00000270: 5094 3cbd 6cb2 1f3d 6cfb 543d c0ea 853c
00000280: 088e ebbc 9cf1 753d 2211 dabd 946c d13d
00000290: 50f1 3ebd 5831 49bd 5442 633d 5492 2a3d
000002a0: 4a76 9cbd 8487 bcbd 10e1 033c 6042 8c3d
000002b0: b0a5 ec3c 306d ed3c d85f 5ebd 9866 b5bd
000002c0: 0e2c cf3d 5cca c13d b4ee 8d3d 40c2 6ebb
000002d0: 64e5 ae3d 54f4 403d d0b7 bfbc dced 89bd
000002e0: 8c5e 88bd c88f 10bd 38ab 63bd 620d 90bd
000002f0: 42f7 92bd ea7a f93d 50c6 de3c e476 bcbd
00000300: 60ac 023d 93b0 a03d 9305 bd3d 4cd3 77bd
00000310: ee75 fb3d 27a7 b03d 90af ba3d 5062 3f3d
00000320: 1685 843d 12b2 ca3d a10c b33c c0cd 06be
00000330: 4431 c63b e15f 6f3d abfb ebbc 2c58 12be
00000340: 84de afbd eed9 17be 8866 7e3d 2155 4bbb
00000350: 428a bfbd 3abd d9bd 8fc0 0cbc 029d 96bd
00000360: 5164 c3bd 218c 073d e899 33bd bf5d 4b3c
00000370: 1068 d0bc 28a4 873b 2a50 923d f303 64bd
00000380: 36e3 30bd e2d0 babd 9ac6 b7bd 5390 403d
00000390: f655 c33a cdf9 cebd 88ad 48bd 87ec 5dbd
000003a0: 0c79 9a3d 454b 6f3d e1a5 85bd 5996 00be
000003b0: 0eb5 8b3d b05a eabd 1d5a acbc 570a 12bd
000003c0: 3494 b23d c3da 05bd 76e4 983d 8bac 863d
000003d0: d594 b53d 04a0 b23d bb54 f03b 1a8b b23d
000003e0: 12ba e5bd 88d6 28bd c1cf ce3d da00 86bd
000003f0: 2679 753d fcd0 bc3d bfd6 5e3d 5fd8 17bd

fc3.bias f4 [64]
0.072084956 0.10273277 -0.0523829 -0.07363841 0.00670007 -0.06364452 0.13584825 -0.00885536
0.012926938 0.01659969 0.08621841 0.034508936 0.11327901 0.110324174 0.07820831 0.090626575
0.042217243 -0.070672266 -0.050340608 -0.062924504 -0.012548268 0.08415325 -0.0048984294 0.001891915
-0.060173757 -0.07249668 0.0016165003 0.13772686 -0.08306768 -0.056519285 0.060234852 0.08460207
-0.02128033 -0.090797916 0.002964437 -0.064910516 -0.030903824 -0.03403174 -0.03361675 0.07192075
0.07978206 0.061755043 0.13259119 -0.001962055 0.07935148 -0.107033804 0.004093316 -0.010614893
0.05633181 0.07882703 -0.0014605866 0.06796456 -0.117683955 -0.024161547 0.039383765 0.031538356
0.1306031 0.024563769 0.014945699 0.013300137 0.13456208 -0.07883066 -0.005679256 -0.023553967
00000000: 47a1 933d 8f65 d23d 748f 56bd bccf 96bd
00000010: 438c db3b 0f58 82bd ce1b 0b3e 1216 11bc
00000020: 82cb 533c 13fc 873c 4793 b03d 3e59 0d3d
00000030: d3fe e73d a4f1 e13d ae2b a03d 6d9a b93d
00000040: fdeb 2c3d 9fbc 90bd f431 4ebd 90de 80bd
00000050: 4097 4dbc 8a58 ac3d 0183 a0bb 22fa f73a
00000060: c278 76bd 2479 94bd c0e0 d33a 4508 0d3e
00000070: 631f aabd c480 67bd d2b8 763d da43 ad3d
00000080: 1654 aebc 42f4 b9bd 0047 423b ceef 84bd
00000090: 042a fdbc de64 0bbd b8b1 09bd 304b 933d
000000a0: c764 a33d dbf2 7c3d fcc5 073e d295 00bb
000000b0: 0783 a23d 8a34 dbbd 3921 863b 17ea 2dbc
000000c0: 2fbc 663d 1170 a13d 2771 bfba 0131 8b3d
000000d0: 4904 f1bd 70ee c5bc df50 213d 5d2e 013d
000000e0: d2bc 053e f539 c93c cede 743c d1e8 593c
000000f0: a4ca 093e f871 a1bd 0d19 babb 40f4 c0bc

action_out.weight f4 [1, 64]
-0.09188559 -0.14531702 0.06450933 -0.09682572 0.16907437 0.21849035 -0.20450418 0.088103704
0.10060431 -0.082407236 0.13767076 -0.06197656 0.20608245 -0.17885008 -0.02246879 0.1168467
0.055679232 0.24308327 -0.05894698 0.080443606 0.20501308 -0.21731704 0.22662781 -0.025433632
-0.08321828 -0.009308881 0.014126559 -0.3320346 0.10844495 0.37955725 0.22140925 -0.07184806
0.09813844 -0.25716382 -0.034558207 0.24791777 -0.08020875 -0.07764368 -0.06925264 0.16882955
0.24595018 -0.079096094 -0.16000223 0.105753735 -0.07855117 0.044868663 0.26151052 0.25357223
0.03877102 0.21221633 0.25237617 0.2969277 -0.0158148 0.3534455 -0.113182746 -0.047143675
0.20754685 -0.005040795 0.08865551 0.11991734 0.22080532 -0.10483772 -0.30089718 0.13409299
00000000: 832e bcbd fccd 14be 781d 843d 904c c6bd
00000010: d521 2d3e efbb 5f3e 8b69 51be b76f b43d
00000020: a209 ce3d 20c5 a8bd 90f9 0c3e 22db 7dbd
00000030: 4707 533e 7a24 37be 7810 b8bc 534d ef3d
00000040: e80f 643d d2ea 783e 6372 71bd 9ebf a43d
00000050: f3ee 513e 5c88 5ebe 1f11 683e 315a d0bc
00000060: 586e aabd 4784 18bc 1573 673c 7000 aabe
00000070: 6318 de3d 5455 c23e 1bb9 623e 1325 93bd
00000080: cefc c83d faaa 83be e88c 0dbd 28de 7d3e
00000090: 7c44 a4bd a603 9fbd 54d4 8dbd a7e1 2c3e
000000a0: 5dda 7b3e 22fd a1bd a0d7 23be 6a95 d83d
000000b0: 70df a0bd 34c8 373d b5e4 853e 38d4 813e
000000c0: 5cce 1e3d 3d4f 593e 7337 813e e806 983e
000000d0: 0a8e 81bc cff6 b43e 5bcc e7bd ba19 41bd
000000e0: 2987 543e 412d a5bb 0591 b53d 3997 f53d
000000f0: ca1a 623e 29b5 d6bd 320f 9abe ac4f 093e
