model/simple_charge/agent_8/57_actor_params.pkl (torch, 38111 bytes, 7 tensors)

fc1.weight f4 [64, 6]
00000000: 1fa7 91be 17f2 583e ee39 b9be 5c36 d93e
00000010: 7545 1cbe 1749 98be 606a f03d c044 8ebe
00000020: e444 4a3e 003a 06bc ad9a bbbe d832 8ebe
00000030: 2048 8e3c 1861 8fbe e011 e03d 9ae2 33be
00000040: d1e6 cfbe 88e0 723d 4950 663e c0a2 9c3e
00000050: 63b2 c6bd 7691 31be 9c71 cf3c b222 913d
00000060: 1edd b43e 68a9 f2bd fc9a b23e d6d5 583e
00000070: b914 7d3e 54cb d83d c4cc eebd 00e8 773c
00000080: 60d9 873c b2fc c73e 3466 8dbd 739c 44be
00000090: f7db fbbd 7215 c6bd b51a 2b3e d9f9 b5bd
000000a0: 59c5 173e d013 af3e cfa5 cfbe 7c34 333e
000000b0: f2ac 32be 403e 023e ae5e 95be 4f01 34be
000000c0: 7b04 a6be e878 aa3d 4fe9 54be 6edf 19be
000000d0: e0fe 78bd a88e b83d 7994 60be c69f 973e
000000e0: a242 923e 8a11 903e d58d 3abe 5503 cfbe
000000f0: 5e44 143e ef30 8a3e 58c3 1d3e a3ad 21bd
00000100: 2d2f c13e 0c6d 82be c09c 05bc 5e26 91be
00000110: 6063 e1bd ed61 f93e f2b8 bdbe 3582 6c3e
00000120: 52bb 3abe 3c6a 1d3e dab8 f03e b5bb bd3e
00000130: b170 9d3c 1e91 62be 8409 4abe 4c0e 24be
00000140: e8d9 55be 4433 7b3e eb59 f2bc b13c 5b3e
00000150: 3829 2abe 90d0 c4be 1824 483e 4068 cd3e
00000160: 0498 2b3e fd07 76be 40c7 b33e a752 893e
00000170: 8977 c03e a460 59be 10e3 d53d 41ef a4be
00000180: 6880 a73e f8cb a23e 213c aabe 9c88 a7bd
00000190: 673b 8abe a4ac bc3e 9c15 c53e b191 72be
000001a0: 582b 143e a088 173c c5f0 79be 5065 4cbe
000001b0: 92a9 273e fc24 88be e0d6 a13e 7141 b93e
000001c0: c43f 3bbe 77a7 303d 3917 3a3e 10a5 1abe
000001d0: 7df6 01bf 9e02 ccbe b72b 6e3e 1075 73be
000001e0: 2f53 763d 788b 8bbe 23e5 c0bc b096 cfbe
000001f0: 98a4 62be 5629 443e 4c58 d5be 5158 99be
00000200: 3ef5 973e 3c9d f93d e011 9fbd 4f91 c73e
00000210: d210 cf3d 8c01 a03d 8419 db3e 9028 be3e
00000220: a858 54be 60a1 843e 0068 7c3e fa40 09be
00000230: 48bb 25be c8be 5abe 4eb1 6ebe 3d2a 9abe
00000240: ab58 dc3e 8cc5 f7bd b951 563e 9452 9a3d
00000250: 5b6d d13d 8275 403e 91c1 bbbe 00d6 c1bc
00000260: 4def bcbe d254 b73e 04d4 62be 9905 9ebe
00000270: 6250 803e 8508 4fbe 7d85 15bf 8c38 a03e
00000280: 14a1 e33d fd35 65be 947a 88bd 6129 ba3d
00000290: 4444 9fbe b6dc a2be 0d5d ef3c 8c00 62be
000002a0: 001e ddbe 1d55 9a3b e128 cf3e d20f 883c
000002b0: 98b5 af3e b2e9 de3e 8a6d 6f3e 445c 753e
000002c0: 7ca8 d73d ec1a 0e3f f726 a1be ac85 f33d
000002d0: 9cd5 a03e e31f c43e b4ed 783e 77f3 9d3e
000002e0: 5519 89bd e432 0b3e 2354 e1be cb8a 993e
000002f0: 1026 6e3d b59f 973e 67b1 323e 6ddc 2c3e
00000300: e553 fc3e 8719 89bd 1d1a 44bd 2287 8b3e
00000310: a6a7 283e 052d abbe 30ff 09bf e57d 41be
00000320: e47a 26bd fbae deba b920 a83e e118 8f3c
00000330: 3575 8f3e efcd a9be 27c8 fbbd d3b5 acbd
00000340: a913 21be ae8c 8d3e b10d 30bd 43b6 2c3c
00000350: 4b3e eb3e 629a e93d fee3 2fbe 9715 b13d
00000360: 6b66 013e 5e57 56be b0a5 3cbd 35f6 ca3e
00000370: ede1 72be 8e9a 983e bac4 b6be a068 623e
00000380: 4565 90be a8a9 4a3e 9280 99be 0e54 c4be
00000390: 64ea de3e 9a74 78be f9ed 763d dba5 36bd
000003a0: 60a7 70be 5741 4bba 605d 72bc d0fd 52bd
000003b0: 70ea f93c 28a2 0cbd b067 603e cc22 9bbe
000003c0: 340d 6e3e e099 67be fe91 723e eca4 603d
000003d0: 1197 b9bd 118f a93e 4778 b8bc 2de0 70be
000003e0: ec01 c6be 2d06 3d3e 670b 933e 3282 cbbe
000003f0: 85bb a73d 95b0 4e3e 0369 083f 77fc b03d
-0.28447816 0.211861 -0.3617701 0.42424285 -0.15260871 -0.29743263 0.117390394 -0.27786827
0.19752842 -0.008192539 -0.36641446 -0.27773166 0.017368376 -0.28003764 0.109409094 -0.1756691
-0.40605786 0.05929616 0.22491564 0.30592918 -0.09701993 -0.17340645 0.025322728 0.07086696
0.3532495 -0.11848718 0.3488387 0.21175322 0.24714936 0.10585657 -0.1166015 0.015130997
0.016583145 0.3905998 -0.06904259 -0.19200306 -0.12297814 -0.09672059 0.16709407 -0.08885545
0.14821376 0.34194803 -0.4055619 0.1750049 -0.17448786 0.12719059 -0.29173797 -0.17578624
-0.32425293 0.08323842 -0.20792125 -0.15026638 -0.060789943 0.090115845 -0.21931638 0.29614085
0.28566462 0.2813838 -0.18218167 -0.4043223 0.14479205 0.26990458 0.15406549 -0.039472234
0.37731305 -0.2547382 -0.008155048 -0.28349584 -0.110052824 0.48707524 -0.37055165 0.23096545
-0.1823552 0.15372556 0.4701603 0.37057272 0.019218775 -0.2212567 -0.19730192 -0.16021079
-0.20883906 0.24531275 -0.029583892 0.2140987 -0.16617286 -0.3844037 0.19545019 0.401186
0.16757208 -0.24026485 0.35112953 0.2682087 0.37591198 -0.21228272 0.10443699 -0.32213786
0.32715154 0.3179624 -0.33249 -0.08180353 -0.26998445 0.36850464 0.3849305 -0.2368839
0.1446966 0.0092488825 -0.24408253 -0.19960523 0.1637328 -0.26590717 0.3160925 0.3618274
-0.18286043 0.043128457 0.18172921 -0.15102029 -0.50766736 -0.39845747 0.23258863 -0.23775125
0.060137924 -0.27254844 -0.02354676 -0.40544653 -0.221331 0.19156393 -0.41668928 -0.29950193
0.29679292 0.12188193 -0.07767081 0.3897805 0.1011063 0.07812795 0.42792904 0.37140322
-0.20736945 0.2590437 0.24649048 -0.13403693 -0.16184723 -0.2136184 -0.23309824 -0.3011035
0.43036398 -0.12098226 0.20929612 0.07535282 0.10225936 0.18794826 -0.36671117 -0.023661613
-0.36901322 0.358069 -0.2215119 -0.30863646 0.25061327 -0.20218094 -0.5840681 0.31293142
0.111147076 -0.22383876 -0.06664005 0.09089924 -0.3110677 -0.31809014 0.029219175 -0.22070521
-0.4318695 0.0047098533 0.40460876 0.016609106 0.34318233 0.4353767 0.2338163 0.23960978
0.10530183 0.5550983 -0.3147504 0.1189073 0.3141297 0.38305578 0.24309427 0.3084981
-0.06694285 0.13593632 -0.44009504 0.29988703 0.058141768 0.29614034 0.17450486 0.16880961
0.49282756 -0.06694322 -0.047876466 0.27251536 0.16470203 -0.33432785 -0.5390501 -0.18895681
-0.04064454 -0.0016989404 0.32837465 0.017467918 0.2801911 -0.33164927 -0.122940354 -0.08433118
-0.15730156 0.27646393 -0.042981807 0.010541501 0.45945963 0.11406399 -0.17176816 0.08646696
0.12636726 -0.20931765 -0.04605645 0.39640966 -0.23718996 0.29805416 -0.35696965 0.22110224
-0.28202263 0.19791281 -0.29980904 -0.3834538 0.435382 -0.2426323 0.060285542 -0.044591766
-0.23501348 -0.0007753572 -0.01479277 -0.051511586 0.030507296 -0.03433433 0.21914554 -0.30299985
0.23247224 -0.22617292 0.23688504 0.05484478 -0.09062017 0.33116964 -0.02251829 -0.23523016
-0.3867334 0.18459387 0.28719637 -0.3974777 0.081900634 0.20184548 0.53285235 0.08641904

fc1.bias f4 [64]
00000000: 6a44 d43e 1143 b9be 8697 12be a0e6 af3e
00000010: 5264 d7be 2015 9ebd 14cf a4be fd17 97be
00000020: af0b 8abe eb7c b4be 662f de3e 7b47 f93d
00000030: b122 9b3e b413 a93c 9bd5 c3be 031b 8c3d
00000040: 12c6 ca3d 30f4 bebe a742 8e3e cb6a a33e
00000050: 7926 853e 5640 b4be 280e a53e 011f 3abe
00000060: 62e8 a7be 3429 02bb babe a13e 86f5 dd3e
00000070: 39d2 33be f6a7 3dbd 92b1 b13e b162 f6bd
00000080: 8d8c ffbd 20f8 293e a0a5 3a3e 1f3d e63d
00000090: 2ac6 6dbe 0811 43bd 92f2 7e3e ea63 26be
000000a0: 2d1d 4abe 3fd3 5d3e 8bc6 7ebe e15f a4be
000000b0: 33b7 c23e 3ba0 30be 2f4f 9fbe 4443 d23e
000000c0: 08bc 43be 18c0 b8be c629 98be 05b8 a73c
000000d0: 17f9 64bd e08e 0bb9 63fc 9dbe c233 ad3e
000000e0: c7e9 0ebe 38c5 1cbe 2321 d23e f3b5 b03e
000000f0: 6344 b9be 37fe 4d3e e387 413e 8f66 d6be
0.41458446 -0.3618398 -0.14315614 0.3435564 -0.42068726 -0.07718873 -0.32189238 -0.2951049
-0.2696204 -0.35251555 0.43395537 0.12171837 0.30299905 0.020639278 -0.38248906 0.068410896
0.0990106 -0.37295675 0.27785227 0.31917414 0.26005915 -0.35205334 0.32237363 -0.1817589
-0.32794482 -0.0019860985 0.31590825 0.43351382 -0.17560662 -0.04630276 0.34705788 -0.12030543
-0.1247798 0.16598558 0.18227243 0.11242127 -0.23220125 -0.047623664 0.2489722 -0.16249052
-0.19737692 0.21662615 -0.24880426 -0.321044 0.38030395 -0.17248623 -0.311151 0.41066945
-0.19114697 -0.36084056 -0.2971937 0.02047349 -0.055901613 -0.00013309298 -0.30856618 0.3382855
-0.13956366 -0.15309608 0.41040906 0.34513816 -0.36184987 0.20116507 0.18899493 -0.4187512

fc2.weight f4 [64, 64]
00000000: 1749 aa3d 3015 7abc 2039 3e3c 4a3c d23d
00000010: ff72 fc3b a00e 74bd 992e 163e e2b5 83bd
00000020: a0af a23c 300d b2bc 151b 4f3d c977 8c3e
00000030: 02ac 90bd f69e 4a3e 40f3 bebd b653 a6bc
00000040: 9ff2 2ebd b092 f53d 0118 a03c a4a6 93bd
00000050: 2901 f63d 8491 5cbe 4efc 46bd d80d 13bd
00000060: 552b 893d 87b0 a8bd ef47 1ebe 7e69 13be
00000070: 7d05 4a3e 60e7 2ebe f57e 31bd eefd 6cbd
00000080: 375b bdbe dd00 5bbe 1aed 513e edcb 083b
00000090: fcd6 b93e a04b 9ebb 6371 cfbd e8c3 a63c
000000a0: 0d8d 6b3e 3fc3 4cbe 2977 92bc 5d58 cdbd
000000b0: 56b1 7e3d 562c 8cbd e4d6 52bd 49cc f43d
000000c0: ed95 c23d 48b1 bdbe 7290 c13d f689 a4be
000000d0: 5882 dcbc 67e8 28be b378 b7bd a614 1f3e
000000e0: 55a8 f5bc b89f 63bd 0046 bf3d 1838 16bd
000000f0: cc14 81bd a3e1 90bd 14bb a33c 9d11 ad3d
00000100: 3cd6 23bd 2071 d5bc 4cda bcbd 686e 7fbd
00000110: f273 92bd c09d dbbc f81b 84bc 1051 7e3d
00000120: 7096 223c 66b4 a53d 2034 a13c cad1 c4bd
00000130: 8ed2 c9bd 3cb2 a03d bae1 9d3d c0bd acbb
00000140: f006 2d3c d0f8 8b3d 7eac 95bd 00c2 2ebb
00000150: 5e82 dabd 4056 393c d034 edbc 7047 173c
00000160: 803a f3bb 5007 0abc 1434 143d 508f 0b3d
00000170: 5823 933d a0ce 9cbd 1463 f8bd da76 adbd
00000180: 6074 b43d 10d4 c2bc 2e8d 933d 4254 cabd
00000190: e65f adbd e46e bb3d d293 eabd f09c c4bd
000001a0: 1825 023d 562f a93d a442 a4bd 4ece bdbd
000001b0: 8adb 833d 400b f33d d6a9 bd3d a0ab 94bd
000001c0: f048 5c3d 08ca 0e3d e8eb bdbd a064 433c
000001d0: d003 5fbd e676 ebbd ecaf 643d e834 9ebd
000001e0: dc47 bfbd a8f6 893c 4643 aa3d 9865 c9bd
000001f0: eabe 90bd 8266 bf3d e69b f33d 968c f0bd
00000200: 3dca b13e 0021 043c 5a40 b33d 74fc 393d
00000210: 93a4 9abe ba5b acbd fdee 7c3e 50b7 dabd
00000220: a028 ca3d 9002 1e3d 066d b63d 144b 3e3e
00000230: 0590 4e3d 5f3f 093e 7eb7 cf3d 6399 9e3c
00000240: 45d2 723d 0c42 273d 3b04 8bbd e4da 0bbe
00000250: d013 9a3e e1b2 04bd 52da 0f3e c0f2 3d3b
00000260: 502e 51be baf9 17bd f201 0c3d 69f3 00be
00000270: 5deb 96bd 75d7 f5bd f6ec 043e 2e50 6bbd
00000280: 19e5 8fbd 68c3 2d3e 8493 ee3c 76d7 443c
00000290: bb13 60bd 880c d7bd 6a53 0b3e 0078 0cbb
000002a0: 7844 98be 15e9 2fbd 02f2 31bc 36bd f5bd
000002b0: 9295 9b3d acdd e03d 2011 82bd eb1b ce3c
000002c0: 54d0 ebbd 5f0e 5bbe 3064 833d 6c36 84bd
000002d0: 711e 573d eb2f 9dbe 58d8 68bd b380 263d
000002e0: 2fc4 81bd 40f8 f4bb a1b5 113e fbe7 cd3d
000002f0: 9efe c03d 1249 e7bd 9828 38bd c03b ec3d
00000300: d208 3abe 809d 783d c087 f0bd d22e 983c
00000310: cf9c 97bd a0cc 9a3d b8a1 63be 3264 f43d
00000320: 4c8d 3dbd 8004 acba 6232 f03d 3cec cabd
00000330: 4d6c fa3d 5bee 46be c623 dd3d 6ebd df3c
00000340: 3fbb 223d bef0 d8bd 3b9f 56bd 738c d93d
00000350: 176c dcbc cc29 a73e 1bec 13bc 1044 cb3d
00000360: 6d40 1b3e 4645 f8bd 4421 0d3d 92bb 703e
00000370: 1abd b339 2cf7 253e fc35 f8ba 5c1f 923d
00000380: 652a 543e 58d4 623e 9fed e03d 267f 3fbd
00000390: dcf4 cabe d241 923d 3372 193d b29f f3bd
000003a0: c77d d83d 42b8 823d aa09 2b3d d49a b5bd
000003b0: 7d4e 3839 8064 acbb 8409 2e3d 0dfd 813d
000003c0: afd3 923d 18ba cb3e c84e ea3c ef81 2b3e
000003d0: 748c d2bd 273c d43b 9542 bd3c b5db f1bd
000003e0: f1c5 3cbe 50b9 6b3c 3e45 32bc a8bc 81bd
000003f0: 5cb5 2cbd a2cd 703e d672 0e3d ac0c daba
0.08314722 -0.015263841 0.011610299 0.102654055 0.0077041383 -0.05958426 0.14666213 -0.06431176
0.019859135 -0.021734804 0.050562937 0.2743514 -0.07064058 0.19787201 -0.0932374 -0.020303588
-0.04271185 0.11990869 0.019542696 -0.072095186 0.1201194 -0.21539885 -0.04858046 -0.035901874
0.06697718 -0.08236795 -0.15457128 -0.14395711 0.19728656 -0.1708045 -0.043333966 -0.057859354
-0.36983654 -0.21387048 0.20500603 0.0020873502 0.36296833 -0.0048307925 -0.10129049 0.020357087
0.23003025 -0.19996355 -0.017879086 -0.100266196 0.06218084 -0.06844394 -0.051474467 0.11953027
0.09501252 -0.37049317 0.09451379 -0.32136506 -0.026917621 -0.16494904 -0.089585684 0.1553522
-0.029987494 -0.05557224 0.09339523 -0.03667459 -0.06302795 -0.07074287 0.019986667 0.08450625
-0.03999923 -0.026054919 -0.09221324 -0.06236115 -0.07151021 -0.02680862 -0.016126618 0.062089026
0.009923562 0.08091049 0.019678175 -0.096103266 -0.09854613 0.078464955 0.077090696 -0.0052716434
0.010560736 0.068345666 -0.07308291 -0.0026665926 -0.10669397 0.0113120675 -0.028955847 0.009233341
-0.007422745 -0.008424595 0.036182478 0.03407222 0.07184476 -0.07656598 -0.12128273 -0.08469935
0.08811259 -0.02378276 0.07204662 -0.09879352 -0.08465557 0.0915201 -0.11453976 -0.09600246
0.031773657 0.08260982 -0.08020523 -0.09267865 0.06438358 0.1186738 0.09260909 -0.07259297
0.053780496 0.03486064 -0.09273511 0.011925846 -0.054446995 -0.114972875 0.055831835 -0.07724935
-0.09339878 0.016841248 0.08313613 -0.098338306 -0.07067664 0.09345724 0.1189497 -0.11745565
0.34724608 0.008064508 0.087525085 0.045406774 -0.30203685 -0.08415933 0.24700542 -0.10679495
0.0987103 0.038576663 0.08907513 0.18583328 0.050430316 0.1340308 0.1014242 0.01936025
0.05928256 0.04083447 -0.06787916 -0.13657719 0.3009324 -0.032397155 0.14048126 0.0028983802
-0.20427823 -0.037103392 0.034181543 -0.12592854 -0.07369111 -0.12003986 0.12981018 -0.057449512
-0.07026119 0.16969073 0.029123075 0.0120142605 -0.054706316 -0.10500437 0.13606039 -0.002143383
-0.29739738 -0.042946894 -0.010860922 -0.1199898 0.07596888 0.109797806 -0.063509226 0.025159797
-0.11514345 -0.21392201 0.064155936 -0.06455693 0.052519266 -0.3070062 -0.056846946 0.04065008
-0.06336247 -0.007475883 0.14229442 0.100540124 0.094235644 -0.11293234 -0.04496059 0.11534834
-0.18167427 0.06069708 -0.11744642 0.018577013 -0.07402956 0.0755856 -0.2222966 0.11933173
-0.04627733 -0.00131239 0.1172836 -0.099083394 0.12227688 -0.19426863 0.10797839 0.027312007
0.039729353 -0.10592793 -0.052397948 0.10622492 -0.02690701 0.32649076 -0.00902846 0.09925091
0.15161295 -0.12122588 0.034455553 0.23509052 0.00034282432 0.1620757 -0.0018936987 0.071348876
0.20719297 0.22151315 0.109828226 -0.046752118 -0.39639938 0.071414605 0.037462424 -0.11895694
0.10570865 0.06382801 0.041757263 -0.08867422 0.00017576847 -0.005261004 0.042489544 0.06347094
0.07169282 0.39790416 0.028602019 0.16748784 -0.102806956 0.0064768973 0.023103038 -0.11809484
-0.18434884 0.014387444 -0.010880766 -0.063348114 -0.042165145 0.23515943 0.034777485 -0.0016635857

fc2.bias f4 [64]
00000000: efd1 cc3d d6bf 83bd 4d5c de3c a8d5 7cbd
00000010: c4ce ac3d e352 c03d ae6e c9bd 8f93 b03c
00000020: 78dd 213e 8fec a3bd 2b08 a93d 29a9 c5bb
00000030: 08cb 37bd 7b7f 4b3d 181f ecbd f5f1 493d
00000040: 2917 bf3d 99df 68bd 3d25 0a3e 66ad 963d
00000050: f3dd 8ebd 5199 903d 82ef 6fbd 9f26 31bd
00000060: d555 47bc 6fef e4bd 9c8a debd 5c8b cf3d
00000070: dc71 d33d 22c3 c93d 383c cf3a 881b c7bd
00000080: 086b 35bd 82e3 e4bc 2488 b3bd 9069 2d3d
00000090: 562e 1c3d 873d 133e 4a84 92bd ac7c 41bd
000000a0: 5440 5abd c3d0 0a3e f841 adbc de8f 9b3d
000000b0: ca11 ce3a 532a 213d 6802 ac3c 8781 3d3d
000000c0: 5341 573e f4a3 65bd ef1d 88bd 3c4c 743c
000000d0: 15fe ca3c fc16 5e3c 64c5 183b e568 423e
000000e0: 6297 433d 51e1 b2bd 8ccc b83d e3d8 c43d
000000f0: 47c1 80bd de3a 933b b789 e0bc 051a 70bb
0.10000979 -0.06433074 0.027143622 -0.061727196 0.08437875 0.093908094 -0.098355636 0.021554736
0.1580714 -0.08004104 0.08253511 -0.0060321284 -0.04487136 0.04968212 -0.11529368 0.049303014
0.09330589 -0.056853864 0.13490768 0.07357292 -0.06975927 0.07060493 -0.05857802 -0.043249723
-0.01216646 -0.11178481 -0.108662814 0.101340026 0.10324451 0.09851672 0.0015810793 -0.09722048
-0.044291526 -0.027940515 -0.08766201 0.042337 0.038130127 0.1437894 -0.071541384 -0.047238037
-0.053284004 0.13556199 -0.02114962 0.075958 0.0015721854 0.039347004 0.020997241 0.046266105
0.21021013 -0.05606456 -0.066463344 0.014910754 0.024779359 0.013555285 0.0023311013 0.18985327
0.04775179 -0.08734382 0.09023389 0.0961168 -0.06286865 0.0044931015 -0.027409418 -0.0036636603

fc3.weight f4 [64, 64]
00000000: aeaf 233e ac33 0b3d a80c 763e 905b 02be
00000010: 2c39 9c3e bc19 0d3e 6017 c1bc ebb2 aa3d
00000020: 84b6 3e3e 4c71 bbbd a3c7 453e a1ac 963d
00000030: 6505 8ebd f7d3 8b3d 1ec3 e6bb ef5b 8f3e
00000040: 16f5 f83d 919f 553d 422c b63d 42a9 a13e
00000050: d0e7 0e3e eedd c53d b98b 1b3e abd7 2cbb
00000060: 54d6 9e3c efa4 b5bd 501a 7c3d b17e 65bb
00000070: 30dc 183e 16a5 9d3d 2be1 f7bd b6b6 af3d
00000080: 505f 633c d8fe cebc 0478 6b3d 3017 47bc
00000090: 211e 893c 03df 003e b05d 14bc 7be7 69bd
000000a0: 6cb8 89bd 9374 453d 8ea9 acbd 2aa3 7ebd
000000b0: 6d23 b1bd 5cd8 16bd 55aa 5e3e f3ce 4cbb
000000c0: be7a d23d 4a9f babd f240 223d 5e7f 0a3e
000000d0: b1f5 833c c610 4d3e aa33 823d e245 2abe
000000e0: c991 f33c 58e1 ed3c 0042 673d 06b0 f93d
000000f0: 78ab c0bc 258d e5bd 4576 493c 5dc2 483e
00000100: f3a7 55bd 808b 973b c39a 63be 4e5b 6c3e
00000110: e3b2 9fbd 4eb8 36bd 08ab 1fbd eda3 613a
00000120: 4b01 1a3c 1f4d 51bd d8a1 d93b 3aa2 bfbd
00000130: 709f 533e c94c 24be b92e 063d 6c03 aebd
00000140: b655 be3d 7cf9 98bd 2f77 c63d 8fe1 59be
00000150: 921f e8bd 5f00 17be d580 08be 8533 6f3b
00000160: dd04 23be d2ef 1fbd 92ef d33d b777 693e
00000170: 72cc e4bd 0d61 923d fd45 b5bc b47c 50bd
00000180: a09b 8dbb 72fb 3d3e e077 b73b a808 173d
00000190: d270 3d3e 7b33 03be 6cf8 84bd 9e8d 723e
000001a0: c43a 7f3d 4102 6e3d 5444 6bbd 883c ba3c
000001b0: d4ca 3abd 75f3 2dbe 5153 52bd caed 063e
000001c0: 82b5 6abd 00e9 073b 9769 cebd b335 cabd
000001d0: 0e53 7dbd c687 f63c 5816 2abe 0994 ce3d
000001e0: ca09 843d 8cb4 f7bd b2f7 f03b d3f2 64bd
000001f0: 3aa9 be3d c97e 753e e739 923d 0cb0 f33b
00000200: 0e91 233e 3ee6 c63d e66f 953e 110d 98bd
00000210: 3187 4f3e c392 0f3e 2c1d 09bd e8ab 193e
00000220: 900e 143e a984 d33d 881f 3a3e ca30 53bc
00000230: bf93 97bd ab5a 343d 06cc 81bd 4f59 243e
00000240: 79ef c63d 96e6 1d3e 8298 423e 800b fc3e
00000250: f7b2 543c b38b 203e 10d6 e7ba 198e 5f3e
00000260: 2cb2 ca3d 35a3 933d 44f4 7f3d ac1d 05be
00000270: bb1c d43d ba66 0d3d 3308 7c3d e8cc 8cbc
00000280: f44b 303d c6ce 8ebc 2af2 fb3d 207f 18bd
00000290: 9d04 2dbd 59a5 a73d beff adbd c24d 7cbb
000002a0: 5ede d83d 6db6 bc3d 2e5f c23d 53d1 19bd
000002b0: 5330 7f3d af9a 3b3e d134 d73d ad98 9dbc
000002c0: 8a74 a43e e02b 19bc 78ce afbc f572 883d
000002d0: aa5c cb3d 1bbe 683e c932 2c3e ab6d d3bd
000002e0: 77bf f43c 9e81 a83d 1491 4b3e 098d f63d
000002f0: 5531 7fbc 7d09 35be 992f 68bd bda4 213e
00000300: 6a1f 06be d4a9 f6bd 35a1 a2bc 8771 493e
00000310: a99a 60be a238 293e 044a c5bd 2ff2 5f3d
00000320: 9cf5 673d 5100 6c3d 6e0e 9b3b 9d2e 1abc
00000330: 4403 583e 6e3f a43b 66df c43b fbaf 66be
00000340: 0802 3dbc 4997 58bd 81b7 ccbc 924d c7be
00000350: 0a33 edbd 20db 39bd c985 35be 459e c0bd
00000360: 0de7 0dbe 0ad4 0f3d 4853 efbc f04b 653d
00000370: 971e de3d f5ec ecbc 40a1 2f3d fccc bdbd
00000380: 9007 21bd 73d1 cf3d ec4e e4bd 7cc2 183d
00000390: e1b8 e33d 38eb 293d 6c8b 04bd 61fc d03d
000003a0: 6e55 f1bd f062 e53c 1412 013d f515 433e
000003b0: 7990 393e 1c87 4dbd f499 de3d b8d0 5a3e
000003c0: e04d b1bd 10a7 2e3c 0673 ac3d 4c42 a43d
000003d0: e42f 263d d39c 49bd ac90 d23d f9d7 873e
000003e0: 15ad f43d ce2f 8cbd b216 0e3e ba3f 7abd
000003f0: c7ef 1f3e 8807 623e 762c 6c3e 9aba a93c
0.15984985 0.033984825 0.24028265 -0.12730241 0.3051237 0.13779348 -0.023570716 0.08334907
0.18624312 -0.09152469 0.19314437 0.07357145 -0.06934623 0.068275385 -0.0070423028 0.27999827
0.121561214 0.052154128 0.0889516 0.31574446 0.13955617 0.0966147 0.15190019 -0.0026373665
0.019389309 -0.08869349 0.06154853 -0.003501814 0.14927745 0.07697503 -0.12103494 0.08579771
0.013877705 -0.025268003 0.057487503 -0.012151524 0.016738 0.12585072 -0.00905554 -0.057105523
-0.06724629 0.048206877 -0.084307775 -0.062167324 -0.08649335 -0.03682743 0.21744664 -0.003125128
0.102773175 -0.09112413 0.039612718 0.13525149 0.016108366 0.2002593 0.063575104 -0.1662822
0.029732602 0.029038116 0.056459427 0.12191777 -0.023519263 -0.11208562 0.012296264 0.19605394
-0.052162122 0.004624784 -0.22227006 0.23081705 -0.07797792 -0.04460936 -0.038981467 0.00086074957
0.009399722 -0.05109894 0.0066416077 -0.09357114 0.2066629 -0.16044916 0.032759402 -0.084967464
0.09293692 -0.0746946 0.09690701 -0.2127745 -0.113341466 -0.14746235 -0.13330396 0.0036499214
-0.15919824 -0.03904707 0.10348429 0.22799574 -0.11171807 0.07147417 -0.0221281 -0.050900176
-0.0043215305 0.1855295 0.005599007 0.03687349 0.18500069 -0.12812607 -0.06492695 0.23686835
0.062311903 0.05810762 -0.05743821 0.022733942 -0.04560359 -0.16987403 -0.051348988 0.13176647
-0.057302006 0.0020738244 -0.100787334 -0.098735236 -0.061846785 0.030094039 -0.16610086 0.10086829
0.064471796 -0.120949835 0.0073537463 -0.055895638 0.09309621 0.23974146 0.0713995 0.007436758
0.15973303 0.09711884 0.29186934 -0.07424367 0.20266415 0.14020829 -0.033475086 0.15006983
0.1445868 0.10328037 0.1817609 -0.01289005 -0.07401227 0.04403178 -0.063377425 0.16049694
0.097136445 0.15419993 0.1900349 0.49227524 0.012982122 0.15678291 -0.0017687697 0.2183155
0.09897265 0.07208864 0.06248881 -0.129996 0.103570424 0.034521796 0.061531257 -0.01718755
0.043041185 -0.017432582 0.123020485 -0.03723061 -0.042240728 0.081858344 -0.084960446 -0.0038498496
0.10589288 0.092144825 0.0949081 -0.037553143 0.062301945 0.18320726 0.10508121 -0.01923784
0.32120162 -0.0093488395 -0.021460757 0.06662551 0.09929784 0.2272877 0.16816248 -0.10323652
0.029876454 0.082278475 0.19879562 0.12038619 -0.0155757265 -0.176794 -0.056686018 0.15785499
-0.13097921 -0.12044111 -0.01985226 0.19672213 -0.21933998 0.1652551 -0.09633258 0.054674324
0.056630716 0.05761749 0.0047319448 -0.009410528 0.21094996 0.005012444 0.0060080765 -0.22528069
-0.011536129 -0.05287865 -0.024989845 -0.3892637 -0.115820006 -0.04537499 -0.17726816 -0.094051875
-0.1385767 0.035114326 -0.029214516 0.055980623 0.10845678 -0.028921584 0.04287839 -0.09267613
-0.039313853 0.10147371 -0.11147866 0.03729485 0.11119247 0.041484088 -0.032359526 0.102043875
-0.117838725 0.028001279 0.03151138 0.19051345 0.18121518 -0.05017768 0.10869208 0.21368682
-0.086574316 0.010659948 0.084203765 0.080204576 0.040573016 -0.049221825 0.102815 0.26531962
0.11947075 -0.068450555 0.13875845 -0.06109593 0.15618812 0.22073185 0.23063836 0.020718861

fc3.bias f4 [64]
00000000: 1b94 b7bd e0fc 66bd 8f06 b2ba 2b40 ae3c
00000010: c857 febc a52e 87bd d4d3 7c3c e0df 02bc
00000020: d810 76bd 6b6b dd3d 7fe8 9e3c dc34 b2bd
00000030: dcd4 363d 6573 c43d b7e2 943a 79b5 ae3d
00000040: 83bf 1c3d 5427 ae3d 7c0d 1abd b74e 463c
00000050: 9a54 91bd 3715 2a3e 1677 afbd 06f3 79b9
00000060: ea99 393c a429 88bd 8afc d33d b0ee 95bd
00000070: c892 023e 276b dbbd cd44 8a3d bfd2 30bd
00000080: 871c 6f3c 41bb ccbd 3a4d 51bd 18c0 543d
00000090: 7e66 8d3d 9029 e0bc 6c57 b63d 8ceb 39bd
000000a0: 3c3c bb3d 009b 60bc c854 dd3d b002 2bbd
000000b0: e1ae ef3d 3b90 8e3c aab4 5f3d b6dc e13d
000000c0: 46db 6e3d 4b16 193e 2a66 dcbc 329f 933d
000000d0: 09a5 fe3d 3f42 8f3c 3a68 34bd 6910 6b3d
000000e0: cf2d e3bc eaa5 033e 4f87 ba3d 830b aa3b
000000f0: c588 0d3d 6a08 c53d e146 2abd dfd3 0a3e
-0.08963796 -0.056393504 -0.0013582277 0.021270832 -0.031047717 -0.066006936 0.015431363 -0.007987946
-0.060074657 0.10811504 0.019397972 -0.087014884 0.044636592 0.09592322 0.001135907 0.08530707
0.038268577 0.08503595 -0.037610516 0.012103728 -0.070962146 0.16609655 -0.08567636 -0.00023837024
0.0113282 -0.06648567 0.103509024 -0.07320917 0.12751305 -0.10713797 0.06751404 -0.043169733
0.014594204 -0.09996653 -0.05109904 0.051941007 0.069043145 -0.027363569 0.08903393 -0.04539065
0.09142348 -0.01370883 0.10807186 -0.04175061 0.117032774 0.017402759 0.054615654 0.110284254
0.058314584 0.1494991 -0.026904184 0.072080985 0.12433822 0.017487643 -0.04404471 0.057388697
-0.027731804 0.1285626 0.09107839 0.0051893606 0.03455426 0.096207455 -0.0415715 0.13557385

action_out.weight f4 [1, 64]
00000000: 44f1 893e e578 10be c4b9 553e b9a4 56be
00000010: a6a9 993d 470a 84be 0924 2dbe 2879 86bc
00000020: f0ef 123c cc94 693e 3bf8 0ebe c067 093d
00000030: a208 7abe 5bb9 663e b52d 083f 0459 573e
00000040: 032d f4bd ae51 623e c550 6dbe 9c97 a53e
00000050: b8a0 a1bc e5df 9b3e c8d8 a1bc df6d 17be
00000060: 5e03 f7bd e103 42be d972 06be b109 753e
00000070: 8602 8f3e f908 bebc 1a3f afbd d0a4 16be
00000080: 0792 4d3e e22a 653c e574 a93e 7fd3 4a3e
00000090: e735 d03e c164 cf3d 8c2a 4a3e 0e10 cd3c
000000a0: 6941 9bbd df68 30be 3f28 7e3e 9373 18be
000000b0: a2d0 16be 1306 cb3d e96e 5cbc 9420 adbd
000000c0: d9c5 5ebe c52c 6a3e a21e 66be a74a ed3d
000000d0: 0afc 833e b8d9 95bd 1e42 3fbe b38b c1bd
000000e0: ab8e 6b3e f140 613e e346 3bbe 5cf2 eb3e
000000f0: 8792 913d 7cfa a33e 2fb2 ad3e e8ed 973e
0.26941884 -0.14108618 0.20871645 -0.20961274 0.07503061 -0.2578909 -0.16908278 -0.016415194
0.008968338 0.22810668 -0.1396188 0.03354621 -0.24417356 0.22531645 0.53194743 0.2103005
-0.11922648 0.22101471 -0.23175342 0.3234223 -0.019729957 0.30444255 -0.01975669 -0.14788006
-0.12061189 -0.18946792 -0.13129748 0.23929478 0.27931613 -0.023197638 -0.085569575 -0.14711308
0.20075236 0.013987275 0.33096996 0.19807242 0.40666124 0.10126639 0.19742793 0.02503207
-0.07580835 -0.17227505 0.2482004 -0.14887838 -0.14728025 0.09913268 -0.013454177 -0.084534794
-0.2175516 0.2286864 -0.22472623 0.115865044 0.25778228 -0.07316917 -0.18677565 -0.09450474
0.23003642 0.2199743 -0.1828876 0.46083343 0.07108026 0.32027042 0.33925006 0.29673696
