model/simple_charge/agent_4/46_critic_params.pkl (torch, 55785 bytes, 7 tensors)

fc1.weight f4 [64, 75]
0	0x3d3fc484	0.04681827
1	0xbc89c829	-0.016819077
2	0x3e7e0626	0.24807033
3	0xbec4bd5d	-0.38425723
4	0x3dea5f43	0.11443951
5	0x3e15933f	0.14606951
6	0xbca6de70	-0.020369738
7	0x3cfa4a3b	0.030552974
8	0x3da7043c	0.081551045
9	0xbea7727e	-0.32704538
10	0x3e9572e4	0.29189217
11	0x3e91c89d	0.28473368
12	0xbddd34c2	-0.108010784
13	0xbdbcee36	-0.09225123
14	0x3e85a96c	0.2610582
15	0xbe9c351a	-0.30509263
16	0x3d73ad2a	0.059491314
17	0x3defffc8	0.11718708
18	0x3d0b024a	0.03393773
19	0x3e23851f	0.1596875
20	0xbd2f3cf8	-0.042782754
21	0xbea7b2a9	-0.32753494
22	0x3e6cede4	0.23137623
23	0x3e68916d	0.22711726
24	0x3d87a7b4	0.06623784
25	0x3d373657	0.044729557
26	0x3eb6c5ce	0.35697788
27	0xbe9d8672	-0.30766636
28	0x3c795806	0.01521874
29	0x3bb69fb7	0.0055732387
30	0xbc1d53d4	-0.009602506
31	0xbe209eea	-0.15685621
32	0x3e3e3246	0.18573865
33	0xbe2a1ded	-0.16612978
34	0x3d658bdd	0.056041587
35	0x3e0376e3	0.1283832
36	0x3e195740	0.1497469
37	0xbd8b3fb6	-0.06799261
38	0x3e73b040	0.23797703
39	0xbebb955d	-0.36637393
40	0xbca2fb94	-0.019895352
41	0x3e24c16d	0.16089411
42	0x3e19f717	0.15035664
43	0x3d38d840	0.045128107
44	0x3d4e47cc	0.05036144
45	0xbe85e3e3	-0.26150426
46	0x3dc64124	0.09680393
47	0x3e30f60d	0.17281361
48	0x3e4a4116	0.19751391
49	0x3e676b67	0.22599564
50	0x3ed0519c	0.40687263
51	0xbe5e0d51	-0.21684767
52	0x3dc9b375	0.09848682
53	0x3e41d905	0.18930443
54	0x3dcddcef	0.10051905
55	0x3d5f12bd	0.05446123
56	0xbe12b206	-0.14325723
57	0xbe1f91f8	-0.15583026
58	0x3e41e206	0.18933877
59	0x3dc5eb6c	0.09664044
60	0x3f196ca8	0.5993142
61	0xbe11f454	-0.1425336
62	0x3ec552ca	0.38539726
63	0x3ebc40c7	0.3676817
64	0x3dd685f5	0.10474769
65	0x3dd39030	0.10330236
66	0x3da3fb9c	0.08006975
67	0xbde7abcf	-0.11312067
68	0xbe3444f0	-0.17604423
69	0x3dcce185	0.10003952
70	0xbe421bd9	-0.18955936
71	0xbe432bdc	-0.190597
72	0x3e46265d	0.19350572
73	0x3e10cefb	0.14141457
74	0xbd2b49ad	-0.04181831
75	0xbc7d4a0b	-0.015459548
76	0x3b87b536	0.004141475
77	0xbe009421	-0.12556507
78	0x3d2809bc	0.04102491
79	0xbe32a4dd	-0.17445703
80	0x3cad6150	0.021164566
81	0xbd550148	-0.052003175
82	0xbd992022	-0.07476832
83	0xbdab735e	-0.08371614
84	0xbdf4e8b7	-0.11958449
85	0x3ae6c3f4	0.0017606006
86	0xbd19b6b4	-0.037527755
87	0x3d949667	0.072552495
88	0xbd453727	-0.0481483
89	0x3cc20ef1	0.023688765
90	0xbd5994e9	-0.053120527
91	0xbe014396	-0.12623438
92	0xbdccdbae	-0.10002838
93	0x3d4043b5	0.04693957
94	0xbc91eec9	-0.017814057
95	0x3cfeb7d9	0.031093525
96	0xbcf126b0	-0.029437393
97	0xbbededb9	-0.0072610048
98	0xbcdafbba	-0.02673136
99	0xbd58d054	-0.052933052
100	0xbda05b91	-0.07829965
101	0xbc4d51dd	-0.012531725
102	0x3d00dc5f	0.031460162
103	0xbe01fc72	-0.12693956
104	0xbdc86ce1	-0.09786392
105	0x3db4c2f0	0.08826244
106	0x3d44b90e	0.048028044
107	0x3c8bb856	0.017055672
108	0xbd0b6353	-0.03403027
109	0xbe093ef4	-0.13402921
110	0xbc87ba62	-0.016568366
111	0xbdb269d3	-0.087115906
112	0xbc817c8f	-0.015806464
113	0x3db7e1c5	0.08978609
114	0x3c316cb1	0.010829137
115	0x3c30c046	0.010788029
116	0xbdf6a431	-0.12043036
117	0xbcda4b7f	-0.026647327
118	0x3da70420	0.08155084
119	0x3d84f223	0.064914964
120	0xbc069e99	-0.008216524
121	0xbda6b19b	-0.08139344
122	0xbdd3f1d7	-0.10348862
123	0x3dad09b0	0.08449113
124	0xbd0a0b90	-0.033702433
125	0xbde162cc	-0.11005172
126	0x3d817072	0.06320275
127	0xbd55b16f	-0.052171167
128	0x3d38bb9f	0.045100804
129	0xbca6f470	-0.020380229
130	0xbd961c55	-0.07329623
131	0x3cb3dd70	0.021956176
132	0x3d5c4d74	0.053784803
133	0xbddf351f	-0.10898804
134	0xbd5e78d9	-0.054314468
135	0xbdc34ef4	-0.095365435
136	0x3c9d841c	0.019228034
137	0xbe2d5ea7	-0.16930638
138	0xbe301c9a	-0.1719841
139	0x3d1c8c45	0.03821971
140	0xbd1df719	-0.03856573
141	0xba10af71	-0.0005519307
142	0x3cefedfe	0.029288288
143	0x3d721a46	0.059107088
144	0xbd87acf8	-0.06624788
145	0x3d39c9e3	0.04535855
146	0x3d1b59e5	0.037927527
147	0x3c3d4d92	0.011554139
148	0x3cb9e22d	0.022690857
149	0xbd812fc0	-0.06307936
150	0x3e739971	0.23789002
151	0xbd806c4a	-0.062706545
152	0x3cff4bd5	0.03116409
153	0xbe7e6e37	-0.24846731
154	0x3d935c39	0.071953245
155	0x3dde9f10	0.108701825
156	0xbde55261	-0.11197353
157	0xbe26cd35	-0.16289218
158	0x3c2c39a8	0.010511793
159	0xbe944c95	-0.28964677
160	0x3e5bd68d	0.21468563
161	0x3d9016a3	0.070355676
162	0x3d30b63b	0.04314254
163	0xbe27aeda	-0.16375294
164	0x3e12e540	0.14345264
165	0xbe3277df	-0.1742854
166	0x3deef66e	0.116680965
167	0x3e24131c	0.16022915
168	0x3e1ae491	0.15126254
169	0x3d790db4	0.060804084
170	0x3cd24275	0.025666455
171	0xbe737d2e	-0.23778221
172	0x3e70ca4a	0.23514667
173	0x3e5035e5	0.20333059
174	0xbc34f605	-0.011044984
175	0xbd0e453e	-0.034734003
176	0x3e5e53cf	0.21711658
177	0xbead3444	-0.33828938
178	0x3dbd0f20	0.092314005
179	0x3dc3dbbe	0.09563397
180	0xbd9ee8ce	-0.07759248
181	0xbd2a5d45	-0.041592855
182	0x3dc4048b	0.09571179
183	0xbe3e351e	-0.1857495
184	0x3dc133c0	0.09433699
185	0xbc38ca9b	-0.011278774
186	0x3ea5833a	0.3232668
187	0xbe3d685c	-0.18496841
188	0x3e91fa44	0.2851125
189	0xbe9e69f6	-0.30940217
190	0x3ba60c24	0.0050673652
191	0x3da5ddbd	0.08098934
192	0x3e25aafd	0.16178508
193	0x3e18d7b7	0.14926039
194	0x3e84626e	0.25856346
195	0xbd7e04b5	-0.062016208
196	0x3e481b5a	0.19541684
197	0x3e2b393d	0.16721053
198	0x3ec35fbd	0.3815898
199	0x3e72f0f5	0.2372473
200	0x3f016e03	0.5055849
201	0xbe7a1130	-0.24420619
202	0x3dae004b	0.0849615
203	0x3ceed06b	0.029152116
204	0x3d630057	0.055420246
205	0x3cbc1c98	0.022962853
206	0xbbdec93a	-0.0067988904
207	0xbd0ecc67	-0.034862902
208	0x3e59070e	0.21194097
209	0x3db3749d	0.087624766
210	0x3f053752	0.5203754
211	0xbd944530	-0.07239759
212	0x3eb6b9fc	0.3568877
213	0x3e8a00f0	0.2695384
214	0x3ded82d0	0.11597216
215	0x3d404905	0.046944637
216	0x3db21c87	0.086968474
217	0xbcf5428f	-0.029938964
218	0xbe4342ba	-0.19068423
219	0x3d875eb1	0.06609858
220	0xbe98370c	-0.29729497
221	0xbe102da4	-0.1407991
222	0x3d5c34a5	0.053761143
223	0x3dd6cca5	0.104882516
224	0x3dba4c33	0.09096565
225	0x3e7cb3b2	0.24677923
226	0xbe32ae00	-0.17449188
227	0xbd2767c6	-0.04087045
228	0xbe93efa4	-0.2889377
229	0x3d50039c	0.050784692
230	0x3da65293	0.081212185
231	0xbe4b7990	-0.19870591
232	0xbd9107c8	-0.07081562
233	0x3de3e22b	0.111271225
234	0xbebeb1ff	-0.37245175
235	0x3df7e363	0.121039174
236	0x3d89a07e	0.067200646
237	0x3d8b5bf2	0.068046466
238	0xbe606508	-0.2191354
239	0x3e34b499	0.17647018
240	0xbe840f25	-0.25792804
241	0x3e119ed0	0.14220738
242	0x3dee30c7	0.11630397
243	0x3e3a611e	0.1820111
244	0xbd5e96aa	-0.054342903
245	0x3e00ab84	0.12565428
246	0xbe8401a9	-0.25782517
247	0x3dedaad6	0.1160485
248	0x3e4539f4	0.19260389
249	0x3d412b9a	0.047160722
250	0x3de9073b	0.11378332
251	0x3ea91506	0.33023852
252	0xbe4e0427	-0.20118771
253	0x3e4c6a93	0.1996253
254	0x3d3e8533	0.046513747
255	0xbd3bdda4	-0.04586567

fc1.bias f4 [64]
0	0x3f94be14	1.1620507
1	0xbe239759	-0.15975703
2	0x3f3e5fc4	0.74364877
3	0x3f5808f7	0.8438868
4	0xbf331350	-0.69951344
5	0x3f64a2aa	0.89310706
6	0x4035f11d	2.8428414
7	0xbd462aa3	-0.048380505
8	0x40119fab	2.2753704
9	0xbe0202dc	-0.12696403
10	0x4022fcca	2.546679
11	0x402c1a94	2.6891222
12	0x400cf441	2.202408
13	0x3f0d4fcb	0.5519988
14	0x3fa9fac4	1.3279653
15	0x3ff796f1	1.9342939
16	0x3e8ac3f5	0.27102628
17	0xbde872eb	-0.11350044
18	0x3fa13b35	1.2596194
19	0x3f4e6ac7	0.8063168
20	0x3f15ac7b	0.5846631
21	0xbee12d88	-0.4398005
22	0x3f52643a	0.82184184
23	0x3eb03779	0.34417322
24	0x3d484486	0.048893474
25	0x3da1a41b	0.07892629
26	0x40243d73	2.5662506
27	0x3fea3ddf	1.8300132
28	0xbdaa6f60	-0.08322024
29	0x3f86cece	1.0531862
30	0x3fe6983d	1.801521
31	0x3f87c473	1.0606827
32	0x3f51eb85	0.82
33	0x3f64f811	0.8944102
34	0x3fffef1d	1.9994847
35	0x3fb97a8f	1.4490527
36	0x3f6d606f	0.9272527
37	0x3fa31b61	1.274273
38	0x4008cef6	2.137632
39	0xbc114711	-0.008867041
40	0x3f90f1f0	1.1323833
41	0xbd59c916	-0.053170286
42	0x4048ede2	3.1395192
43	0x400e6df8	2.225462
44	0xbd87cd14	-0.066309124
45	0xbd7ebc4a	-0.062191285
46	0x3f5a8286	0.8535541
47	0x3dd3d9d0	0.10344279
48	0x3d4feac2	0.050760992
49	0xbd19e963	-0.03757609
50	0x401f93f0	2.4934044
51	0x3ec00195	0.37501207
52	0xbbb6612d	-0.0055657835
53	0x4023d617	2.559942
54	0x3f22cf18	0.6359725
55	0xbe884350	-0.26613855
56	0x3f267d55	0.6503499
57	0xbed3d71c	-0.41375053
58	0x3c8f5c0e	0.01749995
59	0x3ece9787	0.4034998
60	0x3fa276a8	1.2692461
61	0xbe8290fe	-0.25501245
62	0x3fdb4c8d	1.7132736
63	0xbe8a8569	-0.2705491

fc2.weight f4 [64, 64]
0	0x3c93d365	0.018045137
1	0x3c1c9daf	0.009559079
2	0xbe04f39c	-0.12983555
3	0xbcce2a91	-0.025166782
4	0x3f3d9d7d	0.74068433
5	0x3dd5f6ea	0.10447486
6	0x3e89e715	0.26934114
7	0x3f1d6ae3	0.6149122
8	0x3b03d467	0.0020115615
9	0x3f804c46	1.0023277
10	0x3e6b374f	0.22970317
11	0x3e3ccc6c	0.18437356
12	0x3e155a4e	0.1458523
13	0xbe4d93cd	-0.20075913
14	0xbf859d71	-1.0438672
15	0x3e79513a	0.24347392
16	0x3ea6bddd	0.3256673
17	0x3eaa3626	0.33244437
18	0x3e10b5de	0.14131877
19	0x3df9f544	0.12204984
20	0xbf055a43	-0.52090853
21	0x3fc2189b	1.5163759
22	0xbdb6ea75	-0.08931438
23	0x3eb30748	0.34966493
24	0x3f50e7de	0.816038
25	0x3f5ec1b3	0.8701431
26	0x3d983ef9	0.07433886
27	0x3e5f983f	0.21835421
28	0x3e0f4495	0.13991006
29	0x3cb0978c	0.021556638
30	0x3e24cd4c	0.1609394
31	0xbdc6d642	-0.09708835
32	0x3dae7cb5	0.0851988
33	0xbdfa7ba9	-0.122306176
34	0xbf9c321d	-1.2202793
35	0xbf2afe56	-0.66794336
36	0xbd34fcc6	-0.044186376
37	0x3d837e5e	0.06420587
38	0x3cd57a50	0.0260593
39	0x3f045fa6	0.5170845
40	0xbd5e00dc	-0.05420004
41	0x3f273847	0.6532025
42	0x3de52c7f	0.111901276
43	0x3e1a7803	0.15084843
44	0xbf0e86d8	-0.55674505
45	0x3f0e7ffb	0.5566403
46	0x3d0cfb7f	0.034419533
47	0xbe88eeb0	-0.26744604
48	0x3c8b4792	0.0170019
49	0x3f029b72	0.5101844
50	0x3daff6c9	0.085919924
51	0xbedf595a	-0.43622857
52	0x3f065c52	0.5248462
53	0x3e4924a8	0.1964289
54	0xbe904973	-0.28181037
55	0x3f167806	0.5877689
56	0x3eb21669	0.34782723
57	0xbf08145e	-0.5315608
58	0xbf58fe6b	-0.8476321
59	0xbe08a697	-0.13344799
60	0xc0336642	-2.8031163
61	0x3f8e6712	1.1125205
62	0xbed07c60	-0.4071989
63	0x3f677e62	0.9042722
64	0x3ebd3333	0.36953124
65	0xbd4116cc	-0.04714088
66	0x3ea556c5	0.32292762
67	0x3e9425c2	0.28935057
68	0xbf81c7af	-1.0139064
69	0x3e394590	0.18092942
70	0x3e926d6c	0.28599107
71	0xbf36b99b	-0.7137696
72	0x3e6c8c06	0.2310029
73	0xbf56460b	-0.8370063
74	0x3eb9584c	0.36200178
75	0x3ec9ecd6	0.39438504
76	0x3e896e13	0.26841792
77	0x3edab3f9	0.42715433
78	0x3fa01764	1.2507138
79	0x3e899c09	0.26876858
80	0x3e514b61	0.20438911
81	0xbf04dbae	-0.51897705
82	0x3e001bcf	0.12510608
83	0x3e779572	0.24178103
84	0x3f95e98c	1.1711898
85	0xbfa78cc9	-1.3089839
86	0x3e11e424	0.14247185
87	0x3dd15ebf	0.102231495
88	0xbf8cf759	-1.1012985
89	0xbf93b5da	-1.1539872
90	0x3e9d6d88	0.30747628
91	0x3e8ed6ee	0.27898353
92	0x3c72f84a	0.014829705
93	0x3ea5c488	0.32376504
94	0x3e82fd7e	0.25584024
95	0x3e980242	0.29689223
96	0x3ea0745c	0.31338775
97	0x3e01b43c	0.1266641
98	0x401ab47f	2.4172666
99	0x3fdde37b	1.7335047
100	0x3ea98f9f	0.33117387
101	0x3eb661a3	0.35621366
102	0x3ea9a358	0.33132434
103	0xbede671c	-0.4343804
104	0x3ea359fd	0.31904593
105	0xbf42e3bb	-0.7612874
106	0x3eab98a5	0.33514896
107	0x3eb069c8	0.34455705
108	0x3f9c2353	1.219828
109	0xbed5e5a5	-0.41776767
110	0x3da3f4cc	0.08005676
111	0x3f0a7984	0.5409167
112	0x3eaf8d27	0.34287378
113	0xbedc5d34	-0.43039858
114	0x3e8b1544	0.27164662
115	0x3f6d5601	0.92709357
116	0xbecccfd9	-0.40002325
117	0x3ebc4879	0.36774042
118	0x3f7d482b	0.98938245
119	0xbf36b351	-0.71367365
120	0x3e2435a5	0.16036089
121	0x3ef8bc0d	0.4858097
122	0x3f757c30	0.9589262
123	0x3ed3b954	0.41352332
124	0x4017d688	2.372469
125	0xbf692a98	-0.9108062
126	0x3f8880ac	1.0664268
127	0xbf2f8a32	-0.68570244
128	0x3d8b2c96	0.067956135
129	0x3dc88bcd	0.0979229
130	0xbd8762ea	-0.06610663
131	0xbe1fc8b8	-0.15603912
132	0x3ee53d48	0.44773316
133	0x3d99c478	0.075081766
134	0x3da934a9	0.08261997
135	0x3f3d578e	0.7396172
136	0x3d2159f9	0.039392445
137	0x3f569d43	0.8383371
138	0x3dc41338	0.09573978
139	0x3e1243d4	0.14283687
140	0x3cbf0797	0.023319049
141	0xbd0763bd	-0.033054102
142	0xbfd7e493	-1.686663
143	0xbb460e29	-0.0030220842
144	0x3ea9e342	0.33181196
145	0x3e58717f	0.21137045
146	0xbcb41a94	-0.02198533
147	0xbe26e207	-0.1629716
148	0xbf31e4b4	-0.694896
149	0x400562ff	2.0841672
150	0xbda6ac38	-0.08138317
151	0x3e759ffd	0.23986812
152	0x3f6ae24b	0.91751546
153	0x3f6624e6	0.8990005
154	0x3e15baa1	0.14621975
155	0x3dbf2ff9	0.09335322
156	0xbd05313f	-0.032517668
157	0xbd6c0cfd	-0.057629574
158	0x3db2ca72	0.0873002
159	0xbda37876	-0.079819605
160	0xba9ded61	-0.0012048894
161	0xbd83b28f	-0.06430542
162	0xbfacf754	-1.3512979
163	0xbf8b32ba	-1.0874856
164	0xbd9d65f6	-0.07685463
165	0xbd9c80aa	-0.07641728
166	0x3df0931c	0.11746809
167	0x3f8b23ae	1.0870264
168	0x3db65ff5	0.08905021
169	0x3f07e002	0.53076184
170	0x3cdf012f	0.027222244
171	0x3de01d16	0.10943048
172	0xbf7faec8	-0.9987607
173	0x3f32e97d	0.69887525
174	0xbd013ebb	-0.031553965
175	0xbeff39b7	-0.4984872
176	0xbed466c6	-0.4148466
177	0x3f31870f	0.6934671
178	0x3d302df1	0.043012563
179	0xbf065930	-0.5247984
180	0x3f233457	0.6375174
181	0x3e3a864d	0.18215294
182	0xbf0ca20c	-0.54934764
183	0x3f02b79f	0.51061434
184	0x3da6528b	0.081212126
185	0xbf447bf3	-0.7675163
186	0xbf64a36f	-0.8931188
187	0xbeae8f5d	-0.34093753
188	0xc02287bb	-2.5395343
189	0x3f8a09d7	1.0784253
190	0xbf2559d3	-0.64590186
191	0x3f508fdd	0.8146952
192	0x3db0f218	0.08639926
193	0xbc9d4e30	-0.019202322
194	0xbd85cea0	-0.06533551
195	0xbdf56ea5	-0.119839944
196	0x3d73e95b	0.059548717
197	0x39cdb76c	0.00039237307
198	0xbd9f72b8	-0.07785553
199	0x3c7ea090	0.015541211
200	0x3d6e3ae4	0.05816163
201	0x3d8bb875	0.06822292
202	0x3d3a1c2a	0.045437016
203	0xbdd41071	-0.103546984
204	0xbddb707b	-0.10714813
205	0xbe0d7f55	-0.13818105
206	0x3cd0502c	0.025428854
207	0x3d31046a	0.0432171
208	0xbdae2e51	-0.08504928
209	0x3c42ef60	0.011897892
210	0x3d1b537e	0.03792142
211	0x3dbd9abd	0.092580296
212	0x3cb3bb68	0.021939948
213	0xbe156223	-0.14588217
214	0xbe0b069b	-0.13576739
215	0x3c71c779	0.014757031
216	0x3c8c8844	0.01715482
217	0xbd05e651	-0.03269035
218	0xbde808a9	-0.11329777
219	0x3d487b67	0.04894581
220	0xbdc57b90	-0.09642708
221	0x3d1178b7	0.035515513
222	0x3dbdd02e	0.09268223
223	0xbdbd5d59	-0.0924632
224	0xbdc91d15	-0.0982
225	0xbdbb674f	-0.09150564
226	0xbe0238f1	-0.12717034
227	0x3bafb152	0.0053617144
228	0x3c7237f5	0.014783849
229	0x3cf50628	0.029910162
230	0xbdb39fbf	-0.087707035
231	0x3d802eb5	0.06258909
232	0x3c0eedee	0.008723719
233	0xbcd21a75	-0.025647381
234	0x3a545eb2	0.0008101269
235	0x3d671ea4	0.056425706
236	0xbdbe1102	-0.09280588
237	0x3db3795d	0.087633826
238	0xbdab78c5	-0.08372644
239	0xbdd04dee	-0.10171114
240	0x3d12413c	0.035706744
241	0xbd33c61d	-0.043890107
242	0xbd28b54f	-0.041188534
243	0xbd979c33	-0.074028395
244	0xbdd86b0d	-0.10567293
245	0xbd77f193	-0.060533118
246	0x3da24449	0.079231806
247	0xbdf4f2ab	-0.11960348
248	0xbd0da5e9	-0.034582052
249	0xbc859e65	-0.01631088
250	0x3d9bb820	0.076034784
251	0x3d4893c5	0.04896905
252	0x3dbb0942	0.09132625
253	0xbcf5eed5	-0.03002111
254	0xbda95692	-0.08268465
255	0x3db50c8f	0.08840286

fc2.bias f4 [64]
0	0xbd856359	-0.0651309
1	0x3f7a4b65	0.9777129
2	0x3c997b82	0.01873565
3	0xbdbf07fd	-0.093276955
4	0xbe34ceed	-0.17657061
5	0xbe87c645	-0.26518455
6	0xbdc15e91	-0.09441865
7	0x3f824510	1.0177326
8	0x3e41d418	0.18928564
9	0x3cc03c45	0.023466239
10	0xbdf12072	-0.117737666
11	0xbde38ad3	-0.11110463
12	0x3f914e28	1.1351976
13	0x403c77f4	2.9448214
14	0x3f95b785	1.1696631
15	0x3fa66102	1.2998354
16	0x3fa168fc	1.2610164
17	0x3f8cf4a1	1.1012155
18	0x3f95133b	1.1646494
19	0xbe129d68	-0.14317858
20	0xbe3505f5	-0.17678054
21	0x3f972f74	1.1811357
22	0xbd096180	-0.03354025
23	0xbda34269	-0.07971651
24	0xbe0bded1	-0.13659216
25	0xbd6ba7a4	-0.05753292
26	0x3f9feca1	1.2494088
27	0x3dcb630a	0.099309996
28	0xbe1c5a8c	-0.15268916
29	0x3f6b90e6	0.9201797
30	0x3f99c8ee	1.2014444
31	0xbdaec77c	-0.085341424
32	0xbd02ff7d	-0.031981934
33	0x3fa983b8	1.3243322
34	0x3f967081	1.1753083
35	0x3f89fbb9	1.0779945
36	0xbba47eb5	-0.0050199875
37	0x3fd3f061	1.6557733
38	0xbe2ad033	-0.16680984
39	0xbcd0e0ff	-0.025497911
40	0x3dd99dca	0.10625799
41	0x3f8462ee	1.0342691
42	0x3fda45be	1.7052534
43	0x3f994dfa	1.1976922
44	0x3f8b84a0	1.0899849
45	0x3fb2b89a	1.3962586
46	0xbda5999c	-0.08085939
47	0xbd1af2bd	-0.03782915
48	0x3f97c272	1.1856215
49	0xbe8a8d9f	-0.27061173
50	0xbb277a21	-0.0025554972
51	0x3f7e7596	0.9939817
52	0x3f946fac	1.159658
53	0xbd18ac57	-0.03727373
54	0xbdcb5533	-0.0992836
55	0x3f814b88	1.0101175
56	0xbe1a9044	-0.15094095
57	0x3f5beafb	0.85905427
58	0x3f83146a	1.0240605
59	0xbde3f605	-0.11130909
60	0x3fb70978	1.4299765
61	0xbe9a443f	-0.30130193
62	0x3f1a0007	0.6015629
63	0x3fe8a2f5	1.817473

fc3.weight f4 [64, 64]
0	0xbddee866	-0.1088417
1	0x3dbd6b10	0.09248936
2	0xbcd2e398	-0.02574329
3	0xbd13a790	-0.036048472
4	0x3dd7d600	0.10538864
5	0xbdd755e4	-0.10514429
6	0xbc931430	-0.017953962
7	0x3d8dc63e	0.06922577
8	0xbc1a2590	-0.00940837
9	0x3de4a970	0.1116513
10	0xbd83754e	-0.064188585
11	0xbda69514	-0.08133903
12	0x3dcdc29e	0.10046886
13	0xbc0ee8c0	-0.008722484
14	0x3d90285e	0.070389494
15	0xbd588b8c	-0.052867457
16	0xbd07d53c	-0.03316234
17	0xbcfd0630	-0.03088674
18	0xbd60671c	-0.054785833
19	0xbdcda8f8	-0.10041994
20	0xbdea28d6	-0.1143357
21	0xbd36a100	-0.044587135
22	0xbcca8118	-0.02471976
23	0xbc95e710	-0.018298656
24	0xbdcd2138	-0.100161016
25	0xbca90430	-0.02063188
26	0xbd870ad2	-0.06593861
27	0x3ddf1142	0.108919635
28	0xbd5d63ec	-0.05405037
29	0x3d9dd696	0.07706945
30	0xbd1e38b0	-0.03862828
31	0x3c015670	0.007894143
32	0x3d2becf4	0.041974023
33	0xbc57f490	-0.013180867
34	0xbddc6eb6	-0.10763304
35	0xbdb7677a	-0.089552835
36	0x3d9ca806	0.076492354
37	0xbd5ca5e8	-0.053869158
38	0xbda04be0	-0.07826972
39	0x3d91ddae	0.0712236
40	0xbdadbf6a	-0.08483775
41	0x3cafe768	0.021472648
42	0xbdcde03e	-0.100525364
43	0x3d0daf50	0.03459102
44	0x3ded97d6	0.11601226
45	0xbda1dc2c	-0.079033226
46	0x3c08c750	0.008348301
47	0x3d9e8338	0.07739872
48	0xbdd506e0	-0.10401702
49	0xbdb39430	-0.08768499
50	0x3d94c3de	0.07263921
51	0x3da79a9e	0.08183788
52	0xbc170f00	-0.009219885
53	0xbdef8e56	-0.1169707
54	0xbd652b70	-0.05594963
55	0xbd93c9d8	-0.07216233
56	0xbda99ce2	-0.08281876
57	0xbd958302	-0.073003784
58	0xbd802fd0	-0.062591195
59	0x3de9a400	0.11408234
60	0xbd186450	-0.03720504
61	0xbdefbb06	-0.11705594
62	0xbda77826	-0.08177213
63	0x3df91e6a	0.12164004
64	0xbd15f371	-0.036609117
65	0xbd93f503	-0.07224467
66	0xbe201dc9	-0.15636362
67	0xbcff45f7	-0.031161292
68	0x3a4fe76b	0.00079309073
69	0xbde5450b	-0.111948095
70	0x3dc05a4a	0.09392221
71	0x3c91fc5c	0.01782053
72	0x3d5fd203	0.054643642
73	0x3d522d93	0.051312994
74	0x3c8ffed8	0.017577574
75	0xbd823b06	-0.06358914
76	0x3d577dc3	0.05261017
77	0xbe1e04bc	-0.15431494
78	0xbbe9cf02	-0.007135273
79	0x3d8ee91d	0.069780566
80	0xbde08a2a	-0.10963853
81	0xbd5b1877	-0.05349013
82	0xbdca8851	-0.098892815
83	0x3d6e74d0	0.05821687
84	0x3d9e0be2	0.0771711
85	0xbdafb2b6	-0.08579008
86	0x3d491134	0.04908867
87	0xbd88aa64	-0.066731244
88	0x3c8c38e4	0.017116971
89	0x3c644940	0.01393348
90	0x3dd03c6d	0.10167775
91	0x3da90e21	0.08254648
92	0xbdfab9d9	-0.12242479
93	0xbacb4fab	-0.0015511414
94	0xbce71840	-0.028209805
95	0xbcc0be2a	-0.023528177
96	0x3d692682	0.05692149
97	0x3dda61bc	0.106631726
98	0x3de80e81	0.113308914
99	0x3dacbd51	0.08434547
100	0xbd55f558	-0.05223593
101	0x3dc66a33	0.09688225
102	0x3d9c05be	0.07618283
103	0xbd016aa8	-0.031595856
104	0xbd98533f	-0.07437753
105	0xbd3eda9c	-0.0465952
106	0x3daa070b	0.083021246
107	0x3cc64098	0.024200723
108	0xbdf3b419	-0.11899585
109	0x3e0149ff	0.12625884
110	0x3d8df8e6	0.06932239
111	0xbb27aea5	-0.0025586274
112	0xbdd49bb7	-0.10381263
113	0xbd8ead10	-0.06966603
114	0x3db09b3b	0.08623358
115	0x3d3b82cf	0.045779046
116	0x3c2139b0	0.009840414
117	0xbe018bc8	-0.12650979
118	0x3c5f28c0	0.013620555
119	0xbc51cdbf	-0.012805401
120	0xbd44e776	-0.0480723
121	0x3d4d1c23	0.05007566
122	0xbdcaac19	-0.09896106
123	0x3c0a6d31	0.008448885
124	0xbe03a3b2	-0.12855414
125	0x3d78ecd6	0.06077274
126	0x3c244e30	0.010028407
127	0xbd28b68c	-0.041189715
128	0x3d03f5bd	0.032216776
129	0x3da0addb	0.0784566
130	0xbda3cdf6	-0.07998268
131	0xbd927b20	-0.071523905
132	0x3dbe47c2	0.092910305
133	0xbae94c13	-0.0017799161
134	0x3d3da4c8	0.046299726
135	0xbcfa7697	-0.030574126
136	0xbdf74928	-0.120745
137	0x3de702fa	0.112798646
138	0x3dbbbe02	0.091671005
139	0xbdefedb0	-0.11715257
140	0xbddcafea	-0.107757404
141	0x3d620fcf	0.055190857
142	0xbda0f65b	-0.078594886
143	0xbc4d2ba0	-0.012522608
144	0xbda544dc	-0.080697745
145	0x3d1595e3	0.036519896
146	0x3d928ac9	0.071553774
147	0x3d805d54	0.06267801
148	0x3d07be8a	0.033140697
149	0xbe0f1749	-0.13973726
150	0x3d207914	0.03917797
151	0xbcf8fa48	-0.03039278
152	0x3d9e3657	0.07725208
153	0xbdfd5fe0	-0.12371802
154	0x3d283ebd	0.041075457
155	0xbd32042b	-0.043461006
156	0xbdf7ef96	-0.12106244
157	0x3d0ac5ac	0.03387992
158	0xbcfb76e6	-0.030696344
159	0xbc8530e6	-0.016258668
160	0xbcd97ed5	-0.026549736
161	0x3cba799b	0.022763064
162	0xbdb21ef2	-0.086973086
163	0x3d280691	0.041021887
164	0xbdbe5f00	-0.092954636
165	0xbe0e6975	-0.13907416
166	0xbdac6f85	-0.08419708
167	0x3d9dd4fa	0.07706638
168	0xbceeefc0	-0.029167056
169	0xbdf234f4	-0.11826506
170	0xbabdfbfe	-0.0014494655
171	0xbdc8cfb2	-0.0980524
172	0x3d723255	0.05913003
173	0xbcbfbcf5	-0.023405531
174	0x3d1cb1fc	0.038255677
175	0xbdeb3f9e	-0.114867434
176	0xbe0db0ec	-0.13837022
177	0xbc6be5a6	-0.014398014
178	0xbdd334f4	-0.103128344
179	0xbdc294f3	-0.09501066
180	0xbde97a1e	-0.11400245
181	0x3d2b9498	0.041889757
182	0xbdb7b714	-0.08970466
183	0x3d7c8cf0	0.061657846
184	0x3d97499e	0.07387088
185	0xbd76daf1	-0.060267393
186	0xbdee7e79	-0.116452165
187	0x3dc3163e	0.09525727
188	0xbdf672e4	-0.120336324
189	0xbd01c869	-0.031685267
190	0x3d623dac	0.055234596
191	0xbd80165b	-0.06254264
192	0x3ecfaf86	0.405636
193	0xbe114930	-0.14188075
194	0x3f2dfe4e	0.67966163
195	0x3d9e7621	0.07737375
196	0x3f0d966e	0.5530766
197	0x3eb7bfbe	0.35888475
198	0xbd5ce794	-0.053931788
199	0xbeb413aa	-0.35171252
200	0x3fc7c356	1.5606487
201	0x3d8bfbfa	0.0683517
202	0x3c0f4ff0	0.008747086
203	0x3ee20daa	0.4415105
204	0xbcdbe5ed	-0.026843036
205	0x3e9193da	0.28433114
206	0xbe3c85d7	-0.18410431
207	0xbe711dc0	-0.23546505
208	0xbe720089	-0.23633017
209	0xbe7e0cd2	-0.24809578
210	0xbe2f4f4a	-0.1712009
211	0x3f01ba27	0.5067467
212	0x3f06b03a	0.5261265
213	0xbe58f5a1	-0.2118745
214	0x3d659d1e	0.05605804
215	0xbd741bcc	-0.05959682
216	0x3ecd070e	0.40044445
217	0xbd431300	-0.04762554
218	0xbe538839	-0.20657434
219	0x3fcda65b	1.6066393
220	0x3ef7819b	0.4834107
221	0xbda7d637	-0.08195155
222	0xbcaa1aaf	-0.020764677
223	0x3f329edf	0.6977367
224	0x3f14adc0	0.5807762
225	0xbc56070b	-0.013063203
226	0xbe1cfa43	-0.15329842
227	0xbe69ed4b	-0.22844426
228	0xbda09694	-0.078412205
229	0x3cffe7f3	0.031238532
230	0x3f04d408	0.51886034
231	0x3f19a836	0.60022295
232	0xbda9f00e	-0.0829774
233	0xbe2c5180	-0.16827965
234	0x3d8cde53	0.068783425
235	0xbd5e7bd7	-0.05431732
236	0xbd8edae7	-0.06975346
237	0xbe1150ea	-0.14191023
238	0x3db6f5bb	0.08933588
239	0x3d7a527a	0.061113812
240	0xbd6fb903	-0.05852605
241	0x3f181042	0.5939981
242	0x3fd99f52	1.7001746
243	0xbd1c3bae	-0.038142852
244	0xbe55250b	-0.20814912
245	0x3f0464ba	0.51716197
246	0xbc4a2476	-0.0123377945
247	0xbe0aa8d8	-0.13540971
248	0x3f13e067	0.57764286
249	0xbdee791c	-0.116441935
250	0xbd87d17b	-0.06631752
251	0x3ee22235	0.44166723
252	0x3d34c349	0.04413155
253	0x3f23f13e	0.6403998
254	0xbd32acfe	-0.04362201
255	0xbda701eb	-0.08154663

fc3.bias f4 [64]
0	0xbd13b700	-0.036063194
1	0x3c84b0ea	0.01619764
2	0xbdff6838	-0.1247105
3	0x3e2d2651	0.16909148
4	0x3f9ecbe3	1.2405971
5	0xbd82ebea	-0.06392653
6	0x3e8d1ee0	0.27562618
7	0xbdb4fb61	-0.08837009
8	0xbe950c59	-0.29110983
9	0x3e57d2b7	0.21076475
10	0xbcca4168	-0.024689391
11	0xbdf938d4	-0.12169042
12	0x3f9625e3	1.1730312
13	0x3f9edb11	1.2410604
14	0x3e840173	0.25782356
15	0x3e58c920	0.21170473
16	0x3faa2bb5	1.3294588
17	0x3fa0cf5b	1.256328
18	0xbde2c020	-0.11071801
19	0x3e3bc731	0.18337704
20	0x3e2fe658	0.17177713
21	0xbd998c75	-0.07497493
22	0x3c6c92c0	0.014439285
23	0xbdfa4706	-0.12220578
24	0x3fab310c	1.3374343
25	0x3f9ccbda	1.224971
26	0xbb97f1c0	-0.004636973
27	0xbc8376b8	-0.01604782
28	0x3fa4a7c9	1.2863704
29	0x3ea1f6f0	0.3163371
30	0x3fa58ceb	1.293363
31	0xbce79783	-0.028270489
32	0xbdd89d80	-0.10576916
33	0x3f9d1600	1.2272339
34	0x3fa7fa81	1.3123323
35	0xbddd3069	-0.10800249
36	0x3e81c790	0.25347567
37	0xbe010b25	-0.12601908
38	0x3faf5f81	1.370102
39	0xbe06314c	-0.13104743
40	0x3f91a87d	1.1379544
41	0x3e597c91	0.21238925
42	0x3c4a4190	0.012344733
43	0x3f8fddb5	1.1239535
44	0x3ddc44f2	0.10755338
45	0x3d9134b9	0.07090134
46	0x3f931473	1.1490616
47	0x3e4e795b	0.20163481
48	0x3d042b4b	0.03226785
49	0x3c8cf3be	0.01720607
50	0x3fb098be	1.3796613
51	0x3f9cdc6e	1.225477
52	0x3e8ff8e1	0.28119567
53	0x3f990b15	1.1956507
54	0xbdc9c0de	-0.098512396
55	0x3ec9f300	0.39443207
56	0x3f92a258	1.1455793
57	0x3f9e6f85	1.2377783
58	0x3e7e87c0	0.24856472
59	0x3e1790cb	0.14801328
60	0x3c3f804f	0.011688306
61	0x3e26e4e2	0.1629825
62	0x3f98f8c4	1.1950917
63	0x3fa8a5a3	1.3175548

q_out.weight f4 [1, 64]
0	0x3de46e0e	0.11153804
1	0xbbcafa96	-0.006194423
2	0x3d839200	0.06424332
3	0xbf987011	-1.19092
4	0x3f7a6ed0	0.97825336
5	0x3d56f8c5	0.05248334
6	0xbf954a17	-1.1663235
7	0xbda27942	-0.07933284
8	0xbf52f945	-0.82411605
9	0xbfaa1140	-1.3286514
10	0xbc12a4a0	-0.0089503825
11	0x3d019160	0.03163278
12	0x3f742902	0.9537507
13	0x3f786664	0.97031236
14	0xbf9e2ba7	-1.2357072
15	0xbfac8658	-1.3478498
16	0x3f790682	0.97275555
17	0x3f81d392	1.0142691
18	0xbca701f8	-0.020386681
19	0xbfa7863c	-1.308784
20	0xbf977553	-1.183268
21	0xbdd8e24f	-0.1059004
22	0x3cff0428	0.031129912
23	0xbd99afbc	-0.07504222
24	0x3f72775f	0.94713396
25	0x3f7c7c01	0.98626715
26	0xbdd18a90	-0.10231507
27	0x3ccb7134	0.024834253
28	0x3f816df0	1.0111675
29	0xbf92cb3e	-1.1468275
30	0x3f73c416	0.9522108
31	0xbbf51416	-0.007479201
32	0xbd8a75d8	-0.06760758
33	0x3f7aca7f	0.97965235
34	0x3f83958b	1.0280012
35	0x3dce587b	0.1007547
36	0xbfa29cd4	-1.270411
37	0x3a836f36	0.001002765
38	0x3f76b257	0.96365875
39	0xbd9f6915	-0.07783715
40	0x3f8307a2	1.0236704
41	0xbfa22ea4	-1.2670484
42	0x3b106e44	0.002203838
43	0x3f72eabf	0.94889444
44	0xbf94a893	-1.1613945
45	0x3f07bb60	0.53020287
46	0x3f6a283d	0.9146765
47	0xbfa51792	-1.2897818
48	0xbbd44b60	-0.006478712
49	0xbfa11133	-1.2583374
50	0x3f7e0f4a	0.9924208
51	0x3f78f5d6	0.97250116
52	0xbfa0f160	-1.2573662
53	0x3f817405	1.0113531
54	0x3cecc930	0.028904527
55	0xbf89b256	-1.0757549
56	0x3f7096ae	0.9397992
57	0x3f74b609	0.95590264
58	0xbf92b3b4	-1.1461091
59	0xbfae78d9	-1.363063
60	0x3d9c6b1e	0.076376185
61	0xbf999c30	-1.200079
62	0x3f81934f	1.012308
63	0x3f75b71b	0.9598252
