model/simple_charge/agent_1/224_actor_params.pkl (torch, 39657 bytes, 7 tensors)

fc1.weight f4 [64, 12]
-0.035617944 0.017620241 -0.0666664 0.1459387 -0.27238986 0.17221493 0.0541264 -0.21897984
-0.04301542 0.07738176 0.10528818 -0.27392077 -0.2357493 0.005331248 -0.068377465 0.15403026
0.26735616 0.16603723 -0.04718867 0.13681868 -0.18483102 -0.18039532 -0.19251841 -0.14554009
-0.055840537 -0.18977901 0.06087319 0.051776547 -0.066055566 0.014807743 -0.15359317 -0.4183283
0.3225009 0.20209791 -0.008247909 -0.08733255 -0.1911023 -0.25951597 -0.07913401 0.30644062
0.3337102 -0.22912386 -0.022879995 0.41123968 -0.32860875 0.20983487 -0.057643846 0.005293101
0.2400985 0.017381208 0.20246972 0.2081145 -0.116103716 -0.026246298 -0.1965364 0.27166477
-0.095667586 0.1282747 -0.20937063 0.2411792 -0.10832028 -0.027129292 0.058451742 0.1941143
-0.002978295 0.2656532 -0.024542928 -0.1925073 -0.070611164 -0.1752927 0.15992066 0.12848714
0.10933619 0.04130498 -0.2304627 0.06667521 0.06893633 -0.12259898 0.0696587 0.07061307
0.09760224 -0.21004301 -0.18232767 -0.25432488 -0.106242284 -0.19293115 0.048384618 0.17771599
-0.04723343 -0.24231884 -0.22241674 -0.2924909 -0.039991695 0.2085799 0.12385355 0.08035284
0.12413449 -0.0070719733 -0.16602114 -0.049727246 -0.09702196 -0.03695405 0.24171235 -0.57458735
0.27920315 0.081751265 0.106231794 0.021911157 0.2773938 0.08373567 -0.020295674 -0.17875607
0.22391489 -0.3215822 0.16316026 -0.57192844 0.268263 -0.17882922 0.006800358 -0.13958694
0.00818608 -0.0056145564 -0.13446587 -0.06059376 -0.00658506 0.22892325 -0.04331997 -0.59944534
0.35263658 0.023151994 -0.30531657 0.19763264 0.15820229 0.26582396 0.07342461 0.20010571
-0.17500797 -0.14977357 0.12681964 0.17409447 -0.26885357 -0.28841704 -0.099637926 0.102218315
-0.102242865 -0.1808008 0.22984326 0.23185019 -0.017206838 -0.11568302 -0.23184705 -0.10546434
-0.2910132 0.20680067 -0.13304366 0.12096831 0.18031627 -0.20726132 0.11785582 0.25439918
-0.11559266 0.043890655 -0.13982402 0.03991005 -0.14259714 -0.20694253 -0.20617709 0.124872446
0.2392697 -0.24149635 -0.21771775 -0.12992752 -0.06292071 -0.029855266 -0.22408058 -0.7315952
0.20785135 0.24834792 -0.14132304 -0.21153575 -0.22487894 0.30955592 -0.13732009 -0.0752224
-0.17453343 0.3721641 0.14039624 0.64666975 -0.24287468 -0.11099541 -0.12455875 0.30235296
0.09310504 -0.0753786 -0.12814766 -0.14321253 0.09171678 -0.27267504 0.29535082 0.30105296
-0.14611608 -0.21103163 -0.18468891 0.05355669 0.057415828 0.054306224 0.22995062 0.2288029
0.11937773 -0.11450083 0.11323209 0.6800707 -0.27713802 0.18040536 -0.17773643 -0.08765296
0.06106284 0.15735032 0.018882507 -0.055845696 0.2201711 -0.4342118 0.06663035 0.31345683
-0.1356224 0.20585771 0.08784305 0.16429456 0.23181634 -0.22323799 0.30015388 -0.039398704
-0.18265483 -0.3444142 0.2331489 0.52353597 0.2161942 -0.10219498 -0.2262073 -0.019414593
0.19416901 0.030006468 0.15170343 -0.06354374 -0.2583595 0.08181669 0.08348244 -0.6224865
-0.03662845 0.21749486 -0.20595112 0.18682155 -0.029159188 0.09884575 -0.2733548 -0.13738805
00000000: 1fe4 11bd 5358 903c 6588 88bd f470 153e
00000010: af76 8bbe 1c59 303e a5b3 5d3d 403c 60be
00000020: f030 30bd 547a 9e3d 54a1 d73d 583f 8cbe
00000030: 4468 71be c0b1 ae3b 7c09 8cbd 1cba 1d3e
00000040: e8e2 883e aa05 2a3e e848 41bd 321a 0c3e
00000050: 5844 3dbe 8db9 38be 8c23 45be 7608 15be
00000060: 0cb9 64bd 6e55 42be 2b56 793d a513 543d
00000070: 2448 87bd 2d9c 723c 8747 1dbe 202f d6be
00000080: d71e a53e c1f2 4e3e 3d22 07bc 68db b2bd
00000090: 52b0 43be 47df 84be 0311 a2bd c9e5 9c3e
000000a0: 10dc aa3e 729f 6abe d46e bbbc 028e d23e
000000b0: 683f a8be f4de 563e f41b 6cbd c071 ad3b
000000c0: 62dc 753e 0963 8e3c 3954 4f3e f81b 553e
000000d0: c9c7 edbd 7a02 d7bc d740 49be a517 8b3e
000000e0: 5eed c3bd 715a 033e 4165 56be aef7 763e
000000f0: 06d7 ddbd 403e debc 186b 6f3d e6c5 463e
00000100: 802f 43bb b203 883e 400e c9bc a220 45be
00000110: 969c 90bd ee7f 33be 3ec2 233e 2292 033e
00000120: a7eb df3d 692f 293d 6afe 6bbe 038d 883d
00000130: 7e2e 8d3d 2d15 fbbd 38a9 8e3d 969d 903d
00000140: afe3 c73d 8415 57be 1bb4 3abe df36 82be
00000150: 8e95 d9bd be8f 45be f32e 463d 2efb 353e
00000160: d777 41bd 6e22 78be 37c1 63be 5ec1 95be
00000170: 55ce 23bd f895 553e eea6 fd3d 0890 a43d
00000180: 393a fe3d 03bc e7bb 7201 2abe ccae 4bbd
00000190: 73b3 c6bd 215d 17bd 7183 773e 2818 13bf
000001a0: b7f3 8e3e 356d a73d 0e90 d93d 077f b33c
000001b0: 8f06 8e3e 9b7d ab3d 1d43 a6bc d50b 37be
000001c0: f249 653e 6ca6 a4be 7c13 273e e769 12bf
000001d0: c559 893e 021f 37be 8ad5 de3b e1ef 0ebe
000001e0: e81e 063c 50fa b7bb 6cb1 09be 2a31 78bd
000001f0: 7dc7 d7bb db6a 6a3e 4870 31bd 4075 19bf
00000200: c88c b43e 40a9 bd3c 7452 9cbe 3660 4a3e
00000210: c8ff 213e 141a 883e a45f 963d 83e8 4c3e
00000220: 4a35 33be 3e5e 19be 02dd 013e d245 323e
00000230: 2da7 89be 66ab 93be f80e ccbd d657 d13d
00000240: b564 d1bd d823 39be 085c 6b3e 236a 6d3e
00000250: 5bf5 8cbc 38eb ecbd 5069 6dbe b0fd d7bd
00000260: afff 94be 8ec3 533e 993c 08be 3cbe f73d
00000270: d4a4 383e 503c 54be 645e f13d 9c40 823e
00000280: d8bb ecbd b0c6 333d 072e 0fbe b878 233d
00000290: fc04 12be bee8 53be 1620 53be 20bd ff3d
000002a0: 1e03 753e d24a 77be 67f1 5ebe b80b 05be
000002b0: 93dc 80bd 0893 f4bc 6175 65be d349 3bbf
000002c0: fcd6 543e eb4e 7e3e fdb6 10be d49c 58be
000002d0: aa46 66be 1d7e 9e3e a39d 0cbe 340e 9abd
000002e0: e4b8 32be 4b8c be3e 08c4 0f3e 268c 253f
000002f0: 24b4 78be 9051 e3bd a818 ffbd 02ce 9a3e
00000300: dbad be3d 1860 9abd 2439 03be 4ea6 12be
00000310: 02d6 bb3d 109c 8bbe 3938 973e 9d23 9a3e
00000320: 749f 15be ad18 58be 171f 3dbe 435e 5b3d
00000330: dc2c 6b3d 3470 5e3d 2d78 6b3e 4f4b 6a3e
00000340: 507c f43d 697f eabd 3ae6 e73d 1d19 2e3f
00000350: 09e5 8dbe 2fbc 383e 8a00 36be 6583 b3bd
00000360: 071d 7a3d 7120 213e 7daf 9a3c 75be 64bd
00000370: 8874 613e 0251 debe 7e75 883d 6a7d a03e
00000380: 99e0 0abe 5dcc 523e 0fe7 b33d d53c 283e
00000390: 4361 6d3e 8098 64be c5ad 993e 8960 21bd
000003a0: de09 3bbe 0f57 b0be 96be 6e3e 7406 063f
000003b0: 0362 5d3e 9a4b d1bd e3a2 67be 5a0b 9fbc
000003c0: 3ed4 463e 20d0 f53c 2558 1b3e 3823 82bd
000003d0: b247 84be 828f a73d d7f8 aa3d 465b 1fbf
000003e0: b707 16bd f9b6 5e3e dae4 52be 264e 3f3e
000003f0: 40df eebc a46f ca3d 29f5 8bbe 74af 0cbe

fc1.bias f4 [64]
0.03523235 -0.2677509 -0.011512002 0.22335716 0.13853908 0.21853471 0.27863988 -0.004044397
0.116185315 -0.08298056 -0.26330975 0.31059554 -0.19901155 0.2640351 -0.27677417 0.11647664
0.15803267 0.0683762 -0.21546438 -0.035001997 -0.3148794 -0.21030724 0.04852489 -0.14124005
-0.0368646 0.11783128 0.19056195 0.23553818 -0.11357035 0.030359179 0.22707176 -0.252646
-0.28842258 -0.1436139 -0.16233197 0.21816367 0.14375165 -0.026092423 0.18551245 0.10904466
0.007080376 0.132525 0.120690905 -0.06581065 -0.016113043 0.1641814 0.19811809 -0.17212218
0.113979265 0.08312725 -0.26941627 0.2386608 0.10177103 0.087169796 -0.3185746 -0.14834736
-0.13414988 -0.015800135 0.16822582 0.18051809 0.2571266 -0.23755419 0.14778809 0.050985903
00000000: cc4f 103d a516 89be d69c 3cbc bdb7 643e
00000010: 30dd 0d3e 90c7 5f3e e3a9 8e3e dc86 84bb
00000020: 91f2 ed3d b6f1 a9bd 89d0 86be 6106 9f3e
00000030: afc9 4bbe 9c2f 873e 58b5 8dbe 4e8b ee3d
00000040: 51d3 213e d208 8c3d b2a2 5cbe 415e 0fbd
00000050: df37 a1be c85a 57be 09c2 463d 3ba1 10be
00000060: 56ff 16bd 8751 f13d ac22 433e ec30 713e
00000070: 9297 e8bd d0b3 f83c 8085 683e d15a 81be
00000080: 20ac 93be 860f 13be 5a3a 26be 4c66 5f3e
00000090: a233 133e c7bf d5bc faf6 3d3e cf52 df3d
000000a0: 8002 e83b a2b4 073e cb2c f73d bcc7 86bd
000000b0: 80ff 83bc 2b1f 283e 78df 4a3e cc40 30be
000000c0: f66d e93d 9f3e aa3d eef0 89be 7f63 743e
000000d0: 546d d03d 1486 b23d 361c a3be 5fe8 17be
000000e0: 965e 09be 496f 81bc 6443 2c3e bcd9 383e
000000f0: 19a6 833e 6841 73be c355 173e 98d6 503d

fc2.weight f4 [64, 64]
-0.055470742 -0.053300932 -0.040767245 0.14033179 -0.011307932 0.025350168 -0.0854808 -0.020788087
0.047642436 -0.22490124 -0.03241592 0.0068503898 -0.06834519 -0.08401348 -0.2409068 0.07821201
0.12590834 -0.0226084 0.05697402 0.08393076 0.09598187 -0.08614777 -0.09583625 0.038116045
0.039290834 0.10271316 -0.059284832 -0.08196582 0.11655699 -0.03875439 -0.0891403 -0.1249456
0.0977135 -0.005380202 -0.0031500994 0.11151783 -0.110943116 0.051450048 0.09350991 0.014182486
-0.12038937 0.09024572 0.08774633 -0.06592795 0.021875173 -0.07441694 -0.11699365 0.102523334
0.016538797 0.15818693 -0.0920531 0.06621646 0.12305759 -0.11165674 -0.07229111 0.041675206
-0.06483868 0.026825909 -0.117807776 0.08299705 0.17496239 0.07558929 -0.0640322 -0.11150119
-0.11898188 0.0511377 -0.039829865 -0.17312792 0.106546514 -0.053987786 -0.1395724 -0.097392656
0.03287606 0.17467342 0.07805227 -0.16335344 0.08774401 0.061627716 0.072248265 -0.002449082
0.011420126 -0.062450543 -0.048001822 0.052989576 0.10336841 0.07918613 -0.120668806 0.056230605
0.048557263 0.009529893 -0.054861918 0.07337965 -0.03218001 -0.08929889 -0.0071796416 0.05734635
0.040379673 0.064365044 -0.0091977995 -0.12392273 -0.028543247 0.048179884 0.112700164 0.0039338246
-0.07753846 0.02119498 0.023547444 -0.067001514 -0.037311167 -0.086096756 -0.08957592 0.043479998
-0.10047462 -0.032024935 -0.043385807 -0.0133875655 -0.015637845 -0.069436505 0.015168187 -0.020497374
0.019580256 0.09746891 -0.08939713 0.13423578 -0.20145445 0.039472178 -0.09931726 -0.0010151118
-0.006963959 0.0077529848 0.0468297 0.031161226 -0.033244256 -0.037161857 -0.11193104 0.03845876
-0.05290275 0.066530444 -0.026524642 -0.00039614737 0.021459952 -0.06821856 -0.019946288 0.106977105
0.034090288 -0.035483792 0.031846955 0.0065288786 -0.0074121067 0.08292046 -0.008452208 0.11381204
0.009609626 0.006682487 -0.10307006 -0.094585806 -0.1188276 -0.01435484 -0.110550605 -0.043979075
-0.047092795 -0.056794155 0.106679425 -0.034447055 -0.03945397 0.062866874 0.009069607 0.09082639
0.033919394 0.018271953 -0.07778482 0.068005346 0.07100318 -0.12085315 -0.032512486 -0.05933887
0.009733515 -0.091499105 -0.06182095 0.08093879 0.102599785 -0.076510996 -0.09174571 0.10949336
-0.012710908 -0.120961756 0.11329754 0.0034533457 0.10812611 -0.05133067 0.09539715 0.06319119
0.10424337 0.03903225 0.10392302 -0.11708598 -0.09036595 -0.018219888 -0.104909256 0.02531828
0.049996898 -0.054619566 -0.03700936 0.011997402 -0.06312622 0.025302678 -0.032921284 -0.088229045
0.0014136136 0.055988893 -0.029728651 0.006109014 -0.03764157 0.055622354 -0.025507271 -0.09182742
0.003365323 0.04124576 -0.059469134 0.05781956 -0.011834681 -0.12122828 0.031095624 -0.05942738
0.09754524 -0.011460334 -0.11301361 0.04433213 0.055358157 0.00049316883 0.09659986 -0.03170696
-0.047153994 -0.0908861 0.08010109 -0.004489824 0.0841482 0.013812184 0.048142806 -0.028165966
-0.002569288 0.091249675 -0.020942375 -0.070691004 -0.077803925 0.12159231 -0.00711374 0.038289532
-0.019081771 -0.030968234 0.02599667 -0.012153611 -0.039479733 -0.055295706 0.09131828 0.1011228
00000000: 4a35 63bd 1452 5abd 8efb 26bd 23b3 0f3e
00000010: e844 39bc 28ab cf3c 8f10 afbd c74b aabc
00000020: b724 433d 834c 66be 8ec6 04bd 3c79 e03b
00000030: 90f8 8bbd 420f acbd 46b0 76be 9e2d a03d
00000040: 1eee 003e 4035 b9bc 975d 693d e4e3 ab3d
00000050: 2592 c43d 3e6e b0bd cc45 c4bd 921f 1c3d
00000060: 6def 203d 475b d23d a7d4 72bd b2dd a7bd
00000070: 6eb5 ee3d ecbc 1ebd 318f b6bd 7be3 ffbd
00000080: 041e c83d 684c b0bb e671 4ebb 7663 e43d
00000090: 2536 e3bd 49bd 523d 2082 bf3d a85d 683c
000000a0: b48e f6bd c0d2 b83d 59b4 b33d 3c05 87bd
000000b0: 9033 b33c e967 98bd 5e9a efbd c1f7 d13d
000000c0: 5f7c 873c c1fb 213e 5686 bcbd 7f9c 873d
000000d0: 9e05 fc3d 4aac e4bd 5d0d 94bd 9fb3 2a3d
000000e0: 24ca 84bd 02c2 db3c 3445 f1bd 5bfa a93d
000000f0: 5729 333e 8fce 9a3d 5023 83bd bc5a e4bd
00000100: c6ac f3bd c475 513d a424 23bd 7248 31be
00000110: 0f35 da3d 4c22 5dbd 11ec 0ebe cd75 c7bd
00000120: 0ca9 063d 97dd 323e ded9 9f3d 2046 27be
00000130: 22b3 b33d 586d 7c3d e6f6 933d c780 20bb
00000140: 7b1b 3b3c 24cc 7fbd 8f9d 44bd 990b 593d
00000150: d1b2 d33d 562c a23d 3521 f7bd 1052 663d
00000160: fbe3 463d 4523 1c3c e4b6 60bd 1248 963d
00000170: 30cf 03bd 56e2 b6bd 3343 ebbb 02e4 6a3d
00000180: 2865 253d d2d1 833d 5eb2 16bc 33cb fdbd
00000190: 87d3 e9bc 4558 453d 58cf e63d 50e7 803b
000001a0: 7ccc 9ebd 18a1 ad3c 92e6 c03c 1738 89bd
000001b0: 98d3 18bd 7f53 b0bd 9473 b7bd 1518 323d
000001c0: a3c5 cdbd 942c 03bd 51b5 31bd 8557 5bbc
000001d0: f01a 80bc ba34 8ebd fd83 783c 1cea a7bc
000001e0: c666 a03c c89d c73d d815 b7bd 1b75 093e
000001f0: 134a 4ebe 94ad 213d d966 cbbd 800d 85ba
00000200: ec31 e4bb c00c fe3b 80d0 3f3d d445 ff3c
00000210: 212b 08bd 0837 18bd 1a3c e5bd ef86 1d3d
00000220: 8eb0 58bd 1d41 883d 354a d9bc 00b2 cfb9
00000230: c8cc af3c 2cb6 8bbd 6666 a3bc d016 db3d
00000240: 42a2 0b3d 7457 11bd f471 023d 34f0 d53b
00000250: 42e1 f2bb 34d2 a93d 217b 0abc 4916 e93d
00000260: b171 1d3c c4f8 da3b 6516 d3bd 34b6 c1bd
00000270: e25b f3bd 9030 6bbc 5b68 e2bd 6723 34bd
00000280: 60e4 40bd fda0 68bd be7a da3d 5b18 0dbd
00000290: 7c9a 21bd 59c0 803d b098 143c 3003 ba3d
000002a0: 10ef 0a3d 10af 953c a64d 9fbd 6346 8b3d
000002b0: 1e6a 913d db81 f7bd d02b 05bd 510d 73bd
000002c0: 5279 1f3c e263 bbbd f737 7dbd 3dc3 a53d
000002d0: d61f d23d ccb1 9cbd 2de5 bbbd 0e3e e03d
000002e0: 6a41 50bc ccba f7bd 8a08 e83d 8751 623b
000002f0: 3971 dd3d 1c40 52bd 955f c33d 626a 813d
00000300: 8c7d d53d 48e0 1f3d 98d5 d43d c6ca efbd
00000310: c811 b9bd e041 95bc aada d6bd 4868 cf3c
00000320: 8cc9 4c3d c4b8 5fbd 2097 17bd c090 443c
00000330: 5248 81bd 9047 cf3c 78d8 06bd 6eb1 b4bd
00000340: 0049 b93a 9c54 653d 8089 f3bc 202e c83b
00000350: 0c2e 1abd 44d4 633d a0f4 d0bc 0410 bcbd
00000360: c08c 5c3b 50f1 283d e895 73bd 34d4 6c3d
00000370: 40e6 41bc 8846 f8bd 40bc fe3c 206a 73bd
00000380: ccc5 c73d 20c4 3bbc ae73 e7bd 9c95 353d
00000390: 3cbf 623d 0048 013a 26d6 c53d 28df 01bd
000003a0: 8c24 41bd 7e22 babd 0a0c a43d 601f 93bb
000003b0: e455 ac3d 804c 623c 6431 453d 50bc e6bc
000003c0: 8061 28bb 1ce1 ba3d 588f abbc 72c6 90bd
000003d0: aa57 9fbd 6405 f93d 601a e9bb 7cd5 1c3d
000003e0: 6051 9cbc 18b1 fdbc f8f6 d43c f01f 47bc
000003f0: 80b5 21bd c07d 62bd 1405 bb3d 7819 cf3d

fc2.bias f4 [64]
-0.025551474 -0.0013649168 -0.09939112 0.047201812 -0.012219816 -0.12065087 -0.015054642 0.005377842
0.038429137 0.012470456 -0.0011382252 -0.017667009 -0.04406643 -0.16471592 0.115242496 -0.013937726
0.10491921 0.051669423 -0.055080034 0.027902681 -0.1049947 -0.083020665 0.083941884 0.0246504
-0.061158236 -0.1131009 -0.09354403 0.017224446 0.09123746 -0.121096656 0.03644634 -0.08175011
-0.11946285 0.023873467 0.11323979 -0.119326554 0.070545524 0.063632846 -0.0008074492 -0.1022653
0.040524423 -0.052683517 0.05286096 0.059797615 0.021327894 -0.12554486 0.018857911 -0.07057844
0.119356796 0.078490674 -0.0982946 -0.008153294 0.01800108 -0.089650944 0.11117813 0.08728459
-0.013848916 0.09446309 0.05477907 0.03471164 0.083944246 -0.0738173 -0.01564686 0.034164086
00000000: 5351 d1bc 02e7 b2ba 928d cbbd b056 413d
00000010: a035 48bc ce17 f7bd bfa7 76bc 9c38 b03b
00000020: df67 1d3d e250 4c3c 8030 95ba 67ba 90bc
00000030: 007f 34bd 4aab 28be 4204 ec3d 0f5b 64bc
00000040: e2df d63d 51a3 533d 9a9b 61bd 2a94 e43c
00000050: 7607 d7bd bd06 aabd b9e9 ab3d a3ef c93c
00000060: 0f81 7abd 72a1 e7bd 0394 bfbd 481a 8d3c
00000070: b5da ba3d 8601 f8bd c248 153d 9a6c a7bd
00000080: f0a8 f4bd 4a92 c33c 43ea e73d 7b61 f4bd
00000090: 2c7a 903d f051 823d 00ab 53ba 7870 d1bd
000000a0: f0fc 253d acca 57bd bc84 583d 58ee 743d
000000b0: d6b7 ae3c d58e 00be e87b 9a3c 6e8b 90bd
000000c0: 5671 f43d b8bf a03d ae4e c9bd 6595 05bc
000000d0: 0077 933c ea9a b7bd 5cb1 e33d 43c2 b23d
000000e0: 90e6 62bc dd75 c13d 0560 603d cb2d 0e3d
000000f0: f6ea ab3d 862d 97bd d82d 80bc a4ef 0b3d

fc3.weight f4 [64, 64]
-0.002986225 -0.06474756 -0.035907418 0.09559041 -0.08821452 -0.03857225 0.09613572 -0.008518575
0.089976005 -0.03722698 -0.0222594 -0.051236838 -0.0015005767 -0.03529346 -0.007929221 -0.017893173
-0.036736846 0.016208662 0.12833071 0.061842024 0.08372137 0.006751071 -0.03888565 0.024986079
0.0034550522 0.124235585 0.017786445 0.0077665616 0.07428908 0.03188671 -0.15250647 0.011634335
0.0056683347 -0.024211388 -0.04628854 0.039996505 0.09727815 -0.07263312 0.06856221 -0.056568548
0.03973946 0.082417205 -0.05255891 0.059943497 0.02046023 -0.098652236 -0.028925031 -0.055915497
-0.06531048 0.10459643 0.031262804 -0.072119184 -0.07470825 0.05122826 0.0012653472 0.03452744
0.077846155 -0.08544599 -0.02647054 -0.07263642 0.010135114 0.0557331 0.11280866 0.03209525
-0.11067264 0.11576601 0.06433774 -0.0813304 -0.11605008 0.034283966 -0.31360614 0.038314983
-0.08939723 0.08521316 -0.024219438 0.112921864 -0.0112629235 -0.033276588 0.014132932 -0.0070971902
0.0030335188 0.010033363 -0.1838655 -0.055310246 0.05799961 -0.053532206 0.017196743 -0.17705642
-0.03772342 0.09159691 -0.06890502 -0.037340526 -0.05635176 -0.090511456 -0.022561293 -0.01848337
-0.053251017 0.042508014 -0.12669875 0.09617769 0.0560043 -0.008962706 0.102795064 0.06308003
0.046774805 0.04467091 0.068318166 -0.056896538 -0.051927768 0.14552663 -0.12233628 0.0028225328
-0.10258253 0.024213681 -0.11133138 -0.06881227 -0.077685 -0.26020584 -0.06237144 -0.0058838073
0.12258829 0.15108751 0.13904084 0.0049692295 -0.027398258 -0.038514078 0.050313815 -0.007990499
0.074526206 0.05970945 -0.0070114466 -0.066695556 -0.019966863 -0.120565146 0.17553161 -0.07716451
0.011239929 0.10929151 0.037002727 -0.01619181 -0.056129232 0.10232162 0.0032458305 -0.040394697
-0.045720294 0.025365759 0.15512408 0.10107616 -0.094898924 0.025775371 0.15171464 0.17420568
0.09757011 -0.07343909 0.044768997 0.0037110816 0.062451124 -0.102382384 0.023559883 -0.06220776
0.03745393 0.10253368 0.014958343 -0.115859926 0.14680853 -0.021726966 -0.080908865 -0.08897166
0.012809277 -0.054621205 -0.0678269 0.055104584 0.105788335 -0.123468734 0.015683755 -0.039460413
-0.039420277 0.02240717 0.0647694 -0.061031505 0.09636833 -0.015452788 0.045138724 0.078217044
-0.027737439 -0.05959722 -0.11849129 -0.10154775 -0.083116904 -0.008527577 0.019010961 -0.021893995
0.014708685 -0.004412156 -0.037529875 -0.0886206 0.052574962 -0.11289096 0.050250247 -0.13094042
-0.06448317 -0.09646295 0.039362848 0.063095935 0.08213951 -0.1040953 0.022961631 -0.12071948
0.11352973 -0.04388199 -0.00062554004 0.018924227 -0.038042217 0.0887008 0.07417407 -0.08795991
-0.018937388 -0.08375473 -0.0050393194 0.040964782 -0.11935048 -0.102875516 0.0428446 -0.11955248
0.08043317 0.010693808 0.065463595 0.07031742 0.0026224437 0.02725625 -0.056607798 0.079171
-0.0021257997 0.02988246 -0.04123506 -0.07524289 0.020629954 -0.018211907 0.04540685 -0.048876323
-0.104768455 0.068023324 0.047293004 0.09720141 -0.10460195 -0.06798252 0.07461312 0.124362946
0.04538788 -0.09236955 -0.1372129 0.004825287 0.051772043 -0.123766124 -0.061590716 -0.1284271
00000000: 8bb4 43bb 5e9a 84bd a813 13bd e8c4 c33d
00000010: d0a9 b4bd f0fd 1dbd cee2 c43d 7e91 0bbc
00000020: 5745 b83d 517b 18bd 5859 b6bc b8dd 51bd
00000030: 00af c4ba e08f 10bd 90e9 01bc b494 92bc
00000040: 6079 16bd 07c8 843c 2069 033e 104e 7d3d
00000050: 1c76 ab3d 1738 dd3b 8f46 1fbd 9baf cc3c
00000060: 286e 623b 3a6f fe3d e1b4 913c a47e fe3b
00000070: e024 983d a49b 023d a82a 1cbe f09d 3e3c
00000080: 70bd b93b f656 c6bc 0d99 3dbd 60d3 233d
00000090: c439 c73d acc0 94bd 586a 8c3d 6cb4 67bd
000000a0: d8c5 223d 5aca a83d 0348 57bd 5087 753d
000000b0: 369c a73c 2f0a cabd 30f4 ecbc a607 65bd
000000c0: 80c1 85bd a736 d63d 6d0d 003d 39b3 93bd
000000d0: a400 99bd b9d4 513d 02da a53a a56c 0d3d
000000e0: ce6d 9f3d 4ffe aebd bfd8 d8bc 67c2 94bd
000000f0: c00d 263c 6448 643d 3a08 e73d 4f76 033d
00000100: 56a8 e2bd bb16 ed3d 81c3 833d 8e90 a6bd
00000110: aaab edbd 586d 0c3d fc90 a0be 2cf0 1c3d
00000120: e515 b7bd 3d84 ae3d d867 c6bc 9443 e73d
00000130: 2088 38bc 084d 08bd d08d 673c 8c8f e8bb
00000140: 00ce 463b f962 243c 3d47 3cbe ff8c 62bd
00000150: 0091 6d3d 9644 5bbd 2fe0 8c3c 474e 35be
00000160: df83 1abd 2997 bb3d 131e 8dbd 61f2 18bd
00000170: 1ad1 66bd 125e b9bd 76d2 b8bc 706a 97bc
00000180: bd1d 5abd e21c 2e3d 51bd 01be cff8 c43d
00000190: c464 653d 50d8 12bc 3886 d23d 1a30 813d
000001a0: f096 3f3d d8f8 363d 65ea 8b3d 580c 69bd
000001b0: 36b2 54bd ef04 153e 728b fabd 3efa 383b
000001c0: ca16 d2bd c55b c63c b501 e4bd 73ed 8cbd
000001d0: 5019 9fbd b339 85be 3279 7fbd f4cc c0bb
000001e0: 920f fb3d afb6 1a3e b960 0e3e ebd4 a23b
000001f0: 5072 e0bc f0c0 1dbd dc15 4e3d 95ea 02bc
00000200: 32a1 983d e591 743d 47c0 e5bb ae97 88bd
00000210: 8c91 a3bc dcea f6bd 8fbe 333e 6d08 9ebd
00000220: ae27 383c 3ad4 df3d 2c90 173d b0a4 84bc
00000230: c4e7 65bd ff8d d13d 00b8 543b e974 25bd
00000240: 3445 3bbd dacb cf3c d9d8 1e3e 0501 cf3d
00000250: 5e5a c2bd df26 d33c 155b 1b3e f962 323e
00000260: d6d2 c73d 3c67 96bd b25f 373d 9e35 733b
00000270: c0cc 7f3d dbad d1bd a800 c13c 90cd 7ebd
00000280: 4b69 193d 2efd d13d d613 753c f847 edbd
00000290: fa54 163e c0fc b1bc 8cb3 a5bd c636 b6bd
000002a0: 00de 513c 7cba 5fbd d4e8 8abd 58b5 613d
000002b0: 8ea7 d83d 2ddd fcbd 387b 803c 3ea1 21bd
000002c0: 2877 21bd 3e8f b73c d2a5 843d 2cfc 79bd
000002d0: c25c c53d b12d 7dbc 62e3 383d 4230 a03d
000002e0: a039 e3bc 371c 74bd 90ab f2bd 44f8 cfbd
000002f0: 3239 aabd 40b7 0bbc e0bc 9b3c 095b b3bc
00000300: b2fc 703c d993 90bb edb8 19bd b87e b5bd
00000310: d858 573d 6033 e7bd 34d3 4d3d 3f15 06be
00000320: c10f 84bd 5e8e c5bd f03a 213d 7138 813d
00000330: c238 a83d eb2f d5bd 081a bc3c c63b f7bd
00000340: 4682 e83d 9abd 33bd 48fb 23ba fb06 9b3c
00000350: 28d2 1bbd c4a8 b53d 93e8 973d 5324 b4bd
00000360: 9522 9bbc 9a87 abbd e020 a5bb b0ca 273d
00000370: 066e f4bd 66b0 d2bd d27d 2f3d eed7 f4bd
00000380: 25ba a43d 1535 2f3c c711 863d 9402 903d
00000390: 4edd 2b3b 8048 df3c 94dd 67bd 6824 a23d
000003a0: 0051 0bbb 10cc f43c 18e6 28bd f218 9abd
000003b0: 2600 a93c 2331 95bc 88fc 393d 8a32 48bd
000003c0: d890 d6bd d04f 8b3d 4fb6 413d 8811 c73d
000003d0: 8c39 d6bd 6b3a 8bbd c3ce 983d 00b2 fe3d
000003e0: a4e8 393d 3f2c bdbd 8a81 0cbe 711d 9e3b
000003f0: ec0e 543d 1879 fdbd 8c46 7cbd 6582 03be

fc3.bias f4 [64]
0.12867716 0.08005694 0.0106090745 -0.10599774 -0.090241015 0.08321787 0.03953418 -0.07912387
0.0057592536 -0.05625147 0.118984275 -0.024712626 -0.023033574 0.084679596 -0.053247165 0.10200757
-0.14090262 0.107391454 0.043694306 0.041875213 0.079422526 0.008882042 -0.04066212 0.016913667
0.029761499 0.015623407 0.112457104 -0.09593665 -0.028520003 -0.0008951771 -0.112484634 0.0024047757
-0.04929167 -0.002585934 -0.12047685 0.06763487 -0.032241978 0.032062873 0.1334519 0.056728333
-0.08478557 0.01795666 0.02929981 0.012115421 -0.09207599 -0.116868496 0.019608643 -0.094739586
0.01809038 -0.012582591 0.12698522 0.05872579 0.11479318 -0.07233772 0.032000948 0.049284548
0.06593116 0.024592038 -0.11119191 -0.01649769 -0.08905557 0.017043503 0.11805316 -0.012687751
00000000: f2c3 033e e5f4 a33d afd1 2d3c 5815 d9bd
00000010: 48d0 b8bd 216e aa3d 98ee 213d b20b a2bd
00000020: 1fb8 bc3b f167 66bd 07ae f33d 2272 cabc
00000030: e8b0 bcbc 7f6c ad3d b319 5abd 58e9 d03d
00000040: c748 10be 0df0 db3d cdf8 323d 5885 2b3d
00000050: 47a8 a23d fc85 113c 538d 26bd 888e 8a3c
00000060: 63ce f33c 52f9 7f3c e94f e63d 6f7a c4bd
00000070: c8a2 e9bc 51aa 6aba 585e e6bd 7199 1d3b
00000080: 10e6 49bd c678 29bb 91bc f6bd 2784 8a3d
00000090: 2a10 04bd 5c54 033d 9da7 083e f85b 683d
000000a0: 0fa4 adbd d819 933c 2806 f03c c27f 463c
000000b0: 5692 bcbd c058 efbd 4ea2 a03c d406 c2bd
000000c0: 4732 943c 3627 4ebc 6a08 023e 748a 703d
000000d0: b018 eb3d cc25 94bd 6d13 033d 98de 493d
000000e0: ea06 873d 3e75 c93c 96b8 e3bd 2a26 87bc
000000f0: c462 b6bd d19e 8b3c dbc5 f13d 49e0 4fbc

action_out.weight f4 [1, 64]
0.034890097 -0.1137778 0.11074988 0.01039053 -0.17762953 0.18201363 0.13336965 -0.110889256
0.032540258 0.14696531 0.059020277 -0.17112684 0.08691993 0.018980397 -0.10464137 0.029871732
-0.081577875 0.08697126 -0.15181945 -0.05378306 0.10557413 -0.0023771166 -0.100915216 -0.10716662
-0.015775552 -0.17169967 0.12377987 0.102395564 -0.18513474 0.097320415 -0.038444936 -0.18999426
-0.07635182 -0.07041405 -0.2690556 0.1373488 0.20748553 -0.01858201 0.35632065 0.12441338
0.37741235 -0.044522118 -0.11209138 0.075618565 0.060469307 0.1922797 0.17616391 -0.03016569
0.17468649 0.20300709 0.17092419 -0.043598756 0.07269939 -0.17801143 0.24492775 0.17600039
-0.050664216 -0.06397864 -0.014630452 0.14180946 -0.06255147 0.0991879 -0.10981683 -0.10504648
00000000: ebe8 0e3d 5604 e9bd d5d0 e23d 0b3d 2a3c
00000010: 84e4 35be c861 3a3e 0e92 083e e819 e3bd
00000020: ef48 053d 137e 163e 3fbf 713d e03b 2fbe
00000030: 1403 b23d c77c 9b3c 374e d6bd 90b5 f43c
00000040: 4d12 a7bd fd1d b23d 8f76 1bbe a04b 5cbd
00000050: 4037 d83d 66c9 1bbb a3ac cebd 2c7a dbbd
00000060: bb3b 81bc 0ad2 2fbe 4d80 fd3d c4b4 d13d
00000070: f693 3dbe ed4f c73d 7078 1dbd db8d 42be
00000080: 585e 9cbd 3e35 90bd a8c1 89be 2aa5 0c3e
00000090: 1677 543e 4d39 98bc a96f b63e 71cc fe3d
000000a0: 313c c13e d35c 36bd 2a90 e5bd e8dd 9a3d
000000b0: aaae 773d f8e4 443e 5064 343e 0a1e f7bc
000000c0: 04e1 323e 17e1 4f3e c006 2f3e 9c94 32bd
000000d0: 6be3 943d a148 36be 57ce 7a3e 7239 343e
000000e0: 4885 4fbd 3c07 83bd 90b4 6fbc 8036 113e
000000f0: fc1a 80bd 0723 cb3d a5e7 e0bd 9c22 d7bd
