model/simple_charge/agent_9/5_critic_params.pkl (torch, 55775 bytes, 7 tensors)

fc1.weight f4 [64, 75]
000000 cb 86 c5 bd fe 26 09 3e 18 b1 13 3e 2f 31 a4 3e
       -0.0964485 0.1339378 0.14423025 0.32068774
000010 64 a2 ea 3d ba bb 54 3e 2e af 40 be 68 e2 08 3e
       0.11456755 0.20774737 -0.18816826 0.13367617
000020 d7 7a 1a 3d f5 04 9a 3e 3f a2 f6 3d c5 57 17 3e
       0.037714805 0.30081907 0.12042665 0.14779575
000030 5f 44 00 be ee 56 52 be 5b 60 1f bb 74 ed ac 3e
       -0.12526082 -0.20540974 -0.0024318907 0.33774912
000040 dc f5 2c 3e c2 db 1d 3d 12 b2 14 be 8e 34 fe bd
       0.16890663 0.038539656 -0.14521053 -0.12412368
000050 2c c9 c0 bc 4e fb 9a 3e 76 f2 98 3b ce 87 d3 3d
       -0.023533426 0.30269855 0.0046675755 0.10328637
000060 92 bf 24 be 8d 25 d1 bc ec 1c 89 bd 96 c7 75 3e
       -0.16088703 -0.0255306 -0.066949695 0.24001917
000070 f4 b2 a1 3c 37 ad 04 3e 28 69 aa bd b7 e6 d6 3c
       0.019738652 0.12956701 -0.08320838 0.02623306
000080 e3 88 1e bd ff d0 82 3e 97 88 20 3e f2 0b 3a 3e
       -0.038704764 0.25550076 0.15677105 0.1816862
000090 b1 7b 07 3d e5 d2 25 3e 01 39 75 3d 80 11 bc 3e
       0.033076946 0.16193731 0.059868816 0.367321
0000a0 eb 46 03 3e 75 8a 21 3e fe c0 51 be 04 78 37 3e
       0.12820022 0.15775473 -0.20483777 0.17916876
0000b0 0e 76 f9 3d 3a 67 d3 3e 57 71 9f 3c 00 08 fa 3c
       0.1218072 0.41289693 0.019463224 0.030521393
0000c0 21 e1 ec bd b8 ce d1 3d f7 c2 aa bc 62 ad a1 3e
       -0.115663774 0.102445066 -0.02084492 0.31577593
0000d0 7a 1d 36 bd fb 8b 89 3d 77 90 9b be 9e 32 70 3e
       -0.044461705 0.06716152 -0.30383655 0.23456809
0000e0 cc c2 ef 3b e9 3b 7f 3e 72 11 5f 3c aa 9b 60 bd
       0.007316923 0.24925198 0.013614999 -0.054835953
0000f0 96 01 fd 3d 1b 45 84 3f db b7 64 3d 9b f0 2c 3d
       0.12353818 1.0333589 0.0558394 0.042221647
000100 f6 de c3 3d a2 d9 f1 3d 3c cb f5 bd c7 29 90 3d
       0.09564011 0.11809088 -0.120016545 0.070392184
000110 4f da 02 3e 58 8f 4a 3e cb 8a 01 3e 4b 2f 34 3e
       0.1277859 0.19781244 0.12650602 0.17596166
000120 73 26 13 3e 3a 6c 58 bc 64 b8 4f 3d 37 e9 fd 3e
       0.14370136 -0.013209397 0.050712958 0.4959199
000130 94 a6 58 bf f3 d9 75 3d bf de 2b 3f 31 c5 dc bd
       -0.8462918 0.060022306 0.6713676 -0.10779799
000140 bc 9a 30 be 1d 8c 52 3f 7e f9 25 bd 93 4c ab 3e
       -0.17246526 0.82245046 -0.040521137 0.3345686
000150 15 2a 45 3f b3 2a a8 bd 4b df b8 bd 7d c2 b7 3e
       0.7701734 -0.08211269 -0.09026965 0.3589057
000160 58 e3 06 3e 0b 91 a2 3e c6 ae 50 3f cd 0d d1 bd
       0.13172662 0.31751284 0.81516683 -0.102077104
000170 15 04 25 be 36 96 01 3f 25 8b c8 3d f4 e9 08 be
       -0.16114838 0.5061983 0.09792165 -0.13370496
000180 58 4c 3f 3f 05 4e 55 be e6 98 dd bd be e0 74 3f
       0.74725866 -0.20830543 -0.10820179 0.9565543
000190 a5 da 09 3f 39 ca 6c 3e 55 72 30 3f 5c 2d 02 be
       0.5384925 0.23124017 0.68924457 -0.12712616
0001a0 9a 76 16 be 9d 96 13 3f 7b 23 7f 3e 53 e3 94 3c
       -0.1469368 0.5765169 0.24915878 0.018174803
0001b0 70 10 0f 3f 0d 3a c3 bd 59 77 86 bd 98 30 8a 3f
       0.55884457 -0.09532557 -0.065657325 1.079608
0001c0 cc 37 22 3f 55 6d 19 be 3b 52 f4 3e 27 b3 3f be
       0.6336639 -0.14983113 0.47718987 -0.18720685
0001d0 13 dc 10 be ba ae 2c 3f 0f 67 1e bf 6f 1f bc bb
       -0.14146452 0.6745411 -0.61876005 -0.005741052
0001e0 ef 38 2b 3e 4a 8b a5 be c9 a8 c5 be e1 98 4d 3f
       0.16720937 -0.32332832 -0.38605335 0.803114
0001f0 52 8d 0a 3f a3 00 84 3d 04 d6 fe 3e 7e 04 66 be
       0.5412189 0.06445434 0.49772656 -0.22462651
000200 8f dc 5a bd 5d 80 a8 3f b0 50 0f bf d5 8a 20 3e
       -0.053432997 1.3164173 -0.55982494 0.1567796
000210 a5 9c 04 3f cc a9 02 3e 42 21 a1 bd d0 a0 00 3e
       0.5180152 0.12760085 -0.078676715 0.12561345
000220 d9 29 86 3f ed 56 c7 3b 3c 29 32 3d 2c f8 8a bc
       1.0481521 0.0060833604 0.043496355 -0.01696404
000230 1d 24 e6 3d 38 82 3f 3d 58 be df bb 07 33 66 be
       0.11237357 0.046755046 -0.0068281107 -0.22480403
000240 f0 dc 5c be 14 59 17 be d4 aa 78 be 94 49 33 bb
       -0.21568656 -0.14780074 -0.24283916 -0.0027357088
000250 87 ec 1f 3d 23 49 30 be 87 92 ea 3e 16 0f 8e 3e
       0.03904393 -0.172154 0.45814916 0.27745885
000260 d6 5f 42 3f 4f be 85 be 44 f0 80 3e d1 0a 9b 3e
       0.75927484 -0.26121756 0.25183308 0.3028169
000270 59 89 01 3f 97 79 d2 be 31 14 33 3f a9 df 35 bf
       0.506002 -0.4110839 0.69952685 -0.71044403
000280 ac 7f 6a bc 40 ce 13 3e 88 61 e3 3e 1a 38 0e bf
       -0.014312666 0.14434147 0.44410348 -0.55554354
000290 11 77 81 3f e1 eb 26 bf d3 2d 7a bd 8b ff d2 3c
       1.0114461 -0.6520367 -0.061078858 0.025756618
0002a0 a4 5a 74 3e d2 39 34 3d dc 25 2a 3f fc ca 54 bf
       0.23862702 0.044000454 0.6646402 -0.8312223
0002b0 ea 8c 85 bd 0f f9 33 be bd 2b 8a bd ef 11 77 bd
       -0.06521018 -0.17575477 -0.06746624 -0.060319837
0002c0 92 fa b7 3e 36 f9 22 bf 5d 2b de bd f0 41 be 3d
       0.35933357 -0.63661516 -0.10848115 0.0928992
0002d0 b1 6f 11 3f 76 db 34 be 39 d6 35 3f 5a 76 e3 be
       0.5681105 -0.17661843 0.7103 -0.44426233
0002e0 71 c5 4b 3d 0f 43 3a 3d 2f da 7d 3e 94 53 d7 3d
       0.04974884 0.04547411 0.24790262 0.10513988
0002f0 b8 bc 92 3e 31 a7 e7 be 56 f1 bd bc 14 d6 ed 3d
       0.28659606 -0.45244744 -0.023186367 0.11613098
000300 74 4a 84 3f 28 c1 41 bc 45 42 82 3f 82 8e d1 be
       1.0335221 -0.011825837 1.0176474 -0.40929037
000310 1a f5 e3 3c 76 5e aa 39 9d 40 2a 3f 75 fd 80 bb
       0.027826834 0.00032495306 0.6650484 -0.0039364644
000320 2f 0b 04 be 26 4c 84 be 36 61 75 bd bf c9 86 3d
       -0.12894891 -0.25839347 -0.05990716 0.06581449
000330 6c 7a 09 3e 30 20 25 be 90 96 4a bb a5 44 79 be
       0.13425606 -0.1612556 -0.0030912496 -0.24342592
000340 a6 dd 31 3e 50 aa 03 3e f8 72 01 3f 72 74 30 3f
       0.17369708 0.12857938 0.50566053 0.6892768
000350 5a e3 3b bb 49 f4 18 3e 47 07 90 be 2b 50 7d bc
       -0.0028669448 0.14936937 -0.28130552 -0.015461008
000360 c0 13 b3 bb cc d4 e0 bc 46 1c 7a 3d 09 41 04 3d
       -0.005465001 -0.02744522 0.06106212 0.032288585
000370 d6 23 e0 3c d2 d0 20 3e 05 84 0d be 11 5c 8f bd
       0.027360838 0.15704659 -0.13819893 -0.06999982
000380 32 18 02 3e fc af ae bc ef 9d 86 bc d9 1c 82 3e
       0.12704542 -0.02132415 -0.01643273 0.25412634
000390 8a a7 97 3e 67 97 07 3d 90 cb 24 3d c3 e3 c8 bd
       0.2962001 0.033103373 0.040233195 -0.09809067
0003a0 44 b8 81 3e 82 24 bf 3e de 38 13 3e 20 17 04 3d
       0.25335896 0.3733254 0.14377162 0.032248616
0003b0 81 8c 49 3e a1 a9 91 bd 3c 7a 47 3b 59 2b 21 3e
       0.19682504 -0.07112432 0.0030437848 0.15739192
0003c0 55 32 7e 3d 1f 21 58 3d fd 49 5b bd 01 1a 11 bd
       0.06205972 0.05276596 -0.053537358 -0.03542519
0003d0 ce 9a e2 bd c9 7a 6a 3e 0e ab 6c 3e 6a 05 38 3d
       -0.11064683 0.22898401 0.23112127 0.04492704
0003e0 6e fa 72 bd e7 0d 68 be 95 a6 06 3d ce ed 68 3d
       -0.05932086 -0.22661553 0.03287371 0.056867413
0003f0 ab 7e ae 3e 4a 79 08 bd 4c d4 15 3d 2b 6e ea bd
       0.34081015 -0.033318795 0.036579415 -0.11446794

fc1.bias f4 [64]
000000 05 fd 95 3f a0 c7 0b bf c5 ba 77 3f 82 af aa 3f
       1.171784 -0.5460148 0.9676936 1.3334811
000010 95 8b c4 bd 06 74 6b 3f da d7 6a 3f f0 51 46 bf
       -0.09596936 0.9197391 0.91735613 -0.77468777
000020 31 8f 0d bf bd f3 05 bf 26 e1 96 be 94 8c 85 3f
       -0.5529662 -0.5232504 -0.2946865 1.0433526
000030 20 82 2a bf 8f e7 32 bf 5a 29 50 3f cb 41 20 bf
       -0.66604805 -0.6988458 0.813131 -0.6260039
000040 18 cd 81 3f 91 1d 8a 3c 22 d8 92 be e7 95 d3 bf
       1.0140715 0.016859801 -0.2868052 -1.6530122
000050 55 3f 5e 3f 3a d5 66 3f c3 2e 19 3f a8 3f ae bf
       0.86815387 0.9016911 0.5983698 -1.3613176
000060 b9 ee c0 3e 76 b2 3b bf ea 46 96 3f 9e 53 0b bf
       0.3768213 -0.73319185 1.1740391 -0.54424465
000070 0e 7e b1 3e 7a 09 fc be 89 8b 39 40 38 e8 93 3f
       0.34666485 -0.4922598 2.8991416 1.1555243
000080 77 88 8c 3f dc f7 17 bf d1 8c cd be d8 03 a6 3f
       1.0979146 -0.5936258 -0.40146497 1.2969923
000090 9e a4 4e bf a7 30 48 bf 13 ae c9 be 70 6b 42 bf
       -0.80719936 -0.7819924 -0.3939062 -0.75945187
0000a0 5d 55 34 bf 17 42 12 bd 7f 8f 14 bf 2f 6b 72 be
       -0.70442754 -0.03570756 -0.5803146 -0.236737
0000b0 33 b4 78 be 52 46 43 bf b8 7c 50 bf e0 59 53 3e
       -0.2428749 -0.76279175 -0.81440306 0.20639753
0000c0 a4 1f 66 bf 3d 39 ff 3b 27 b3 98 3f 40 f0 bb be
       -0.8989203 0.0077888058 1.1929673 -0.36706734
0000d0 20 0d 9c be 34 26 6b 3f ac fc 8b 3f ec 25 c8 3e
       -0.30478764 0.9185517 1.0936484 0.39091432
0000e0 83 20 84 3f 52 f3 a1 3f 76 00 e5 bf ff 85 b1 bf
       1.0322422 1.265238 -1.7890766 -1.3869017
0000f0 d7 e2 7e bf 10 f7 88 3f b7 10 d0 be 3c 88 e1 3d
       -0.9956488 1.0700397 -0.40637752 0.11012313

fc2.weight f4 [64, 64]
000000 6f bc 00 be f1 8e 50 bc 4e e3 4f bd d9 6e 67 3d
       -0.12571882 -0.012729392 -0.050753884 0.056502197
000010 52 a0 d8 bd 06 46 00 be fa 84 d2 b9 ce fa c8 3d
       -0.10577454 -0.12526712 -0.00040153397 0.09813462
000020 82 62 c5 3d 5d d1 a6 bd fc f1 8d 3c d6 d2 21 bd
       0.096379295 -0.081454016 0.017327301 -0.03950771
000030 a4 6a 65 3d ed f0 f7 bd a8 69 e4 3d ca b2 84 bd
       0.056009904 -0.121065 0.11152965 -0.06479414
000040 ef 52 5d bd 5a 1a 33 3d 88 98 ca 3c 52 93 08 be
       -0.05403417 0.043726303 0.024730936 -0.13337448
000050 95 7c d4 bc 22 15 b5 bc e6 4f a0 3d 0a b0 bd 3d
       -0.025938312 -0.022104803 0.078277394 0.092620924
000060 34 7b ba bc 9a e5 8c 3d c4 e3 b1 bd ae b7 f5 bc
       -0.022763826 0.068797305 -0.08686021 -0.029994812
000070 db ed e9 ba 5f 47 b5 bd 50 d4 c0 3c 22 36 d1 3d
       -0.0017847376 -0.088515036 0.023538738 0.10215403
000080 fa b4 e5 bd 44 1f cd 3d 0c 11 de 3d 7f 89 10 bd
       -0.11216159 0.10015729 0.10843095 -0.035287376
000090 72 0a 98 bc 3e a2 5c bd 1b f9 ba b8 69 62 d8 3d
       -0.018559668 -0.053865664 -8.915571e-05 0.10565645
0000a0 79 ef 18 3d a2 e4 b1 3d 42 3c 93 3d 26 84 a1 3d
       0.037337754 0.086861864 0.07189228 0.078865334
0000b0 1b 1d 6a 3d 00 01 7c bd 35 39 0e bd 6e 10 d4 bd
       0.057156663 -0.06152439 -0.034722526 -0.10354696
0000c0 24 79 5a 3d 6d 51 d4 3d 27 07 01 be c4 39 58 bd
       0.053338185 0.10367093 -0.12600385 -0.052789465
0000d0 54 77 94 3c 60 1f f3 3c 66 bb 0e be b3 c6 e3 bc
       0.018123306 0.029678047 -0.13938674 -0.027804708
0000e0 a9 2e 0d bc 00 07 e3 bd e5 ae 04 3b cc 20 14 bd
       -0.008617082 -0.110853195 0.0020245847 -0.03616409
0000f0 55 81 00 be 8f 41 ef bd 7b 68 ca bb 14 8d 5d 3d
       -0.12549336 -0.11682426 -0.006177006 0.05408962
000100 c6 2e d3 bd 7c 33 30 bd e6 75 87 bd c0 9d a3 3c
       -0.10311656 -0.04301785 -0.06614284 0.019972682
000110 52 91 8d 3d 5c 6f c7 bd b4 7b a4 bd b2 1c ec 3d
       0.06912483 -0.09738037 -0.08031407 0.11528911
000120 50 61 47 3d a0 1a fe 3b 46 69 ab bd ca 88 ea bd
       0.04867679 0.007754639 -0.08369689 -0.11451872
000130 7c 11 02 3d 38 1d 46 bd b8 86 58 bd 50 56 b0 bc
       0.031754956 -0.04836771 -0.052862853 -0.021525532
000140 e0 d8 5f bc 90 cf 08 bc 48 8a e0 bd c8 02 87 bc
       -0.013662547 -0.008350268 -0.10963875 -0.016480818
000150 70 5d cc 3d 6c 17 97 bd a0 ee 69 3c 3c 53 85 bd
       0.09978759 -0.07377514 0.014278084 -0.06510016
000160 58 e5 86 bd 64 b0 f5 bd e6 3e 9c bd f0 ad df 3d
       -0.065867126 -0.119965345 -0.076291844 0.10921848
000170 90 18 a9 bc 84 a3 87 bd 7c d3 73 bd a0 b0 da 3c
       -0.020641595 -0.06622985 -0.05952786 0.02669555
000180 60 ff 62 bc 64 a5 56 bd 90 14 2b bd aa e1 f9 bd
       -0.013854831 -0.052403823 -0.041767657 -0.12201245
000190 ee 6d ce 3d 38 a1 f0 3c b4 30 2b 3d 74 80 c4 bd
       0.10079561 0.02937375 0.041794494 -0.09594813
0001a0 5e 71 e0 3d d0 39 1f bc 48 68 e3 bc b0 7c ab 3d
       0.10959123 -0.009718373 -0.027759686 0.08373392
0001b0 b2 5e f3 bd 04 27 03 3d b0 84 06 3d 30 64 0d bd
       -0.11883296 0.03201963 0.032841384 -0.034519374
0001c0 ea a3 c7 bd d4 05 50 3d 60 04 0e bc 92 c8 fc 3d
       -0.09748061 0.050786808 -0.008668035 0.12342943
0001d0 68 66 9c 3d e0 9c 61 bd 30 96 0b bc 80 12 37 3c
       0.0763672 -0.05508125 -0.008519694 0.011173844
0001e0 74 49 0f bd 18 88 c6 bd 3e 10 9a 3d 98 a0 c1 3c
       -0.03498216 -0.096939266 0.07522629 0.023636147
0001f0 dc a0 9f 3d 60 e5 1b bd ea 5d 9c 3d 10 fa fc 3d
       0.07794353 -0.038060546 0.076351 0.12352383
000200 e1 41 31 bd b7 79 84 bf 51 c8 02 3f 59 22 47 be
       -0.043275718 -1.0349644 0.5108691 -0.19446696
000210 dd a6 98 3c 9c eb 5f 3e 9b 9b 38 3d 05 32 79 be
       0.018634254 0.21867222 0.045070272 -0.24335487
000220 3e c4 01 3f 29 d2 62 3d a3 a3 07 3d 48 dd 58 be
       0.50690067 0.055376206 0.03311504 -0.21178162
000230 51 61 a0 3e ee 9a da 3e d1 3d f0 3e b0 a5 02 bf
       0.31324247 0.42696327 0.46922162 -0.5103407
000240 b1 50 bd 3e d7 ef 1d be bd 24 88 3e 03 a6 c4 3c
       0.36975625 -0.15423523 0.2659053 0.024004942
000250 1a 45 ff 3e 72 d9 10 bf f7 25 ae 3e fe 66 80 3d
       0.49857408 -0.56581795 0.3401334 0.06269644
000260 5d c8 ee 3e 0f 9e 64 3c c1 84 3c be 60 89 06 bf
       0.4663724 0.0139537 -0.18410017 -0.5255337
000270 58 41 85 bd 9f 7b bb 3e 95 97 77 c0 9c 89 62 3d
       -0.06506604 0.36617753 -3.8686268 0.055307016
000280 b5 1f 1b bd 98 02 f8 3d 0d 33 c7 3e 21 60 30 bd
       -0.037872035 0.1210987 0.38906136 -0.043060426
000290 3a d5 16 bd b3 32 a9 3d 4b 4d 1d 3f 4c fb 40 3e
       -0.036824442 0.08261623 0.61446065 0.18845862
0002a0 be e4 22 3e ab bd 12 3f 71 b5 a0 3e 1f da 80 bf
       0.1590757 0.5732066 0.3138843 -1.0066565
0002b0 0e 0f c3 3d 4d f1 c2 3d 73 44 88 bd a7 a1 ee 3d
       0.09524356 0.09518681 -0.06653681 0.116519265
0002c0 a8 1e 9f 3f c0 70 90 3f c1 18 f6 bd 8a b3 e1 be
       1.243123 1.1284409 -0.1201644 -0.4408229
0002d0 9c cd 1c 3f a9 92 40 3e 10 a7 23 c0 b8 81 72 3e
       0.61251235 0.18805946 -2.5570717 0.23682296
0002e0 2d 66 47 be 3f 70 4b 3d 38 d6 1c be cb 12 69 bf
       -0.1947257 0.049667593 -0.15316093 -0.910443
0002f0 af 1a db be a2 e4 90 be f6 af d3 3e 67 e9 8b 3e
       -0.42793795 -0.28299433 0.41345185 0.2732651
000300 38 46 05 bd c5 40 c3 bf 55 09 b7 3e fa aa c0 3d
       -0.03253767 -1.5254141 0.35749307 0.09407611
000310 09 f3 cd bd 58 d4 74 3e 86 10 60 3e 45 fb 3c be
       -0.10056121 0.23909128 0.21881303 -0.18455227
000320 c3 cf a5 3e 29 c6 0b be d1 7d b6 bc 97 02 0e be
       0.32385072 -0.13649811 -0.02227679 -0.13868175
000330 5d cc 28 3e 4d c7 2c bd 3e 12 cf 3f 40 91 67 bf
       0.16484208 -0.042182256 1.6177442 -0.9045601
000340 b8 bb a8 3d 73 3d 10 bf 38 57 4c 3e 99 fe 07 be
       0.082389295 -0.56343764 0.19955146 -0.13280715
000350 b4 ca e2 3e b3 ef f6 be 40 76 a0 3e 23 b5 7c 3d
       0.44295275 -0.4822975 0.31340218 0.061696183
000360 eb 19 14 3f 09 a0 04 be 9c 70 0d 3e 80 66 d9 be
       0.5785205 -0.12951674 0.13812488 -0.42461014
000370 e3 9e d9 bd d9 4f 85 3d c4 22 62 c0 4f 36 bf 3d
       -0.10626008 0.0650937 -3.533372 0.093365304
000380 d5 e7 2f bd 6a 03 ff 3d 0b fb 1b 3f 09 a5 70 3d
       -0.0429457 0.12451823 0.60929936 0.05875114
000390 5a 55 96 3d a6 37 89 bc 42 0f 7e 3f d8 9b 58 3d
       0.07340498 -0.016750168 0.9924203 0.052883
0003a0 bd a9 b2 3b 3b db a8 3e 38 a8 c9 3d cc 43 82 bf
       0.0054523633 0.3297976 0.09846538 -1.017694
0003b0 12 ca 16 3d 00 7c d8 bd 64 27 35 3d 0f 5f a1 bb
       0.036813803 -0.10570526 0.04422702 -0.004924662
0003c0 0b cf 67 3f ae 49 ec 3e 6a a0 5c 3d 47 e2 f0 be
       0.905503 0.46149963 0.05386392 -0.47047636
0003d0 4b f5 30 3f 3c 13 59 3e 2c 2d b5 be 73 7d 38 3e
       0.6912429 0.21198744 -0.35386026 0.18016605
0003e0 e2 ba 77 bc cd d8 12 bd 01 0c c2 be 28 c0 88 bf
       -0.01512024 -0.03585129 -0.37899783 -1.0683641
0003f0 e5 26 93 bf 11 7a 16 be 41 06 8b 3e 24 f8 46 3f
       -1.1496245 -0.14695002 0.2715321 0.7772238

fc2.bias f4 [64]
000000 e6 4d 9a bb b8 37 8a bd fd 98 d7 3e ab e9 ea 3e
       -0.0047089932 -0.06748909 0.42108908 0.458814
000010 1b fd ad 3f f7 35 d0 3e 53 48 56 3e 73 48 d7 3e
       1.3592867 0.40666172 0.20926027 0.42047462
000020 92 ea f0 3e b9 bd 1f 3c 9d 54 93 3f 1c 81 a6 3f
       0.47053963 0.009749823 1.1510197 1.3008151
000030 22 61 ca be b9 3c 43 be 5a e7 48 3e ae 8b 97 3a
       -0.3952723 -0.19066133 0.19619504 0.0011562014
000040 b3 6b 9b 3f 7f 03 12 bd 6f ad ce 3e 30 4d ef bd
       1.2142242 -0.035647865 0.40366694 -0.11684644
000050 49 44 92 3e 6f c7 a2 3d 19 af ad 3e 42 26 9a 3f
       0.28567722 0.07948195 0.3392265 1.2042925
000060 7e 1e 0a bf 5f 31 08 3f 20 01 83 bd 55 97 fe 3e
       -0.5395278 0.53200334 -0.06396699 0.49724832
000070 ca 72 ba be b4 52 1a 3f af 58 bb 3d 4f c9 9c 3f
       -0.36415702 0.60282445 0.091477744 1.2248935
000080 a9 21 8e bf 7a dd dd 3e 21 11 3b bf f8 7f ed bd
       -1.1104022 0.43333036 -0.7307301 -0.11596674
000090 e1 05 bc 3e 57 bd 9c 3f 51 8e a6 3f e1 41 d8 3d
       0.36723235 1.2245282 1.3012182 0.105594404
0000a0 eb b1 b6 3e 9c 65 a8 3e 29 a0 a2 3f a0 e0 85 3e
       0.35682616 0.32890022 1.2705127 0.26147938
0000b0 d8 21 d4 be c0 e3 1d be eb cc a1 be 07 2d b1 3f
       -0.4143207 -0.15418911 -0.31601653 1.3841866
0000c0 6b 77 ce bd be ca 87 3f b9 87 95 3f a6 d6 9e 3f
       -0.10081371 1.0608747 1.1682044 1.2409256
0000d0 b8 37 56 3e 44 e2 02 3e 99 1e 81 bd 31 bb 25 3e
       0.20919693 0.12781626 -0.06304664 0.16184689
0000e0 ac bb b9 bd b0 d4 92 3f b9 0a 3d 3e 16 4c 2e bf
       -0.09068999 1.1471157 0.18461122 -0.6808485
0000f0 07 3c 9b bf ce 1d ca bd c8 0e d2 be 44 27 2b bf
       -1.2127694 -0.09868966 -0.41026902 -0.6685679

fc3.weight f4 [64, 64]
000000 7f 6c ed bd f6 c2 f2 3d c7 d4 5c be b8 85 e7 be
       -0.115929596 0.11853592 -0.21565543 -0.45219207
000010 12 e2 44 3f ab eb a6 bc c7 7c 11 bf 39 5a bb be
       0.76907456 -0.020376047 -0.5683102 -0.36592272
000020 6a fb af be 8a f1 81 3b 87 75 8f 3f 9f b3 6b 3f
       -0.343715 0.0039655613 1.1207741 0.92070955
000030 fb 73 95 bf 17 51 32 be 3e 33 91 be dc bb 2a bf
       -1.167602 -0.17413746 -0.28359407 -0.666929
000040 e8 71 33 3f a4 cc 3c be c5 28 fd 3f a9 5b 93 be
       0.7009568 -0.18437439 1.9778067 -0.2878087
000050 81 c9 49 be 89 3c c0 3f 02 db 94 be 8c 0c 44 3f
       -0.19705774 1.5018474 -0.2907334 0.76581645
000060 bb a2 94 bf 67 67 bf be 17 58 00 bc df ab f6 be
       -1.1612161 -0.37383577 -0.007833502 -0.48178002
000070 9a 81 a2 bf 52 11 9d be de 36 8e be 24 1e 98 3f
       -1.2695801 -0.30677277 -0.27776235 1.1884198
000080 0a 9a 79 3f de 8f 82 bd cf 93 6d 3f dc 09 bd 3d
       0.9750067 -0.06375097 0.92803663 0.09230396
000090 8e ce 14 be 85 76 71 3f d9 64 5f 3f 8b 0c a1 bd
       -0.1453192 0.9432147 0.87263256 -0.078637205
0000a0 37 9e 62 be 9e 08 27 be 88 fe 31 3f cc 71 b1 be
       -0.22130667 -0.16311881 0.6952901 -0.34657133
0000b0 0f 18 bd 3e ec 2d b1 3d 78 49 2d bf 30 2f 4a 3f
       0.36932418 0.08651337 -0.6769023 0.7897825
0000c0 2c f6 74 3d 4a 0f 22 3f 84 c7 6d 3f ad 1f 29 3f
       0.05980508 0.6330458 0.9288256 0.6606396
0000d0 50 79 3d bf a8 77 06 be fd 5a 4c bd 4b aa 95 bd
       -0.74013233 -0.13131583 -0.04989146 -0.073078714
0000e0 ee 23 bb 3d d0 8a 86 3f e7 b1 80 be fe 17 94 bf
       0.091377124 1.0511112 -0.2513573 -1.1569822
0000f0 8f 89 a2 c0 08 36 6f 3d 41 87 df 3e 1c 7e a4 3f
       -5.079292 0.058401138 0.43657878 1.2850986
000100 56 67 87 3d 38 6f 61 3d ad 9e 89 3c c6 24 20 3d
       0.06611507 0.055037707 0.016799295 0.03909757
000110 c4 f1 18 bd 77 a7 bb 3d 36 fb d7 3b 49 c7 4e bd
       -0.03733994 0.09162801 0.006591226 -0.050483022
000120 ca e9 ba bd 2c 92 b8 bd 36 6d ff bd b4 ff 42 bd
       -0.09126623 -0.09012255 -0.12472002 -0.04760714
000130 b8 cb ab 3d d2 db bf 3d d6 5d 6b bc b7 09 c2 3b
       0.08388466 0.09368099 -0.014365634 0.0059215683
000140 f0 e2 83 bd f8 8c 45 bc 73 63 ef bc a0 f8 55 3d
       -0.06439769 -0.012057535 -0.029222226 0.05223906
000150 98 f4 c2 3d 16 02 cf bd 4a a9 b0 3d bc 57 da 3d
       0.09519309 -0.1010782 0.08626039 0.10661265
000160 7d fa 72 3d 2a ba 8c bc 22 47 84 3d fd e8 8e 3c
       0.059320915 -0.017178614 0.0645888 0.017445082
000170 f9 1b 6a bd ee 26 db bd 0a b5 e3 3d ec 27 ad bd
       -0.057155583 -0.107007846 0.11118515 -0.0845488
000180 d9 67 35 bd 16 cf 88 bd f2 e7 a8 3d ec 2c c4 3d
       -0.04428849 -0.066801235 0.08247365 0.09578881
000190 45 38 15 bc 5a bc 8e 3d 02 61 8f bd 1e b8 8b bd
       -0.009107654 0.06969519 -0.07000925 -0.06822227
0001a0 b6 cb 68 bd 88 40 0a be b4 ff b7 bd fd 68 e8 bd
       -0.0568349 -0.13501179 -0.089843184 -0.1134815
0001b0 9d 7c fe bd 20 e9 bd 3c 36 aa b3 bd 1c 3e 54 3d
       -0.12426112 0.023182452 -0.087726995 0.051817045
0001c0 20 06 c7 3d 06 42 fb 3d 20 4e 4b bc 60 97 85 3c
       0.09717965 0.12268452 -0.012408763 0.016307533
0001d0 96 28 b4 3b fb 49 98 bc a0 7d 44 3d fe b5 44 bd
       0.0054980023 -0.018589964 0.047971368 -0.048025124
0001e0 e8 aa 7d 3d 00 50 94 3a 20 04 92 3d 79 7f 5f 3d
       0.061930567 0.0011315346 0.07129693 0.054564927
0001f0 22 86 d4 bd 38 9f e5 bd 73 df cd bc a4 de 04 bc
       -0.10377146 -0.11212009 -0.025130963 -0.008109722
000200 4e 78 8b 3d 44 4d 4c bd fb 8c 2c 3f 73 4d 6f 3f
       0.06810056 -0.049878374 0.6740262 0.93477553
000210 bf f1 87 be 47 c5 f0 3e a4 a3 84 3f 1c 00 30 3f
       -0.26551625 0.4702551 1.0362439 0.68750167
000220 c4 b6 68 3f 30 86 be bd 02 a6 70 3e 0c 28 ca bd
       0.9090388 -0.09302938 0.23500827 -0.098709196
000230 fd ea cb 3e 2e 1a 64 3e 66 ce 4d 3f c3 f2 83 3f
       0.3982772 0.22275612 0.80393064 1.030846
000240 7a d8 55 3e a9 86 08 3e 72 4b 87 c0 b8 84 d6 be
       0.2088336 0.13332619 -4.2279596 -0.4189813
000250 4f a3 9d 3e 38 3d ee c0 75 3e 2b 3f 8d 99 b2 3e
       0.30788657 -7.444973 0.66892177 0.34882775
000260 17 91 7f 3f 7f 4f 68 3f 32 96 6a bd 12 40 84 3f
       0.99830765 0.907463 -0.057272144 1.0332053
000270 f1 5d 95 3e 64 8e 36 3f b1 be 2c 3f 1c fc d3 bd
       0.29173234 0.7131102 0.6747847 -0.103508204
000280 49 ac eb bf 4a ce 47 3f 77 b3 db bf 8a 74 d0 3d
       -1.8411952 0.7804915 -1.7164143 0.10178478
000290 44 ab 9f 3e 23 a3 0a 3d 6e 17 e0 3d 4d 89 a2 3e
       0.31185353 0.033846986 0.10941969 0.31745377
0002a0 dd b6 ee 3e 21 d7 e1 3e d5 ba df 3d 20 62 43 3f
       0.4662389 0.44109443 0.10924307 0.763216
0002b0 e5 37 76 bd 08 02 c8 3d 00 bf 27 bf e5 8a 76 bd
       -0.0601119 0.097660124 -0.6552582 -0.060191054
0002c0 06 3d df 3d 0e ce b1 3e 5e 75 92 3e 60 08 8a bc
       0.10900311 0.3472752 0.2860517 -0.016849697
0002d0 dd 21 72 3f 52 ff f1 3d 94 7e 54 3d 3d d7 a4 3e
       0.9458292 0.118162766 0.051878527 0.32195464
0002e0 8e 7e fd 3d 15 eb 80 3d e9 95 83 3f fc c0 89 3f
       0.12377654 0.06294838 1.0280124 1.0762019
0002f0 e2 3b 58 3e 04 1d 98 bd 43 89 d0 bd b4 aa de bf
       0.21116593 -0.07427409 -0.101824306 -1.7395844
000300 9c 59 91 bc 40 c4 de bd a0 b8 51 be d6 9b 89 bf
       -0.017742924 -0.108772755 -0.20480585 -1.0750682
000310 77 76 d1 be a8 d2 f5 3d dd fd da 3b 9f 57 e6 bd
       -0.40910694 0.1200307 0.006683095 -0.11247181
000320 50 0b 97 be 60 a6 b3 3d 17 89 6e 3e 46 1a 9f be
       -0.29500818 0.08771968 0.23294483 -0.31074733
000330 c8 05 02 3f 48 aa 9e 3d e7 e4 10 3e 46 04 ca 3e
       0.5079007 0.07747322 0.1414982 0.39456385
000340 79 83 40 be 84 b0 42 3d 59 4a e8 3e 72 c3 2c bf
       -0.18800153 0.04753162 0.45369223 -0.67485726
000350 c1 82 d5 3d 9f a9 79 3d 36 35 0e be 9c df 7d 3d
       0.1042533 0.06095278 -0.13887486 0.06198083
000360 84 80 08 3f 6c 18 14 be d4 cc 73 bc 90 38 49 be
       0.533211 -0.14462441 -0.014880378 -0.19650483
000370 20 c5 9c 3e ca 78 43 be 4f 9e 54 3e 63 4b 18 bf
       0.30619144 -0.19089046 0.20763515 -0.5949003
000380 6e 54 ee 3e a3 13 e7 be de 40 b9 3e f4 4c 6b bd
       0.4654879 -0.4513217 0.36182302 -0.057446435
000390 6c dd 38 3e 36 8d b2 be 39 38 19 be 14 28 19 3d
       0.18053216 -0.3487336 -0.14962853 0.037391737
0003a0 6f 7b b1 3d c3 02 7f be dd f9 98 be 50 b4 88 be
       0.08666121 -0.24903397 -0.2987813 -0.26700068
0003b0 f2 c2 27 3f 9e ea 4e bd 48 ac 74 bf c2 9e 77 be
       0.6553184 -0.050516717 -0.9557538 -0.24181655
0003c0 ac 6f 27 bd 47 14 28 3d 4d 52 60 be 8e 79 c4 bd
       -0.040877983 0.041034963 -0.21906395 -0.09593497
0003d0 12 2a b3 3e f4 c0 8a bd 86 46 86 bd 20 43 04 3e
       0.34993035 -0.06775084 -0.0655642 0.12916231
0003e0 ea 07 e9 bd b0 19 55 bf db d7 26 bf ce f1 14 3f
       -0.113784626 -0.8324232 -0.6517312 0.58181465
0003f0 16 91 56 3f f6 82 f4 3d ad b8 97 3e dd e5 e3 3e
       0.83815134 0.11939041 0.29633084 0.4451131

fc3.bias f4 [64]
000000 a6 cd a1 3f fa 26 f5 bc 7f ab 4d be 99 45 8c bf
       1.2640884 -0.029925812 -0.20084952 -1.095874
000010 d6 c9 13 3e 6c 46 99 3f 43 9b 0c 3f bd 57 9c 3f
       0.14432463 1.1974616 0.5492441 1.2214276
000020 fb bb 96 bf 22 e5 5d 3f 57 73 01 bf e1 9b 94 bf
       -1.1776117 0.86677754 -0.5056662 -1.161007
000030 f9 3c a1 3f 58 d0 9d 3f 42 b9 ae bf 5a 0e 89 3f
       1.2596732 1.2329206 -1.3650286 1.0707505
000040 32 e9 9b 3f bd dd 2c bf f4 b6 ec bd 9f 41 1e bf
       1.218054 -0.67525846 -0.11558333 -0.6181888
000050 17 90 34 3f ec f6 8d be 0b 52 54 bd 88 34 10 bf
       0.70532364 -0.2772745 -0.051836055 -0.56330156
000060 45 36 32 3f 1a 38 0e 3f 0d 98 a1 bf 44 36 a7 3f
       0.6961406 0.55554354 -1.2624527 1.3063436
000070 35 43 22 bf c0 2c b7 bd 70 2f 18 be 81 01 a8 3f
       -0.633838 -0.08944082 -0.14861846 1.3125459
000080 50 d6 e7 be d7 cc 08 be 2c 99 9f 3f 72 59 e7 be
       -0.45280695 -0.1335939 1.2468619 -0.4518543
000090 06 f5 90 3f a8 30 cb bc ee c5 0a be 46 c0 87 bf
       1.1324775 -0.024803475 -0.13552067 -1.0605552
0000a0 f3 6a a4 3f f8 5e e8 be 86 82 8c 3f e9 8e 85 3f
       1.2845138 -0.45384955 1.0977333 1.0434238
0000b0 5a 84 50 3f 7d d6 01 be 29 69 82 bf 62 3d e4 3e
       0.8145195 -0.12679477 -1.0188342 0.4457808
0000c0 3e 57 85 bd 30 15 9f 3f 33 63 8d 3f ad 82 83 3f
       -0.06510781 1.2428341 1.1045898 1.0274254
0000d0 42 5b 90 bf 61 ad a9 3f db 53 a4 3f a0 2e 81 3f
       -1.127785 1.3256036 1.2838091 1.0092354
0000e0 83 56 a4 bd 7a d2 9f 3f 45 9d a3 3f 3c 88 b8 be
       -0.08024313 1.2486107 1.278237 -0.3604144
0000f0 12 f9 15 bf 41 5c 9c 3f b5 78 26 3f a6 9c 97 3f
       -0.58583176 1.2215654 0.65027934 1.184468

q_out.weight f4 [1, 64]
000000 98 b5 ae 3f 8d 79 e3 ba 7a 44 5b c0 0f 53 5c bf
       1.3649168 -0.001735495 -3.4260545 -0.8606424
000010 cf a6 83 c0 94 12 9e 3f 59 dc 27 40 25 c7 a4 3f
       -4.1141124 1.234942 2.622824 1.2873274
000020 7a 20 53 bf f1 54 02 40 32 ee d8 bf c5 28 78 bf
       -0.8247143 2.0364344 -1.6947691 -0.9693721
000030 ca b5 a4 3f 41 26 a6 3f 83 4e 84 bf 17 f8 a2 3f
       1.2867978 1.2980424 -1.033646 1.2731961
000040 b9 83 a8 3f f4 18 81 3f a2 da 15 bd 70 d2 e2 bf
       1.3165199 1.008574 -0.036585458 -1.772047
000050 2d 83 20 40 4b a0 1c c0 5c 7c 8f bd df 12 71 3f
       2.5080063 -2.4472835 -0.070061415 0.9416942
000060 86 e6 0f 40 3f 86 1a 40 81 5b 85 bf 1f d6 9c 3f
       2.248445 2.4144437 -1.041855 1.2252845
000070 0e d7 7e 3f 20 1b a0 bd c3 37 27 bd 6e ff 9b 3f
       0.995469 -0.07817674 -0.040824663 1.2187326
000080 17 da df bf d7 a6 98 3b b6 8d 9a 3f e1 32 ce bf
       -1.7488431 0.0046585607 1.2074497 -1.6109277
000090 33 f1 ab 3f b7 19 a1 3c 02 e7 73 bd 6f 64 10 be
       1.3432983 0.019665582 -0.059546478 -0.14100812
0000a0 fd 59 9b 3f c1 32 70 3f 06 4b aa 3f 6c f8 a4 3f
       1.2136837 0.93827444 1.3304145 1.2888312
0000b0 3a 9f ef 3f 5a 12 d8 bc ac 03 74 bd f2 db 80 3f
       1.8720467 -0.026375938 -0.059573814 1.0067122
0000c0 70 17 05 3d aa c6 a1 3f 21 51 ca 3f 0b 78 db 3f
       0.032493055 1.2638752 1.5806009 1.7146009
0000d0 11 fb 7c bf a1 b2 a0 3f b5 cb a4 3f c0 75 f6 3f
       -0.98820597 1.2554513 1.2874666 1.9254684
0000e0 cf d8 61 bd cb 3e 9e 3f 34 74 a2 3f a2 36 7b 3f
       -0.055138405 1.2362913 1.2691712 0.9813024
0000f0 e7 c2 ff bf 31 48 a9 3f a2 e6 0d 40 c8 a2 99 3f
       -1.9981354 1.3225156 2.2172017 1.2002802
